checkpoint_agent0_actor.pth (torch_old, 166228 bytes, 14 tensors)

fc1.weight f4 [256, 24]
000000 5b 99 60 3b 5f 84 b8 3c f0 07 28 3d 05 14 07 bd
       0.0034271094 0.022524057 0.041023195 -0.032978076
000010 f8 14 b1 3c b8 96 9a be 54 49 ef bc 47 e3 38 3d
       0.021616444 -0.30193114 -0.02920977 0.045138624
000020 3c ca 7a 3b f7 8d 32 3c f7 2d 13 3d e6 c8 b3 bc
       0.0038267514 0.010898105 0.035932507 -0.021946382
000030 d5 1b 0f 3d 63 88 de bc ab 98 06 bd 6d 2b f9 bb
       0.034938652 -0.027164644 -0.03286044 -0.0076040537
000040 a7 b4 a3 bd 5e 05 9e 3c 7d 97 b7 bc 60 43 05 bc
       -0.07993441 0.019289669 -0.022411102 -0.008133739
000050 87 72 15 bc ac 33 87 3e 4b 9c de 3c 0b c2 27 bb
       -0.009121544 0.2640661 0.027174136 -0.0025597836
000060 a0 92 72 bd b8 96 17 3e f1 22 9a bb 2e 93 50 bd
       -0.059221864 0.14803588 -0.0047038724 -0.05092161
000070 73 f8 56 bd eb c7 fa 3c e8 34 3f 3a 50 40 b2 bb
       -0.052483033 0.030612906 0.00072939554 -0.0054397956
000080 96 5c ac bd bc 72 a1 3d 73 b3 67 bd 02 86 20 be
       -0.08416097 0.07883212 -0.05656762 -0.1567612
000090 8b f3 b7 bd ec d2 e0 3c 42 44 fe bc 20 af 3c bd
       -0.08981999 0.027444325 -0.031038407 -0.04606545
0000a0 69 de 01 be 2a 61 71 3d 43 5f f9 bb fe 83 d4 bd
       -0.12682499 0.058930553 -0.007610233 -0.10376738
0000b0 5d 74 ed ba 75 63 48 3d d9 1f 81 bc 52 f1 22 bc
       -0.0018116344 0.048922975 -0.015762256 -0.009945231
0000c0 34 ca 52 3c 0a e6 58 bb 18 af a8 bc 09 8c b5 3d
       0.012865592 -0.0033096098 -0.020591304 0.088646
0000d0 34 c1 3b bc e2 f0 4f be 83 a9 fe bc c0 14 1f 3c
       -0.011459637 -0.20306733 -0.031086689 0.009709537
0000e0 7d a5 4c 3c 17 98 1a 3d 40 32 8a 3c ef fd 39 3d
       0.012490627 0.0377427 0.016869664 0.045408186
0000f0 4d 36 74 3c 4b 3d 0e bd 3b 9b e0 bc 8d 66 5c 3d
       0.014905524 -0.034726422 -0.02741777 0.053808738
000100 4b 8c 3d 3e 2b 4e 86 3c 66 bd 0e 3d c9 de 1a 3c
       0.18510549 0.016394695 0.034848593 0.00945253
000110 be 68 84 3d 0e 93 27 3c fd b6 7a bc 79 d0 61 3d
       0.064652905 0.010227932 -0.015302417 0.055130456
000120 1d b7 24 3a 85 4f 28 3c e4 27 1f bd 8d 4c 6f bd
       0.00062833895 0.010272865 -0.038856402 -0.058422614
000130 76 60 ba 3d f0 22 af bd 1f d3 ec bc 9f 46 33 bd
       0.0910043 -0.08551586 -0.028909264 -0.04376852
000140 29 48 2a bd 80 7e 21 be be f9 7c 3d 44 7f 9d 3c
       -0.041572724 -0.15770912 0.06176161 0.019225724
000150 cf f9 b9 3d 1f 6b 90 3d d8 8b ae 3c 92 80 86 bd
       0.0908085 0.07051682 0.021306917 -0.065674916
000160 4c ee 95 3d b5 03 7b bd 9d f2 8c bd 57 49 96 3d
       0.07320842 -0.061282832 -0.06882212 0.07338207
000170 77 91 be 3c 96 19 fd 3d 9c d9 a2 3c bf ac 96 3d
       0.023262722 0.12358396 0.019879155 0.073571675
000180 79 3d 45 bd 75 6a a3 bd eb c0 c5 3b 35 04 68 3c
       -0.048154328 -0.079792894 0.0060349605 0.014161159
000190 42 45 eb 3d cf 51 c9 bd a5 83 1a bb 92 e7 99 3c
       0.11487819 -0.09830057 -0.0023577001 0.01878718
0001a0 ab 74 5f bc cf 10 00 bc 48 81 b1 3c 71 e6 9e bc
       -0.013638656 -0.0078165075 0.021668091 -0.019396992
0001b0 59 c2 e3 3c eb 16 da bd 3e 41 db bc 7f 8e 5f bc
       0.027802633 -0.106489025 -0.026764508 -0.013644814
0001c0 6c 20 9d 3c 29 36 13 bd 0e 12 0d 3d 15 28 47 3d
       0.019180499 -0.035940323 0.034441046 0.04862221
0001d0 2f 95 00 be 58 1f 8e 3e 9a 19 38 bd 70 79 82 bd
       -0.12556909 0.27758288 -0.04494629 -0.063708186
0001e0 54 f9 05 3c 8a 10 ff 3d bc 26 0e 3d a2 05 e1 3d
       0.00817712 0.124543265 0.03470491 0.109874025
0001f0 45 37 eb bb a1 86 6b 3c b4 b0 99 bd 1f 7c 2d 3d
       -0.0071782195 0.01437536 -0.075044066 0.0423547
000200 ef 90 8d 3d 8a c0 a3 3d fa c8 30 bd 10 ca 8b bd
       0.069124095 0.07995708 -0.043160416 -0.0682565
000210 67 97 bc 3c 9b 59 f2 3c 59 fc a5 3c 42 df 95 bd
       0.023021413 0.029583743 0.02026193 -0.07317974
000220 fa 8d 0c 3e 1e 11 e8 3c a0 40 8f 3d a6 12 52 bd
       0.13726035 0.028328475 0.06994748 -0.051287316
000230 0c ce 54 3d 7d 26 31 be e9 4f 3b 3d dd db e8 3c
       0.051954314 -0.17299838 0.045730505 0.028425151
000240 95 02 81 bc 43 85 8c 3d d7 88 06 3d 20 eb 20 bb
       -0.015748302 0.06861355 0.032845344 -0.0024554208
000250 7d cb 6f bd c7 09 06 be 2c 16 61 bc bc 2a d0 3d
       -0.05854367 -0.13089667 -0.013738196 0.10164401
000260 5c cb fc 3b 71 b1 9f 3c 78 b0 6c bd cf 59 e3 bc
       0.007714672 0.01949379 -0.05778548 -0.027752785
000270 bd 62 9c bd 6e 73 e2 bd c5 66 85 3c 07 c9 b6 3c
       -0.0763602 -0.11057173 0.016284356 0.022312654
000280 90 b7 a0 3c b0 30 97 3d 0f 9f fa 3c 84 b8 cf 3d
       0.01961878 0.07382333 0.030593423 0.101426154
000290 be c5 d3 bd 94 8c 56 bd dc d8 6d bd 34 a6 a7 3d
       -0.10340451 -0.05238016 -0.05806814 0.081859976
0002a0 08 7c 22 bd d2 d8 80 bd 66 3d 39 bc 6a 9b 6d bd
       -0.039669067 -0.06291355 -0.011306142 -0.058009543
0002b0 87 96 1a 3d 7b 29 cf 3b a6 72 a2 3d e2 dd 67 bd
       0.03774121 0.0063220835 0.07932024 -0.05660809
0002c0 17 e1 41 bb 22 93 e4 bd 1e 53 a9 bd 62 a1 db 3d
       -0.0029583627 -0.11160876 -0.082678065 0.10724141
0002d0 ff d2 64 bd 79 6a 01 be f2 46 8a bd 80 3d 43 3d
       -0.055865284 -0.12638272 -0.06751813 0.047666073
0002e0 94 8f af bd 22 e2 b2 bd e8 b3 74 3a 32 a0 e6 bb
       -0.08572307 -0.08734538 0.00093346694 -0.0070381397
0002f0 97 59 18 bd 40 c4 00 be f5 f1 f8 3b c1 06 1b 3c
       -0.037194815 -0.12574863 0.007597203 0.0094620595
000300 83 33 e6 3d ec b4 6c bc 8e ed f9 39 39 bf c6 bc
       0.11240294 -0.014447432 0.00047669973 -0.024261104
000310 38 cd bd 3a ea 44 61 3d 51 9a 23 bd 49 9f 7d bb
       0.0014480716 0.054997362 -0.03994209 -0.0038699678
000320 b9 a3 6e 3d 29 a5 5c 3d 68 38 23 39 b4 c8 35 3d
       0.058261607 0.053868446 0.00015565904 0.04438086
000330 4a d2 82 3d 10 9f b9 bd a6 ff 3e 3c aa b9 00 3c
       0.06387766 -0.09063542 0.011657631 0.007856766
000340 56 44 a3 3c a0 1b 69 3d 7e 2b 9c 3c 98 0b 11 3e
       0.019930046 0.05691111 0.019063707 0.14164579
000350 5e 9d 30 3e 06 1c b8 bd 72 2f 88 3c f0 94 5e 3d
       0.17247531 -0.0898972 0.016624186 0.054341257
000360 36 70 7d 3c 17 04 05 3e 56 4e 6d bd 2d d1 f4 bc
       0.015468648 0.12989841 -0.057936035 -0.029884899
000370 79 25 1f bc 3f f0 52 bd ba 10 35 bd 75 1c 00 bd
       -0.009713524 -0.051498648 -0.044205405 -0.03127714
000380 be e1 4a bd 30 34 8c 3d f7 83 99 3c 5a 83 96 bd
       -0.04953169 0.068458915 0.018739684 -0.07349272
000390 fa 78 61 3b 5f 7d 89 bb 27 01 d1 bc c0 bb 81 bd
       0.0034404383 -0.0041958536 -0.025513245 -0.063346386
0003a0 9d 23 52 bd 81 95 f7 3d a4 06 7c 3c 16 d5 72 bd
       -0.051303495 0.120890625 0.015382443 -0.059285246
0003b0 8e 36 a9 bd e1 3b 2e 3e 49 06 4d bd 90 8f 1c bd
       -0.082623586 0.1701503 -0.050054822 -0.03822285
0003c0 49 f3 bc 3d f0 df 6c bd b7 0f 89 3b 0f b2 a8 3c
       0.092260905 -0.05783075 0.0041827816 0.020592717
0003d0 24 ea ba 3d 58 9c 7a 3c 04 78 1e 3c d8 b0 cb 3d
       0.0912669 0.015296064 0.009672169 0.0994584
0003e0 33 8e 06 bd 1b 97 77 bc dc 28 aa 3c b1 fb 38 3d
       -0.032850455 -0.01511171 0.020771436 0.045161907
0003f0 83 6e 48 3c d7 27 ad 3d 65 16 c7 bd 84 2f 04 3c
       0.012233379 0.084548645 -0.09721068 0.008067969

fc1.bias f4 [256]
000000 c8 97 10 3e 0f 50 24 3e cf e5 16 be cf 8b 38 be
       0.141204 0.16046165 -0.14736103 -0.18022083
000010 74 e5 af 3d 82 64 0c be 92 e6 5d be 22 c7 fa bd
       0.085886866 -0.13710216 -0.21669987 -0.12245013
000020 3c 79 6c bd 20 8e fe 3c fa c9 22 be f0 21 1b 3d
       -0.057732806 0.03107363 -0.1589736 0.037874162
000030 ab 7f 81 3b 6b 23 72 be 27 a1 cd 3d dc 70 07 3d
       0.003951987 -0.23646323 0.10040503 0.033066615
000040 78 6a f8 3c 1c 54 b9 3d 9c 11 a3 be 3b 96 6a be
       0.030324206 0.09049246 -0.31849372 -0.22908871
000050 ec 24 77 be 7f 8a b1 bd 68 36 aa bd 52 23 64 be
       -0.24135178 -0.08668994 -0.083111584 -0.22279099
000060 0a d1 c2 be 04 30 16 3c d5 24 22 3c 73 e0 19 be
       -0.3805011 0.009166721 0.009896477 -0.15027027
000070 e7 35 81 be 80 fb 1e 3d 6b 48 43 bc 9f 59 cd 3b
       -0.25236437 0.038814068 -0.011919121 0.006266787
000080 6b c4 ee bd ed 93 89 be d9 b4 32 be 3e f9 0f be
       -0.116585575 -0.2687067 -0.174518 -0.14059922
000090 ec 41 a3 bd 6b a4 f8 bd 80 8a 4c be 7c 84 0d bc
       -0.07971558 -0.12140735 -0.19974709 -0.008637544
0000a0 86 d3 96 be 93 34 40 bc 71 fd 22 3d f2 ec 8c be
       -0.29458255 -0.011731285 0.03979248 -0.27524525
0000b0 59 02 a2 bd 69 e9 1b be 9e 43 55 be 69 34 b6 bd
       -0.07910604 -0.15225758 -0.20826575 -0.08896715
0000c0 0a 91 a2 bc 3d 2f 87 be 26 10 10 be 5c 6d 40 be
       -0.01984455 -0.26403227 -0.1406866 -0.18791717
0000d0 a3 54 16 3e d5 84 7d be ff 24 9a bd 26 d1 99 be
       0.14680724 -0.24757703 -0.07526588 -0.3004238
0000e0 85 b1 8a 3d 05 bd 06 3d ad 64 3e be eb d1 52 3e
       0.067721404 0.032895107 -0.18593092 0.2058789
0000f0 f3 2c 63 be dd 81 9a 3d bd 71 f3 3c 47 8b eb bd
       -0.22185116 0.07544301 0.02971732 -0.115011744
000100 3d ee 0c 3e 22 1e 1a be 55 ee 1b 3d 13 1d 9e 3c
       0.13762756 -0.15050557 0.038069088 0.019300973
000110 27 2f 67 3d 4f 72 6d be 3b 5d e9 3d 43 a5 80 3d
       0.056441452 -0.23188137 0.113947354 0.06281521
000120 a4 1b 40 3d 99 e1 9a be 1e e9 c8 bd a9 ca 24 be
       0.04690136 -0.30250242 -0.098100886 -0.16092934
000130 26 3b be 3c e1 94 1b 3d 64 63 df bd 7b cd 1c be
       0.023221564 0.03798378 -0.10907629 -0.1531276
000140 c2 fd 65 be a7 3d a3 be 64 03 12 bd 46 6a 57 be
       -0.22460082 -0.31882975 -0.035647765 -0.21036634
000150 e4 22 4b bd a0 a4 4b be 9b d1 6f 3d a9 be c2 bd
       -0.04959382 -0.19887018 0.058549505 -0.09509022
000160 df 5c 28 be 8d d6 04 3e ba ce c3 bd 83 9d 7d be
       -0.16441678 0.1297247 -0.09560914 -0.24767117
000170 11 94 14 be 73 1f 2b be 27 19 0a be f1 d3 c0 3c
       -0.14509608 -0.16711216 -0.13486157 0.023538562
000180 7c 79 ab bd cd d9 c1 3d 35 2c d5 bd 2b 6b cd be
       -0.08372781 0.0946537 -0.104088224 -0.40120825
000190 33 7c c5 3b 13 fd cf 3d 9b 9d 96 bd a4 a5 97 3d
       0.0060267686 0.10155692 -0.073542796 0.0740464
0001a0 e6 04 48 bc 33 28 81 3e f7 dd 65 be 6c 66 3a be
       -0.012208199 0.25225982 -0.22447954 -0.18203133
0001b0 53 fe 75 bd 49 49 46 be d3 61 a3 bd ca b6 a1 bd
       -0.060056996 -0.19363894 -0.07977643 -0.07896192
0001c0 63 75 b8 bd fd 7b 7d be 05 f8 6b 3d 22 6f 21 bd
       -0.09006765 -0.24754329 0.057609577 -0.039412625
0001d0 d4 27 5e be 3c 9a 8c be d0 1c 39 bd d7 b4 85 be
       -0.2169488 -0.2746142 -0.045193493 -0.26114532
0001e0 cb be 83 be 85 71 b2 3d 84 ed 3f be d2 27 73 be
       -0.257315 0.087130584 -0.18742949 -0.23745659
0001f0 82 a9 49 be 99 12 c1 bd 63 64 0e 3d ad 58 bb 3c
       -0.19693568 -0.09427375 0.034763705 0.022869432
000200 cf eb b2 3c 6d 1e 2e bd fc b8 5c be 75 73 f0 3c
       0.021840958 -0.042509485 -0.21554941 0.02935193
000210 db 92 82 be 00 1e d5 bd c3 21 52 bc 9d 9a e8 bd
       -0.25502667 -0.10406113 -0.012825432 -0.11357615
000220 05 03 51 bd 3a 6f 87 bd 25 b9 c3 3d 75 2a 9a be
       -0.05102827 -0.06613012 0.09556798 -0.30110517
000230 4f d5 37 be 79 d7 0c be b1 49 1c bd a5 95 b8 be
       -0.17952465 -0.13754071 -0.038156215 -0.3605167
000240 e9 29 ae be 01 eb f0 bc b6 6e 88 be 86 2e 89 bd
       -0.3401635 -0.029408934 -0.26646966 -0.06698327
000250 28 44 5c bc af 48 f3 ba 72 be 43 3e d8 69 ee 3d
       -0.013443984 -0.001856109 0.19115618 0.11641282
000260 56 df 28 be 28 83 ef 3d 0f ab 93 be 25 1a 39 3e
       -0.16491446 0.11694938 -0.28841445 0.1807638
000270 28 13 1e 3d b4 6e 71 bd d2 94 58 be e1 18 d3 bd
       0.038592488 -0.058943465 -0.2115052 -0.1030748
000280 d1 c0 84 bd ef a0 03 3e d2 38 13 be ba 01 8b be
       -0.06482089 0.1285436 -0.14377144 -0.27149755
000290 a7 4d c4 bd 7f b4 14 bd 97 5e de bd 73 ac 51 bc
       -0.095851235 -0.036304947 -0.10857885 -0.012797463
0002a0 d6 52 08 3e da ad 41 be 4e b0 ae bd d3 8a 06 3e
       0.1331285 -0.18913975 -0.08529721 0.13138895
0002b0 cc 18 82 bb 9f e1 73 be 33 fc 63 3e e3 48 9c be
       -0.003970241 -0.23816536 0.22264175 -0.30524358
0002c0 84 22 89 be 23 59 96 bd 8d 36 23 3d 14 74 a1 3d
       -0.26784146 -0.0734122 0.039846946 0.07883468
0002d0 f2 4b 45 3d 10 d8 06 be 36 44 13 bd 89 f5 38 be
       0.04816813 -0.13168359 -0.035953723 -0.18062414
0002e0 bf 54 89 be 1c 01 2a 3d c3 f1 96 be 9c bf 15 3e
       -0.2682247 0.041504964 -0.29481325 0.14623874
0002f0 85 cc c5 bc 03 17 59 3e cf ac 69 3d 2a 3a a3 be
       -0.024145374 0.21200185 0.05704957 -0.31880313
000300 ce d3 3a 3d 01 31 03 bc a9 0a 08 3d 34 6f 0c be
       0.04561215 -0.008007289 0.03321329 -0.13714296
000310 fb 6b 90 bd 46 b8 de be ae 39 ed 3d aa a3 91 bd
       -0.07051846 -0.43499964 0.11583267 -0.071112946
000320 9a ae d6 3d fe 6a 2a be ca 63 87 be 3a 79 13 be
       0.10482521 -0.16642377 -0.2644332 -0.14401713
000330 8a 2a be 3d 6c e5 bd be e5 18 a4 3d b2 e9 ac bd
       0.092854574 -0.37089097 0.08012561 -0.08443011
000340 8e 66 84 bd 8f 2d f1 3d 9b 24 17 be fd 15 02 3e
       -0.06464873 0.11776268 -0.14760058 0.127037
000350 27 64 14 3e 31 80 59 3e 16 cb a5 be ac 59 8e be
       0.1449133 0.21240307 -0.32381505 -0.2780279
000360 cf cd 93 be 12 22 5b be 51 6a 59 3e 24 d4 73 bc
       -0.28867957 -0.21399716 0.21231963 -0.014882121
000370 f9 5c 2a be 0c 94 5e be 48 57 db bb 44 e8 86 bd
       -0.16637029 -0.21736163 -0.0066937543 -0.0658727
000380 4c 3a 8c be 70 e0 86 3d fb 23 38 3e 41 d7 65 be
       -0.27388227 0.06585777 0.17982475 -0.22445394
000390 11 6f b0 3e 51 80 45 be 74 de c4 3b b2 65 38 be
       0.34459737 -0.1928723 0.006007964 -0.18007544
0003a0 ef 34 37 bb f9 4c 37 be e6 1c 6c 3c e8 f9 4d be
       -0.0027955135 -0.17900456 0.014411187 -0.20114863
0003b0 a7 85 4f be 62 39 01 3e b0 51 dd 3d 51 9d f0 3c
       -0.20265828 0.12619546 0.10806596 0.02937189
0003c0 2a 4d d6 bd 40 32 7d bd c0 f3 61 bd ea 36 ad bd
       -0.104639366 -0.0618155 -0.0551641 -0.0845774
0003d0 17 2c 36 be e3 57 9e be 78 fd 87 ba eb 70 41 be
       -0.17790256 -0.30926427 -0.0010375222 -0.18890731
0003e0 de 7f 3b 3e c7 64 6b be 7d 93 bf bc 39 27 be 3c
       0.18310496 -0.22987662 -0.023385758 0.023212062
0003f0 52 07 d0 3c a6 a2 18 3d ae 2f c6 bd 88 e9 29 3e
       0.025394116 0.03726449 -0.09677063 0.16592991

fc2.weight f4 [128, 256]
000000 f5 83 d7 bd fb 4d 26 be 61 62 9c bd 65 9d 56 bd
       -0.10523216 -0.16240685 -0.07635952 -0.052396197
000010 c4 14 02 bd c0 88 4e bd c8 d0 0c be 28 fd 24 3e
       -0.031758085 -0.050423384 -0.13751519 0.16112196
000020 ca 31 44 bd d5 18 c5 bd 97 a1 9d 3d 07 7b 8b bc
       -0.047899045 -0.09623877 0.076968364 -0.017026437
000030 c2 b5 8d bc 7c aa 70 bc dd 31 29 bc db 55 c9 3d
       -0.017298583 -0.014689084 -0.01032683 0.09830829
000040 7b a7 8b 3c 99 57 7d 3d a5 76 33 3d 02 06 dd 3c
       0.017047634 0.061851118 0.04381432 0.026980404
000050 38 6c a1 bb dc ae dd bd 3a c1 09 bd 1f 29 43 be
       -0.0049262308 -0.108243674 -0.03363154 -0.19058655
000060 04 f0 e5 bd e7 21 8a 3d 5a fb 56 3d 42 eb 4c 3c
       -0.1122742 0.067447476 0.0524858 0.012507262
000070 8a 5b ff bd ca 40 9a 3c 3e 44 61 3d 30 2f 9a be
       -0.124686316 0.018829722 0.05499672 -0.30114126
000080 ee 05 ac bc e8 18 18 bd c6 6d 01 3d b1 51 35 3d
       -0.020998921 -0.037133127 0.03159883 0.04426736
000090 b1 64 89 bd 4c 9e 03 3e 8f bd d2 bc 00 27 59 be
       -0.067086585 0.12853354 -0.025725154 -0.21206284
0000a0 3e 9d 0a 3d fe 8e 80 3c dc 50 ce 3c 44 a1 27 be
       0.033841364 0.015693184 0.025185041 -0.16370112
0000b0 32 90 41 be 2e 48 37 be 07 89 bf 3c 34 d0 6d bd
       -0.18902662 -0.17898628 0.02338077 -0.058059886
0000c0 cd 62 1d be 7a 54 69 3d 09 a9 8f 3e 84 9a 5c 3d
       -0.15369721 0.05696533 0.2805865 0.053858295
0000d0 0e e2 28 3e fc d5 44 be 56 fd 30 3e c9 89 79 be
       0.16492483 -0.19222254 0.1728414 -0.24368967
0000e0 64 86 e3 3d 04 e7 1a be 84 d8 dd be a5 f4 83 bc
       0.11109617 -0.15127188 -0.4332925 -0.016107867
0000f0 08 68 27 be 4d f8 9b 3d e0 b1 a2 3d 71 1f 66 bd
       -0.16348279 0.07615719 0.07944083 -0.05618233
000100 bf cc 9d bd 7a ba da 3c 4c fe 4f 3e 79 53 67 bb
       -0.07705068 0.026700247 0.2031185 -0.0035297556
000110 09 32 0d 3e 1c 25 37 bd 6d 54 a4 bd d7 b7 64 bd
       0.13788618 -0.044713125 -0.080239154 -0.055839386
000120 73 bd 72 3e ff f2 91 bc 71 33 b9 3d ef c7 82 bd
       0.23705082 -0.017816065 0.09043015 -0.063857906
000130 93 6e c0 bd 53 03 a0 3c ad 18 5b bd 67 96 2c 3e
       -0.0939609 0.019532835 -0.05349033 0.16854249
000140 d3 58 dc bc 32 fc 95 be 5f 14 5e bd 84 2e 6c 3b
       -0.026897823 -0.29293972 -0.054218646 0.0036038468
000150 34 40 78 bd 53 66 ab bd b5 d9 6b bd 2f 88 98 bd
       -0.060608104 -0.08369126 -0.05758067 -0.0744785
000160 9a cb f7 3c cd 7f d0 bc 01 a0 d5 bd dc 9d a8 bd
       0.030248452 -0.025451565 -0.10430909 -0.08233234
000170 3b f2 af 3c 4a 82 f4 3d c5 a0 71 3c 0a ce 96 bb
       0.02147781 0.11938913 0.014747803 -0.0046021985
000180 f7 52 0b bd 90 31 52 3c 6a 24 1c 3e a0 16 55 be
       -0.03401467 0.012829199 0.15248266 -0.20809412
000190 31 ba 6b be 16 e2 17 be d2 ac b1 bb 75 a5 a6 bd
       -0.23020245 -0.14832339 -0.005422213 -0.08137027
0001a0 0d 8b 0e bd b1 90 0c 3e 3b 5e 83 bd 60 6f df bd
       -0.034800578 0.1372707 -0.064144574 -0.10909915
0001b0 47 cd ac bd b2 ce 0a 3e 61 31 92 bd ba 4d 16 be
       -0.08437591 0.1355541 -0.071383245 -0.14678088
0001c0 9c d7 0b bd eb d6 bf bd 5a 53 93 bd 55 34 8c bc
       -0.034141168 -0.09367164 -0.071936324 -0.017114798
0001d0 b2 4c b7 bc ff 7d 70 bd ca 55 d6 bd 98 07 84 bd
       -0.022375438 -0.05871391 -0.10465582 -0.06446761
0001e0 eb 5e 00 be 67 f9 4a 3e a7 8b 2f 3d 69 65 ba 3c
       -0.12536208 0.19821702 0.042857792 0.022753434
0001f0 ea 4e b1 bd 82 39 e0 bd 5d 7d ba 3d ac a1 9a be
       -0.0865763 -0.10948469 0.091059424 -0.3020147
000200 b5 bf 06 be a3 12 92 bc 6f 14 02 be 48 ad 04 3d
       -0.13159068 -0.017831152 -0.12703107 0.032391816
000210 67 ef 2a be 4d d5 02 3d 3e 73 d9 bd bc cf 03 3e
       -0.16692887 0.0319417 -0.10617684 0.12872213
000220 d0 72 f4 bd 03 6d d5 bd 6d ef 14 bc 6e 9d ce 3a
       -0.11935961 -0.10421183 -0.009090287 0.001576347
000230 79 4b e3 bc cc 63 2d 3d 55 7f 17 bd 88 e2 0a bf
       -0.02774595 0.0423315 -0.036986668 -0.5425191
000240 8d 88 d8 3d 82 d9 6d bc ca 2b 68 3c 48 aa 8a 3d
       0.1057292 -0.01451719 0.014170596 0.0677076
000250 b7 54 db bd ec 52 b6 3c 31 94 55 bd 81 c2 97 bd
       -0.107095174 0.022256337 -0.05214328 -0.074101456
000260 1b 8b 47 3d 3f 0b 96 3c 8c 92 d6 bd e4 c3 a6 bd
       0.048716646 0.01831591 -0.1047717 -0.08142832
000270 d2 ee d9 bd c2 63 4c be ea 4e 2c 3e 03 0e a2 be
       -0.106412545 -0.1995993 0.16826978 -0.31651315
000280 5f 3b ef bc 23 15 bb bd d2 75 b3 3c 7f 0b b2 bd
       -0.029203115 -0.09134891 0.021906767 -0.08693599
000290 46 16 01 3e 21 c5 85 bd ff f0 7e 3e cc 94 98 3d
       0.12606153 -0.0653174 0.2489662 0.07450256
0002a0 9b 28 10 bd 53 c0 84 3e 39 df 5d 3e 94 f3 bc 3d
       -0.035194974 0.25927982 0.21667184 0.09226146
0002b0 79 09 9c 3d 2f 14 ac bb 6b ee 04 bd 7d f3 74 be
       0.07618994 -0.0052514295 -0.032453936 -0.23921008
0002c0 15 6f 74 be 3f a2 5b bd 33 e7 8c bd 2f bc 2f 3d
       -0.238705 -0.053621527 -0.06880035 0.042904075
0002d0 dc 31 02 3e 58 59 9e 3c d9 26 33 be f5 ad 2f bd
       0.12714332 0.019329712 -0.17495288 -0.042890508
0002e0 c5 2b c1 3d fa 0b 07 3d 9a 54 72 be 09 f1 7f 3d
       0.094321765 0.032970406 -0.23665085 0.06248573
0002f0 8f d9 0a be 5e 3f f5 3d ec 1a a9 3d e7 34 3c bd
       -0.13559555 0.11974977 0.08257088 -0.04594889
000300 ab 02 e6 3c 4b 7f f7 bc 56 98 65 bd 2a f3 8a bd
       0.028077444 -0.030212065 -0.056053482 -0.06784661
000310 7a 90 3e 3e 28 36 5f bd c8 ed 2e 3d 8c de 2e 3d
       0.18609801 -0.054495007 0.042707235 0.042692706
000320 e8 db 0b be 1c 0e 49 3e d1 7e 80 bc 3b e2 45 be
       -0.13658106 0.19634289 -0.01568547 -0.19324581
000330 a3 2b 31 be 4c 8e df 3d 65 66 c9 bd 2e e4 87 3d
       -0.17301802 0.10915813 -0.09833983 0.06635319
000340 d0 ba 47 be c3 ec 84 bd 2b 3a 58 3e 69 9e 40 3c
       -0.19504857 -0.06490471 0.2111594 0.011756518
000350 1a b4 0a 3d 81 69 6e bd 1e 95 84 be 99 50 d4 bd
       0.033863164 -0.058206085 -0.25895017 -0.10366935
000360 79 b1 f1 3b 1d 39 11 bd e3 2a 89 bd b1 2a 01 bd
       0.0073758927 -0.035454858 -0.06697633 -0.031534854
000370 8c af b6 bd 16 5d a0 3d fc 65 fb 3d 06 ee b0 3c
       -0.08920202 0.07830255 0.12275311 0.021597873
000380 fc d6 bf 3c cf 98 60 bd b1 a7 76 3e b4 f0 d6 bd
       0.023417942 -0.05483323 0.24087407 -0.10495129
000390 b4 e6 54 3d c5 bb a0 3d b2 c5 d6 bd 99 3f 81 bd
       0.05197783 0.07848314 -0.10486926 -0.063109584
0003a0 27 a3 6e bd 8e ff 83 bd a4 0f a4 bd fe 9b b6 3b
       -0.058261063 -0.064452276 -0.08010796 0.005572795
0003b0 d6 ea cc bd 07 cb 51 3d 96 74 8f bc 96 b0 e9 3c
       -0.10005729 0.051219013 -0.017511647 0.028526586
0003c0 ad 1d 8b 3d bf 93 44 3d 2b fc b9 3d 07 51 1d be
       0.067927696 0.047992464 0.090813 -0.1536294
0003d0 d5 27 64 3e eb 76 2f bd 57 42 06 3e 9f 1a 4d 3d
       0.2228082 -0.04283802 0.13111244 0.050074216
0003e0 ff 4a c5 3c a7 31 72 bd 4a 57 53 be ea cb e4 bc
       0.024083612 -0.059129383 -0.20638767 -0.027929265
0003f0 5b 0b b2 3d 3e 99 55 3e f8 8d 26 bd 2a 27 b0 3d
       0.08693572 0.20859239 -0.040662736 0.0860122

fc2.bias f4 [128]
000000 5e 16 a5 3d 90 e7 22 3d 48 e9 80 3d 41 c4 fd bc
       0.08060907 0.039771616 0.06294495 -0.03097737
000010 5e 25 93 bd 36 96 51 3c a2 59 80 3c 54 5a 46 be
       -0.071848616 0.012792161 0.01566774 -0.19370395
000020 3b e8 98 bd 0a a7 d0 3d d4 96 fd 3c 94 c3 8f 3e
       -0.074661694 0.1018811 0.03095571 0.28078902
000030 83 56 d5 3c 52 cd 82 bc 08 53 34 bd fb 77 8f bd
       0.026042229 -0.015967045 -0.044024497 -0.07005306
000040 05 3c e7 bd 2b ba 09 3e b4 a8 fc 3d 6a 78 d4 3d
       -0.11290745 0.13449924 0.12336865 0.1037453
000050 c4 d7 66 3d 70 de 6a bd 43 0f 75 3d a2 f7 6c 3c
       0.056358114 -0.05734104 0.059829008 0.014463337
000060 2c 2f 60 3d d0 38 fa bc ad a4 83 3b 40 d6 31 3b
       0.054732487 -0.030544668 0.0040174336 0.002713576
000070 d8 24 7d 3d 6e ad 3a bc 4e b6 05 3e 76 bb 9e bd
       0.061802715 -0.011393888 0.13057825 -0.07750599
000080 3f f0 94 bd 40 b5 54 3d b7 e6 47 3c 99 4f 9c bd
       -0.07272386 0.051930666 0.012201003 -0.076323695
000090 30 a4 1a 3d 79 1b 1a 3d bc e8 5c 3d b6 8a 0b bd
       0.037754238 0.037623856 0.05393289 -0.034067832
0000a0 b5 dd 96 3d f3 23 79 3c 2d 7f 75 bd 2b e4 df bc
       0.07366506 0.015206325 -0.059935737 -0.027330479
0000b0 fa de 3a bd b0 d5 f2 3c 78 be fa bd 21 86 f7 3d
       -0.045622803 0.02964291 -0.1224336 0.1208613
0000c0 c1 ce 88 3b 69 6e 2f be 7b da 98 3d de 4d bf 3c
       0.0041750376 -0.17131962 0.07463547 0.02335256
0000d0 8a 1d 84 bd 29 21 b7 3d 51 b0 05 bd 67 e0 00 3c
       -0.06450947 0.08941872 -0.03263885 0.007866002
0000e0 08 34 21 3d 96 9d b3 3c 19 50 42 bd 0e 0e 26 3d
       0.03935626 0.021925729 -0.04743967 0.040540747
0000f0 74 bf 29 be ad 95 ef 3d 45 ec a6 3c a7 ee ed bd
       -0.1657694 0.1169847 0.020376334 -0.11617785
000100 4c 4f d9 3c aa fd 54 bc 51 92 f3 3d cd a0 cf bc
       0.02652707 -0.012999931 0.11893142 -0.02534523
000110 32 5a e9 bc cf 36 96 bd 43 54 18 be 0c 34 03 3e
       -0.028485391 -0.07334673 -0.14875893 0.12812823
000120 2d b2 b4 3b 71 d3 cc 3c 4d 96 a0 bc bc d2 6b 3d
       0.0055144043 0.025003167 -0.019602919 0.05757402
000130 6e 54 d6 bd f9 22 77 3d f8 65 c3 bc 14 95 66 3c
       -0.104653224 0.060336087 -0.023852333 0.014073629
000140 fc 2d 83 bd 56 81 a7 bb 5e 25 65 ba 6f ba 84 3d
       -0.06405255 -0.0051118536 -0.0008741225 0.06480872
000150 bc 67 80 bc 1a 19 22 bc d5 55 2b bc 5e 94 9f 39
       -0.015674464 -0.00989368 -0.010457476 0.00030437385
000160 d8 d9 ac 3c 9e a8 ab 3b 94 c4 2e be 79 64 c5 3d
       0.02109997 0.0052386066 -0.17067176 0.09638304
000170 0f 30 8d bb 2a a8 78 bc 20 6a 97 3d 90 79 ea 3c
       -0.0043087075 -0.015176812 0.073932886 0.028622419
000180 d3 8c 66 bd 8c 4f 40 3c 97 e8 44 3b 51 7d 10 be
       -0.056286644 0.011737715 0.003004586 -0.14110304
000190 1d 28 2c 3d 8a 83 85 bd 7e d1 24 3c ba b9 59 3d
       0.042030443 -0.0651923 0.010059712 0.05315564
0001a0 56 73 98 bc 07 7b 4f bd 31 70 a7 3d 9e 3a 2f 3c
       -0.018609684 -0.050654437 0.08175696 0.010695128
0001b0 f4 72 02 be 02 65 b8 bc 14 8b 00 3d 1c b2 a4 3a
       -0.12739164 -0.022509102 0.031382635 0.0012565288
0001c0 f7 14 56 bb c2 b4 55 3d 27 7b b1 bc bc ab 01 bc
       -0.0032666305 0.052174337 -0.021665169 -0.00791448
0001d0 30 19 1b 3d e8 64 c0 bc 4a cb 01 3e 09 7c fe 3c
       0.037865818 -0.023485616 0.12675205 0.031065004
0001e0 01 e2 b9 3d 63 62 47 3c 6f 45 4a bd 59 32 1e 3c
       0.0907631 0.012169453 -0.049382623 0.0096555585
0001f0 af 3a bc 3c d4 81 43 3d 19 61 14 be 51 5f a4 3c
       0.022977201 0.047731236 -0.14490165 0.020064982

fc3.weight f4 [2, 128]
000000 7b e1 50 be 76 90 d6 3d 07 35 72 3e d3 ee 22 3e
       -0.20398514 0.104767725 0.23653041 0.15911417
000010 5b 6f 8f 3e d8 c9 10 be d7 35 e7 3d 30 d7 f0 3e
       0.28014645 -0.14139497 0.11289566 0.47039175
000020 f7 ce 5d 3e 74 6e 0b 3e 40 36 49 3e 28 af 12 be
       0.21660982 0.13616353 0.19649601 -0.1432463
000030 b8 d9 4b be 19 fe b4 3e 2e 14 82 b9 9f 89 5c be
       -0.19907272 0.3535011 -0.00024810567 -0.21536873
000040 b5 5f ee 3e 92 00 42 be f5 d5 2c be 75 5e 69 be
       0.46557394 -0.1894553 -0.16878493 -0.22789939
000050 56 cd 8d bd 52 64 18 bd c5 28 48 be 2b 52 dc bd
       -0.0692393 -0.037205048 -0.19546802 -0.1075786
000060 3f 6f 6d 3d ce 78 f0 bd ee 29 16 3d 0d 47 2c 3d
       0.05796742 -0.11741792 0.03666108 0.042059947
000070 4e ce ef bc 87 12 a5 3e 1f fd 32 be fb 6b 82 be
       -0.029273178 0.32240698 -0.1747937 -0.25473008
000080 c1 78 8e 3e d3 89 06 be 7d e9 42 bd 66 ef 05 be
       0.27826503 -0.13138513 -0.047585953 -0.13079605
000090 ab 16 30 be be 2e 18 3e 62 62 a4 3c 36 f9 3f 3d
       -0.17196147 0.1486158 0.020066444 0.046868525
0000a0 b7 cf 76 bd 07 17 7c be a3 a1 a9 bd 74 a4 89 3e
       -0.060256686 -0.24618159 -0.08282783 0.2688328
0000b0 36 8c 71 be b9 69 1e be a2 95 6a be 78 37 99 be
       -0.23588642 -0.15470017 -0.22908643 -0.29925132
0000c0 d7 a5 38 3d d1 85 ea 3e 2b 77 32 be 96 dd 38 be
       0.045080032 0.4580522 -0.17428271 -0.18053278
0000d0 a5 6d 47 be 33 45 68 bd eb 7a 39 3e 1e 2e 87 be
       -0.1947542 -0.05670662 0.18113296 -0.26402372
0000e0 fe 44 8b bd be 0c 12 3e a0 2d 8a 3e 59 04 7e 3e
       -0.068002686 0.14262673 0.26987934 0.24806346
0000f0 5c 97 d7 3e 51 61 22 be 85 3d 84 be 51 c9 3a 3e
       0.42107666 -0.15857436 -0.25828186 0.18240859
000100 84 3a c2 bd 6a 3c 48 be cd c2 1b be cd b2 51 3e
       -0.09483817 -0.19554296 -0.1521103 0.20478363
000110 65 a3 45 3e 5c 66 ae 3e 87 e0 69 3e 18 e7 6e 3e
       0.19300611 0.3406247 0.22839557 0.23330343
000120 2b 93 2d 3e 14 4e a9 3d e6 d2 ff 3e dc 05 bb 3d
       0.16950671 0.08266845 0.4996559 0.09131977
000130 5f 5e f8 3e 1d 42 77 3d c8 97 8c be f4 00 13 3e
       0.485095 0.060365785 -0.2745955 0.14355832
000140 3b 48 15 be 17 6d 4c be 2c c7 18 3e 43 b7 5b be
       -0.14578335 -0.1996349 0.14919728 -0.21456628
000150 ce 27 89 bd 43 b7 0e 3e 33 ed 92 be 9e 5a 45 3e
       -0.06697045 0.13937096 -0.28696594 0.19272849
000160 26 5b 37 be f9 ad 74 be 72 dd 13 3f 0c ff 8b 3c
       -0.17905864 -0.2389449 0.57759774 0.01708939
000170 2c 50 1c 3e bb e1 84 3e 3f 41 61 be 2a d9 f0 3d
       0.15264958 0.2595347 -0.21997546 0.11760171
000180 5d 2f 8a 3e 73 71 68 3e b1 08 70 be 62 a1 3d 3e
       0.2698926 0.22699527 -0.23440816 0.18518594
000190 68 e6 b4 3c 3f 34 84 3e 86 ad 1e 3e a6 17 02 3e
       0.022082523 0.2582111 0.15495881 0.12704334
0001a0 2c 59 81 be a0 a2 8a be bd 14 b8 bd 68 c8 58 be
       -0.25263345 -0.27077198 -0.089883305 -0.21170199
0001b0 aa 86 04 3e dc cf 85 be 39 09 c7 bd 36 10 02 3e
       0.12941995 -0.26135147 -0.09718556 0.12701496
0001c0 79 29 83 3e f8 5a 81 be c6 3e 1a 3e e3 2d c6 3d
       0.2561758 -0.25264716 0.15063009 0.09676721
0001d0 49 15 e7 3d f9 5a 31 be 04 6f 5d bd e1 01 3c bd
       0.11283357 -0.1731986 -0.05406095 -0.04590023
0001e0 e7 91 2e 3e 21 b7 7d be cd 90 8e 3e 6b e3 37 3e
       0.17047845 -0.2477689 0.2784485 0.17957847
0001f0 94 3e 9a 3d 17 c5 39 3e 42 ea b5 3d b1 a2 06 3e
       0.07531467 0.1814159 0.08882572 0.13148
000200 6b e2 0e 3e a6 42 2f be 3d 37 4e b9 30 00 b3 be
       0.13953559 -0.17115268 -0.00019666269 -0.3496108
000210 b7 27 18 bc f0 ee 25 be d1 63 22 be 90 bc 2b be
       -0.0092868125 -0.16204429 -0.1585839 -0.1677115
000220 0f 70 2b be c5 e6 b3 b9 d9 09 99 bd eb 93 58 3b
       -0.16741966 -0.00034313477 -0.074725814 0.003304715
000230 de 83 a2 be af 21 76 3d 5e 9c eb 3e f0 b5 e1 bc
       -0.31741232 0.060090717 0.46017736 -0.027552575
000240 ee 54 2b be e3 bc cc bc f1 8f a9 3d e6 05 bf 3d
       -0.16731617 -0.024992412 0.08279408 0.09327297
000250 38 a6 a6 3e 07 5f 95 bf cb 6d 07 bd 63 a5 21 be
       0.3254869 -1.1669625 -0.03306369 -0.15785746
000260 77 64 5a 3e 98 b2 98 3e e5 4e 32 3e a7 e8 bc 3e
       0.21327387 0.29823756 0.17412908 0.3689625
000270 af 29 57 3e 76 26 d6 bd 87 bc 07 3d 82 14 8a be
       0.21011995 -0.104565546 0.033138778 -0.2696877
000280 63 2e ad be 5a 47 6a 3e ab 5b 48 be b6 2d fe bd
       -0.33824453 0.22878781 -0.19566219 -0.124110624
000290 61 16 8e be 31 c4 31 bc 5a 18 6a be a9 8d 71 be
       -0.2775145 -0.010849998 -0.22860852 -0.23589195
0002a0 72 55 9a be ac c3 b2 3d de 54 b8 3e 9d 56 88 3d
       -0.30143315 0.08728728 0.3600225 0.06657145
0002b0 15 9a 0f be 1e ec 96 3e b1 17 d1 bd 7c fa 24 3e
       -0.14023621 0.29477018 -0.10209597 0.16111177
0002c0 91 79 08 3e 1b 9f a2 be 70 e6 f9 3d 01 da 99 3e
       0.13327624 -0.31762013 0.122021556 0.30049136
0002d0 ba 4f 26 3d 36 05 a8 3e 62 3f 40 3c 4c 6c 0c be
       0.040603377 0.32816476 0.011733862 -0.13713187
0002e0 d8 2f 63 3e 92 40 1a be 44 4d d6 bc ad 2d 41 bd
       0.2218622 -0.15063694 -0.02615989 -0.0471627
0002f0 10 46 ad be 2e f9 2b 3e fd 00 13 be 64 52 4d be
       -0.33842516 0.16794273 -0.14355846 -0.20050961
000300 40 6a 26 3e c4 17 3a be d8 33 77 bc 76 88 82 be
       0.16251469 -0.18173128 -0.015088044 -0.25494736
000310 b7 f0 83 bd 73 96 33 3e f4 de f6 3d 7f d9 38 bd
       -0.06442397 0.1753786 0.12054244 -0.045129295
000320 34 59 40 be bd 27 5f bd 70 46 27 3d 84 ed 95 3d
       -0.18784028 -0.054481257 0.04083866 0.07320693
000330 9e a8 cc 3d 86 27 64 3e 51 c3 0a bc 87 fe 8f 3d
       0.09993099 0.22280702 -0.008469419 0.07030969
000340 aa 74 87 be 83 55 0e 3e 0d 9b 4b be 07 ee 72 3e
       -0.26456195 0.13899808 -0.19883366 0.23723613
000350 31 9f 00 bf f2 82 17 bd a6 4f a7 bd 76 c6 cc bd
       -0.50242907 -0.036990114 -0.081694886 -0.09998791
000360 98 4f 25 be 0b 05 1b 3d c4 49 43 bb 6e b1 6d be
       -0.16143644 0.037846606 -0.0029798606 -0.23212215
000370 b3 9c 48 be fd 85 fc 3c 21 c7 36 be d7 dc a2 bd
       -0.19591026 0.03082561 -0.17849399 -0.07952278
000380 aa 32 cc bd 52 2f ff 3d 0d fb 0f 3e 84 cd 02 3e
       -0.09970601 0.124601975 0.14060612 0.1277371
000390 72 74 9e be c9 bb 74 be 79 6e a8 be 57 c7 03 bd
       -0.30948216 -0.2389976 -0.32896784 -0.032172527
0003a0 62 1e c3 3c 29 d4 22 be 9b b9 55 be d3 f8 05 3e
       0.023818199 -0.15901245 -0.20871584 0.130832
0003b0 6e 49 ba be 86 b0 6c b9 bd 68 28 3e 09 21 09 3c
       -0.36384147 -0.00022572474 0.16446204 0.008369693
0003c0 53 cd 19 be 61 7f 84 be ca 4a 8a 3d 6a 04 eb bb
       -0.15019731 -0.25878432 0.06752546 -0.007172157
0003d0 e6 2b 80 be 64 9e 09 3f 37 2a 53 3e 99 a1 32 be
       -0.25033492 0.5375731 0.20621572 -0.17444457
0003e0 dc 7a ee bd 29 b5 70 3e 3d 67 13 3e af a1 51 3e
       -0.11644527 0.23506607 0.14394851 0.20471834
0003f0 82 7d c4 be 1d 8a 9e 3d 73 63 8f be ee 07 c5 3e
       -0.38377005 0.07741187 -0.2800556 0.38482612

fc3.bias f4 [2]
000000 78 c4 34 be d7 4b 17 bd
       -0.17653072 -0.03693756

bn1.weight f4 [256]
000000 5c a0 5e 3f f3 e4 fa 3e 14 e3 83 3f f6 04 ab 3e
       0.8696344 0.490028 1.0303674 0.33402222
000010 a1 d0 4a 3f 58 f4 b7 3e 7c 88 ce 3e 91 9a 5b 3f
       0.7922459 0.35928607 0.40338504 0.85782725
000020 ac 44 87 3f b9 89 3e 3f 25 f0 87 3f 70 64 44 3f
       1.0567832 0.744289 1.0620161 0.76715755
000030 20 07 4f 3f 95 6e 78 3f f6 3c 7d 3f 38 96 6b 3f
       0.80870247 0.97043735 0.98921144 0.9202609
000040 18 f9 20 3f 48 c0 55 3f 26 11 36 3f ef a3 31 3f
       0.62880087 0.8349652 0.71119916 0.6939077
000050 38 80 85 3f 99 c5 78 3f 77 ae 88 3f 8e 59 6c 3f
       1.0429754 0.9717651 1.0678242 0.9232415
000060 46 6c 7a 3f 25 f9 48 3f f9 72 7a 3f 00 d0 a4 3f
       0.9782146 0.78505164 0.97831684 1.2875977
000070 7f 4f 81 3e c0 a6 52 3f 43 54 4a 3f 19 d1 a0 3e
       0.25255963 0.8228569 0.79034823 0.3140953
000080 e3 e8 2c 3f fa 9f b3 3e 4f ef 81 3f f9 0e 3b 3f
       0.67542857 0.3508299 1.0151156 0.7306972
000090 bf ac 02 3f 27 3a 77 3f 5e 41 dc 3e 2c 84 7d 3f
       0.5104484 0.9657311 0.4301862 0.99029803
0000a0 8f ce 38 3f f6 76 4a 3f 08 8b 57 3f fd 29 3e 3e
       0.72190183 0.7908777 0.8419652 0.18570705
0000b0 1e 74 80 3f af ee 46 3f dd cf 07 3f b6 22 80 3f
       1.0035436 0.7770795 0.5305155 1.0010593
0000c0 47 c3 27 3f d9 4c a8 3e c0 d9 32 3f eb c9 73 3f
       0.65532345 0.3287113 0.6986351 0.9522998
0000d0 8f e4 9b 3e f0 e8 2b 3f 57 96 d3 3e b6 aa a0 3f
       0.30447814 0.6715231 0.41325638 1.2552097
0000e0 98 ed 11 3f 07 42 95 3f 79 09 2c 3f 94 2d 60 3e
       0.57003164 1.1660775 0.67201954 0.21892387
0000f0 89 07 37 3f f8 76 9b 3f 70 5f 36 3f 85 77 1b 3f
       0.7149587 1.2145681 0.71239376 0.6072925
000100 eb 4d 01 3f 8f 80 4d 3f 9e 1e dc 3e 12 09 04 3f
       0.5050952 0.8027429 0.4299211 0.5157634
000110 80 25 8e 3f a3 d2 d0 3e 65 05 75 3f 82 d6 fa 3e
       1.1105194 0.40785703 0.95711356 0.4899178
000120 a4 d4 32 3f 98 e7 cb 3e de 43 27 3f 07 b2 00 3f
       0.69855714 0.3982513 0.6533793 0.5027165
000130 64 26 a4 3e 44 b4 97 3f a9 55 4a 3f 0a 26 57 3f
       0.3206054 1.1851888 0.7903696 0.8404242
000140 55 ce 3e 3f 93 ac cc 3e 3e 1d 8d 3f 72 4c c4 3e
       0.7453359 0.39975414 1.1024549 0.38339573
000150 cf da 76 3f 17 60 6a 3f 30 dd 82 3f 36 f2 4a 3f
       0.96427625 0.9155287 1.0223751 0.79275835
000160 27 a1 4d 3f 7e 2c 82 3f c5 87 a6 3e eb e5 58 3f
       0.80324024 1.0169828 0.3252546 0.84725827
000170 56 1d 91 3f df 7b 9b 3e 87 50 81 3f 14 14 79 3f
       1.1337078 0.30367944 1.01027 0.9729626
000180 f7 1f fc 3e f1 28 26 3f 36 a4 ac 3e a2 27 89 3f
       0.49243137 0.6490622 0.33719033 1.071522
000190 86 30 e5 3e 10 31 6a 3f cd 39 e8 3e ed 81 07 3f
       0.44763583 0.91481113 0.45356598 0.52932626
0001a0 c0 82 9c 3e ee cc 71 be 15 95 8a 3f 7b 0d 03 3f
       0.30568504 -0.2361333 1.0826746 0.51192445
0001b0 fe fb 3b 3f 1d c1 4a 3f 71 cb b7 3e 6e 3f de 3e
       0.73431385 0.7920092 0.358974 0.43407768
0001c0 a2 68 7d 3f d8 83 4c 3f 51 ee bd 3e 04 f2 57 3f
       0.9898778 0.7988868 0.37095883 0.8435366
0001d0 8e d8 3c 3f c9 93 1b 3f bb 5e 84 3f 3d 8d 81 3f
       0.73767936 0.6077238 1.034141 1.0121228
0001e0 ce 95 73 3f da 13 1b 3f 44 1e a5 3e fe 1b 97 3f
       0.9515046 0.60577166 0.32249653 1.1805418
0001f0 0d 25 e1 3e 46 6c aa 3f 51 2e f2 3e e4 8d d4 3e
       0.4397358 1.3314292 0.47300962 0.41514504
000200 ad b9 bd 3e d2 16 98 3f 51 95 46 3f 6b 01 04 3f
       0.37055722 1.1881964 0.7757159 0.51564664
000210 d0 5c d5 3e 24 54 43 3f f4 4c a5 3e 7e 68 ec 3e
       0.41672373 0.76300263 0.32285273 0.4617347
000220 8f 84 00 3f 65 95 b5 3e da 2a 10 3f 0a ad 05 3f
       0.5020227 0.3546554 0.56315386 0.5221716
000230 85 23 33 3f f9 56 20 3f 58 e4 c0 3e b1 34 bf 3e
       0.69976074 0.6263271 0.37674212 0.37344888
000240 0e b5 9c 3f d8 c8 e9 3e cd b4 88 3f a0 40 62 3f
       1.2242754 0.45661044 1.0680176 0.8837986
000250 a9 97 95 3f 52 bc 55 3f b9 9e 23 3f ec 91 87 3f
       1.1686908 0.8349048 0.63914067 1.0591407
000260 ea e6 e2 3e ff 72 5f 3f 94 30 a2 3e 78 02 d5 3e
       0.44316798 0.87284845 0.31677687 0.41603446
000270 11 78 a1 3e 6b 85 0a 3f 36 45 cd 3e 92 3d 4d 3f
       0.31536916 0.5410983 0.40091866 0.80172074
000280 35 c1 6e 3f 01 3d 54 3f 5a ee 05 3f 36 5c 29 3f
       0.9326356 0.82905585 0.5231682 0.6615633
000290 44 05 96 3f a2 91 07 3f 2b 98 90 3e c0 ea 86 3f
       1.1720357 0.52956593 0.28241095 1.054039
0002a0 51 26 4e 3f e2 aa b2 3e c6 97 22 3f 93 86 5e 3f
       0.80527216 0.34895998 0.6351284 0.86924094
0002b0 6e 4b 86 3f 49 57 5a 3f 3b 13 31 3f 04 95 2d 3f
       1.0491769 0.85289437 0.6916997 0.67805505
0002c0 4a 98 42 3f 97 83 d5 3e 12 21 7b 3f 25 4a ed 3e
       0.76013625 0.41701958 0.98097336 0.4634563
0002d0 f4 c3 09 3f 84 ec 2a 3f cb 9e 76 3f 69 37 3c 3f
       0.53814626 0.66767144 0.9633605 0.7352205
0002e0 33 ae 94 3f 02 9e 62 3e 3a ef c8 3e 7d ad 8b 3e
       1.1615661 0.22130588 0.39245015 0.272808
0002f0 ea 64 7c 3f 3f 09 23 3f 8d 60 80 3e 9b d8 42 3f
       0.9859148 0.63685983 0.25073662 0.76111764
000300 de fe 35 3f 2b 8a c7 3e 85 79 75 3f 97 35 19 3f
       0.7109202 0.389726 0.9588855 0.59847397
000310 e9 a4 30 3f dd 91 0b 3f 80 48 8f 3f 5c 17 18 3f
       0.6900163 0.54519445 1.1194 0.59410644
000320 70 7a 52 3f 11 d0 94 be f8 11 77 3f 72 e6 ca 3e
       0.82218075 -0.29064992 0.96511793 0.3962894
000330 4c 38 58 3f fe 63 00 3f 54 e5 8a 3f bf 23 3f 3f
       0.844609 0.50152576 1.0851235 0.7466392
000340 74 74 83 3f c8 4f 67 3f 68 9b 82 3e 33 2d 90 3f
       1.0269914 0.9035611 0.2550919 1.1263794
000350 74 d4 5f 3f 45 f3 80 3f 8a 28 91 3f 7e 9b 4d 3f
       0.8743355 1.007424 1.1340497 0.8031539
000360 3f d0 6e 3f b6 67 8f 3f b3 85 84 3f 56 dd bc 3e
       0.9328651 1.1203525 1.0353302 0.36887616
000370 e3 3d 06 3f d5 ee c2 3e 88 a6 88 3f 78 16 71 3f
       0.5243818 0.3807284 1.0675821 0.9417491
000380 89 8f 9a 3f 5d 27 76 3e d1 fc 7c 3e a1 25 3d 3f
       1.2075053 0.24038453 0.24705817 0.7388554
000390 ad 83 05 3f 74 23 84 3f 86 da 85 3f 29 1e 5b 3f
       0.52154046 1.032332 1.0457313 0.85592896
0003a0 bc 07 1f 3f 85 19 81 3f 89 ad 77 3f 08 50 a6 3e
       0.62121177 1.0085913 0.9674917 0.32482934
0003b0 42 2d 0f 3f 51 e8 37 3f a3 33 30 3f 2a 8c 15 3f
       0.5592843 0.7183886 0.6882879 0.58417
0003c0 5a ac 48 3f 09 41 60 3f 3b ad 22 3f d8 0d 86 3f
       0.7838799 0.87599236 0.6354558 1.0472975
0003d0 b9 4d 3b 3f 07 79 d1 3e dc 58 c1 3e db 95 ae 3e
       0.7316547 0.4091265 0.37763107 0.34098706
0003e0 07 f4 9c 3e e4 1b 7b 3f 8d f2 98 3e 81 dd 7c 3f
       0.30654928 0.9808943 0.29872552 0.9877549
0003f0 53 79 82 3f ac 73 c4 3e be 5a 30 3f 36 84 c4 3e
       1.0193275 0.383695 0.6888846 0.3838212

bn1.bias f4 [256]
000000 62 20 03 3e 62 38 f1 bc 57 f0 2c 3d c5 cc 0c be
       0.12805322 -0.02944583 0.042221393 -0.13749988
000010 52 29 a1 bd 1b 33 c5 bd b3 56 df 3c f5 2b ab 3d
       -0.07869209 -0.09628888 0.027263021 0.083579935
000020 0b 3c a6 bc ed 59 09 3d 6d 93 05 3d 43 9e 23 3c
       -0.020292303 0.033533026 0.0326113 0.009986463
000030 d1 4d dd 3d 66 b1 35 bd b9 08 05 3e d3 54 d6 bc
       0.10805858 -0.044358633 0.12991609 -0.026163494
000040 b2 86 6c 3c 90 cb 19 bd 7e 6b 81 3d 3a 63 c5 3d
       0.014436411 -0.037547648 0.06319331 0.096380666
000050 47 8b e8 3d 10 61 89 3d 1f 13 90 bd 63 d9 02 3e
       0.1135469 0.06707966 -0.07034897 0.12778239
000060 27 fa ac 3d ee 5e af 3d 26 e8 65 bd 7c 4c f5 3d
       0.0844615 0.08563028 -0.056129597 0.11977479
000070 13 e0 3e bc b5 30 22 3d f5 58 2f 3d 75 cd 84 bc
       -0.011650103 0.039597232 0.042809445 -0.01621125
000080 32 a3 ed 3c 59 f2 34 bb c5 9d b4 bd 6d bd d3 bd
       0.029008482 -0.002761027 -0.08819155 -0.103388645
000090 dd 1d 98 3d 25 c6 d2 39 68 a1 94 bc 2a be 1e be
       0.07427571 0.0004020195 -0.01814337 -0.1550223
0000a0 97 7c 9e bd 9b 2a 56 3c 3b f0 43 3d b4 d6 7f bd
       -0.077386074 0.013071681 0.047836524 -0.062460616
0000b0 ac c3 bc 3c b0 8c de 3d 0e 0c 97 bc 17 fe 5f bd
       0.023042522 0.10866678 -0.018438365 -0.05468568
0000c0 ed 55 30 bd 64 79 15 bd cf eb 68 bd 7b bb d0 3d
       -0.043050695 -0.03649272 -0.05686551 0.10192009
0000d0 44 d4 3f 3d 4e 58 82 bd aa d9 82 bc 0d 89 93 3d
       0.04683329 -0.06364499 -0.015972931 0.07203875
0000e0 c2 fa b2 bd 05 2a 22 3e c0 5b 0f 3e 61 cc c7 bd
       -0.087392345 0.15836342 0.13999844 -0.09755779
0000f0 cb 22 c6 3d 90 b7 11 bd de ef 87 bd 58 37 59 bd
       0.09674605 -0.03557545 -0.06637548 -0.053031296
000100 06 9d 3b 3e 5a e4 02 be b4 0b c9 bc d3 db 53 3d
       0.18321618 -0.12782422 -0.024541713 0.051723313
000110 83 b6 2e bd b3 5c b2 3c d1 74 e2 bd 77 03 48 3c
       -0.042654525 0.021772718 -0.11057437 0.012207857
000120 81 8d 5d 3d d6 a2 8e bd 92 e0 db bc 2d 88 b0 3c
       0.054090027 -0.06964652 -0.026840482 0.021549309
000130 2a c6 78 3c fb c0 91 3d ae 5b cc bd 09 f6 f7 bc
       0.015183965 0.07116886 -0.09978424 -0.030268686
000140 01 c4 ec bc c5 48 0d 3d df 47 42 3d 6b 08 62 3d
       -0.028902056 0.034493227 0.047431823 0.05518381
000150 8e ca 93 3d 45 bc 7a bd 3d 24 2c 3d fd 78 0f bd
       0.072163686 -0.061214704 0.042026747 -0.035027493
000160 a3 61 fd bc 78 8c 94 3d 42 3a 27 be bd 0e 0d bd
       -0.030930346 0.07253355 -0.16330817 -0.034437884
000170 e1 80 5c 3c a4 eb 98 3d 26 c4 a4 3c 76 95 43 3d
       0.0134584615 0.0746682 0.020113062 0.04774996
000180 f7 de f3 3b 55 c3 6f 3c 2b 86 22 3d 54 3f 63 3d
       0.007442351 0.014633973 0.039678734 0.055480316
000190 74 02 fb bd ff 95 a3 3d 4b 9d 84 3c 31 3c 9f bd
       -0.12256327 0.07987594 0.016188284 -0.077751525
0001a0 a0 e9 6d 3d 2f 94 68 3d 57 83 19 bd b5 44 37 bd
       0.05808413 0.056781944 -0.03747877 -0.04474326
0001b0 ed 9f be bd 30 96 31 be f1 e2 86 bc a3 4f 4b bc
       -0.09307847 -0.17342448 -0.016465636 -0.012409124
0001c0 b8 b4 0e bd 4c 02 7a bd 09 39 22 3c 80 52 2b 3d
       -0.034840316 -0.061037347 0.009901294 0.041826725
0001d0 24 3b 3e 3c 77 aa 88 bd 7b 1c 76 bd 36 29 76 bd
       0.01161078 -0.066731386 -0.060085755 -0.060097896
0001e0 64 5b 57 3d 3a 22 62 bb a6 27 94 3d 3e 3c 17 3e
       0.05257739 -0.0034505264 0.07234125 0.14769074
0001f0 68 ec 5c 3b 91 38 29 3d a9 88 5b bd 54 95 2a 3c
       0.0033710245 0.04131371 -0.053597126 0.010411579
000200 8a 5b d7 bb cd 9f 16 bd cd d3 1a bd 4e a1 ab bc
       -0.0065721916 -0.03677349 -0.037799645 -0.02095094
000210 37 94 03 bb 8e 54 98 3d 3c ba 84 bd ec 33 85 3d
       -0.0020077357 0.074380025 -0.06480834 0.06504044
000220 47 1c ad bd 9a 44 82 bd a6 ff 1e 3c fa fa 7c bd
       -0.08452659 -0.06360741 0.009704506 -0.061762787
000230 95 fd 2e be fe 6d 1f be b8 24 dc bd 9d 42 4c 3d
       -0.17088921 -0.15569302 -0.10749191 0.049868215
000240 6d 29 33 3d 41 3e db 3c 09 fb 29 bd ff 90 a2 bd
       0.04374068 0.026763083 -0.04149917 -0.07937812
000250 29 bf 3e 3e af d6 80 bc ff f4 34 3c 51 d9 b1 bd
       0.1862761 -0.01572737 0.01104474 -0.08684028
000260 50 12 c7 3c fa ed cc 3c ea 3a dc 3d 01 28 e0 bd
       0.024300724 0.02501582 0.107534245 -0.1094513
000270 48 08 8a 3d 44 0f d8 bc a3 23 51 3d c9 85 72 bc
       0.06739861 -0.026374467 0.051059376 -0.014802405
000280 bf d1 6e 3d bf be dc bc 18 70 4c 3d ea 1c 60 bc
       0.0583055 -0.026946424 0.04991159 -0.013678769
000290 1c d8 48 3c 1d c4 07 bd 70 ab bd 3c 11 96 02 3d
       0.012258556 -0.033146013 0.023153037 0.031881396
0002a0 13 fb 6a bd 9d f7 d7 3c 52 7e 3a bd 58 64 02 bd
       -0.05736835 0.026363188 -0.045530625 -0.031833977
0002b0 8d ab 28 bd b3 f8 0a 3e 4e 20 d0 bd c7 5e 94 3d
       -0.04117923 0.13571434 -0.10162412 0.0724464
0002c0 a8 19 b5 bb 62 ea 97 3d b2 e3 b2 bc 13 6c 9f bc
       -0.00552674 0.07417752 -0.02183709 -0.019460713
0002d0 87 3a 37 bd b8 06 89 bc 55 2d 3c bd ce f3 ea bd
       -0.04473355 -0.016726837 -0.04594167 -0.11472283
0002e0 ea b0 25 bc 4b 7a 66 bd 83 f0 80 bd 8b 2c 80 3d
       -0.01011298 -0.05626897 -0.06295874 0.06258496
0002f0 57 05 37 bd 56 24 d0 3d 87 38 e3 bd a4 1e 87 3d
       -0.044682827 0.101631805 -0.11094766 0.06597641
000300 6d 32 d8 bb 7d 12 69 3c 3f e3 06 3e bc 89 a0 3d
       -0.006597808 0.014225599 0.13172625 0.07838771
000310 43 0b 70 3d c3 d2 65 bd 2c 47 97 bd 9d 6c 35 3b
       0.05860449 -0.0561092 -0.07386622 0.0027683147
000320 32 ac 1c bd dd b5 ad 3d 4b fa 66 bd c9 6c 9a bd
       -0.038250156 0.08481953 -0.05639104 -0.0754028
000330 67 bd 75 3d 68 20 ac bd b8 d6 a6 bd d9 9d 75 bd
       0.05999508 -0.084046185 -0.08146423 -0.05996499
000340 d3 d2 51 bc 3e 03 70 3d 91 ff d5 bd 48 2f 74 3d
       -0.012806612 0.058596842 -0.10449136 0.059615403
000350 16 36 9b 3d 91 bb 7d bd 18 09 cf 3d 6c 66 53 3d
       0.075786754 -0.061946455 0.10109156 0.05161135
000360 85 3b b6 bc 7f 35 8d 3b 1c a7 f8 bc 2f a4 92 3d
       -0.022245178 0.0043093557 -0.030353121 0.07160222
000370 45 ea 23 3d bb 91 14 bd 9e 33 ae 3d 94 9d 94 bc
       0.04001834 -0.036271792 0.08505939 -0.018141545
000380 42 83 7f 3d 7a 15 7d 3d 39 0a 3b 3d 83 c4 8b bc
       0.062381037 0.06178806 0.045664046 -0.017061478
000390 be 0e 75 3d 2e 7c 3c 3e cb b2 ff bc bf 3b e6 bd
       0.059828512 0.18406746 -0.031213185 -0.112418644
0003a0 6b d3 96 bd 80 8b 1d 3d d0 a5 9a 3c 2b fc a6 bd
       -0.073645435 0.038463116 0.018877894 -0.08153566
0003b0 27 b9 53 3d 96 48 f4 bd d1 6a 8b bd 25 60 e0 3d
       0.051690247 -0.11927907 -0.06807483 0.10955838
0003c0 99 56 58 bd 99 08 c1 bd 36 44 3c 3c 1f f6 62 bd
       -0.05281696 -0.09425468 0.011490872 -0.0554105
0003d0 91 d7 f7 3b ee fc fb bc df 6c 34 3d 7b 6e a4 bd
       0.0075635393 -0.030760255 0.04404914 -0.08028885
0003e0 a2 a3 a8 3d 7e 2b 1f 3d 05 07 54 bd 87 71 fb 3c
       0.082343355 0.038859837 -0.051764507 0.030693782
0003f0 8f a6 59 bd 4c 94 a9 bd cb 7d c1 bb 45 7e 9f bd
       -0.05313736 -0.082802385 -0.0059048883 -0.07787756
