checkpoint_critic1_critic.pth (torch_old, 192338 bytes, 13 tensors)

fcs1.weight f4 [256, 48]
00000000: 49bb dd3e ff43 adbd a0f4 44bd 330c c33d
00000010: 77cd 343e f3a4 22be 0aa3 2abd 0536 923c
00000020: c46b be3e 1f36 4abe 33b9 5dbd 941d 93bd
00000030: b496 103e 28f1 dabd 9437 46bc 7600 65bb
00000040: 48ea 673d 9415 c6be c322 dbbd 0c8d e43d
00000050: 03d9 abbd dd7d eb3d d964 d9bd b87e a33d
00000060: 50f7 9f3d 6dbb c33d 13b2 193d 53d0 4abe
00000070: 4594 48be 706e b2bd 1eeb 973c d158 12be
00000080: a7ea df3d 009f dd3d 98d0 fc3c 00d3 1f3e
00000090: a455 48be 0d83 16be b46e ec3d ba22 1f3e
000000a0: 1863 08be 67b3 cd3d 78a4 8fbc 31f9 14be
000000b0: cd70 393e 45ea a03c 42e4 e6bd 9def 26be
000000c0: 34d2 123c 3df0 063d 3c0a 1fba f9da 95bb
000000d0: e0a1 e4ba b805 763d 5e60 71bc 5477 603a
000000e0: 035a 9c3c 52e3 903c 7745 1d3d f443 91bb
000000f0: 2880 843d bc35 1e3d cd34 f5bc 363a 92bc
00000100: 1989 d0bc 8f5e 31bd 503d ae3b 75bc eb3b
00000110: 832c b83e f88e 63be 5049 41bc d328 32bd
00000120: 530e 9a3b 23e6 6b3d 0146 043d 2786 ffbc
00000130: 39ee 613d ae4b 713d facb afbc d9db c73c
00000140: 3980 8e3e a14f e23d a024 88bb d7de 16bd
00000150: 92ec febc 48b5 373d c689 103c 1092 ef3b
00000160: 5447 023f 6fe4 903d efcd 44bc ab29 4dbd
00000170: c1bb bebe 144c 6fbe 8f09 cc3c 7a7d b33c
00000180: c328 02bd b0ff 28bf e654 99bd b9a3 efbd
00000190: c495 6ebe 3ec0 db3d c55c 81bd 58eb 57bc
000001a0: 3b99 173d 4a2f 2abf 6287 183d 530b 973c
000001b0: f197 b0bd c427 7c3d 0b32 0c3c 3771 523c
000001c0: c9dd 023c 3387 1bbf 4ecf 95bd b7ea 883e
000001d0: 1add 40bc 876d 203d 4a76 29bd c455 5d3e
000001e0: 022e 3f3c 637f 153f d757 4bbb 2e73 44bd
000001f0: 74d9 043e 0c2e be3d 470e 2fbd 7303 693c
00000200: 29a5 a03c 2543 ef3e cec6 4b3d 3245 19bd
00000210: ee64 2b3d 4d2e 9f3c 7801 64bd a631 68bd
00000220: 70ff 0a3e 6755 893e d17b c5bc 6367 b9be
00000230: 70ff f5bc 6686 943c 40ca 7abd 6340 d1be
00000240: 3b6f 083d 5e18 273f 8e02 553b 8e79 01bd
00000250: a837 25bd aad1 933d fcfc 12bc 0c0c 51bd
00000260: c2cd 603e 68bd 2a3f 776a f73c 9019 2fbb
00000270: 838a 17be 111c 30bb a964 edbc 0ad9 3d3d
00000280: b872 d73e 1e3d 3d3f 01c5 bc3c 6d02 d93d
00000290: 1155 adbe 4afb 0dbd db62 1aba 59e3 eb3d
000002a0: 0224 e4b9 5379 973e 54ba 39bc 6bf1 79bd
000002b0: 7ea8 b03d 89c1 e33c 70c7 40bc 4a1a 17bd
000002c0: 5bcd c53a b302 b63e 4a78 c7bc a72f 603d
000002d0: 5ba8 333e fbe8 873d 222f ae3b 3f5e 1c3d
000002e0: a1ae df3d 7c7b a63e a383 b5bc e47e 90bc
000002f0: 71d9 b23e 4038 4fbd d9e4 fa3b fafd 5b3d
00000300: d956 5e3d 4187 d03d 0afa d8bb 71ac da3d
00000310: 8667 32be c6df d73d 278f c7bc c142 dd3c
00000320: 2578 2a3e a422 323e f066 09bd ea12 87bd
00000330: cd8a 253e df59 8abd be9a 473c 6d5e 17bd
00000340: c497 363e b0f2 733d 9514 3fbd e843 06be
00000350: 7858 023f 7542 8ebe cec0 043d fec8 51bd
00000360: dc53 073d db8e 543e 9743 76bd 29ed 17bd
00000370: 8325 b43d 7b62 833d 2daa 5e3d b1df cb3c
00000380: da1a 973d 374c bb3e b4bd 15bd 7b2d 913d
00000390: 4be1 bebd 35fe aabd 1443 333d 69e2 913d
000003a0: 7d0b d93d 39ea b83e ecba edbc a6b7 17bd
000003b0: 49d4 07bf be5e 5abe 8b32 323d 96fe 4c3d
000003c0: 4fba 0cbe 7f19 153e 5089 843d 82b5 1fbe
000003d0: 7e3c 21be b41e 76be 0459 703d 7803 1bbe
000003e0: 8db4 f6bd 8c0d 1e3e 1c6b 423d de7f fdbc
000003f0: 914f 993c 6490 1dbe 4605 633b 86d3 07bd
0.4330695 -0.08460235 -0.048084855 0.09523811 0.17656504 -0.15883236 -0.041659392 0.017848024
0.37191594 -0.19747208 -0.054131698 -0.07183376 0.14119989 -0.10690528 -0.012098212 -0.0034942902
0.056619912 -0.38688338 -0.1069999 0.11159715 -0.08391001 0.11498616 -0.10614938 0.07983154
0.07810843 0.09557233 0.03752334 -0.19806032 -0.1958781 -0.087124705 0.01854473 -0.14291693
0.10933428 0.108213425 0.030861184 0.15607834 -0.1956392 -0.1469843 0.115445524 0.15540591
-0.13319051 0.10043984 -0.01753448 -0.14548184 0.18109436 0.019642958 -0.112740055 -0.16302343
0.008961249 0.032943953 -0.00060668937 -0.0045732227 -0.0017443262 0.060064048 -0.014732448 0.0008562703
0.01908589 0.01768652 0.038396325 -0.0044331495 0.06469756 0.038625464 -0.029932404 -0.017850023
-0.025455998 -0.04330307 0.0053173676 0.0071940967 0.3597146 -0.22222507 -0.011797264 -0.043495964
0.0047014146 0.057592522 0.032293323 -0.031191899 0.055158827 0.058910064 -0.021459568 0.024396824
0.278322 0.11050344 -0.0041547567 -0.03683361 -0.031118665 0.044850618 0.00882191 0.007311113
0.5089009 0.0707482 -0.012011989 -0.050088566 -0.3725262 -0.23368865 0.024906902 0.021910418
-0.031777155 -0.6601515 -0.07486896 -0.117011495 -0.23299319 0.10730027 -0.063165225 -0.013178669
0.037011366 -0.6647841 0.037238486 0.018438017 -0.086227305 0.06156136 0.008556853 0.012844375
0.007987448 -0.6075317 -0.07314931 0.26741573 -0.011771465 0.039166953 -0.041372575 0.21614748
0.011668684 0.583975 -0.0031027698 -0.047961406 0.12973577 0.092861265 -0.042738225 0.014222014
0.019610004 0.46730915 0.04975014 -0.037419505 0.0418443 0.019431258 -0.055665463 -0.056687973
0.13574004 0.2682297 -0.024106892 -0.3621169 -0.030029029 0.018130492 -0.061228037 -0.40869436
0.033309203 0.65271556 0.0032502743 -0.031610064 -0.04033628 0.072177246 -0.008971449 -0.05103688
0.2195349 0.6669526 0.030202134 -0.0026718117 -0.14798932 -0.0026872198 -0.028978663 0.046349563
0.4207971 0.7392138 0.023043158 0.10596166 -0.33853963 -0.034663476 -0.00058893644 0.115179725
-0.00043514377 0.2958475 -0.011335928 -0.06102125 0.08625887 0.027802246 -0.0117663 -0.036890306
0.0015091108 0.35548934 -0.02434935 0.054732945 0.17544691 0.066362344 0.0053156773 0.038175818
0.1092198 0.32516086 -0.022157496 -0.017638631 0.3493152 -0.050590754 0.0076566753 0.053709008
0.054282043 0.10182048 -0.006621604 0.10677422 -0.17422304 0.10540728 -0.024360253 0.02700937
0.16647394 0.17396027 -0.033545434 -0.065954044 0.1616623 -0.06755423 0.0121828895 -0.036955286
0.17831331 0.059557617 -0.046650488 -0.13111842 0.5091624 -0.27785078 0.032410435 -0.05121707
0.03303896 0.2075762 -0.060123052 -0.037091408 0.08796217 0.06415268 0.05436151 0.024886938
0.073781684 0.36581585 -0.036557868 0.07088753 -0.09320315 -0.083492674 0.043765143 0.071232624
0.10597894 0.36116198 -0.029019795 -0.037040375 -0.53058296 -0.21325204 0.043505233 0.05004748
-0.13742946 0.14560507 0.06471503 -0.15596583 -0.15745732 -0.2403515 0.058678642 -0.15138042
-0.12046156 0.15434855 0.04746543 -0.03094476 0.018714698 -0.15387112 0.0034640594 -0.03316071

fcs1.bias f4 [256]
00000000: 2dd0 d63b f548 d9be 1729 14be f0b5 82be
00000010: 5ac4 96be df5b 93be 106d eebe 8503 01be
00000020: f169 5e3e b5ff 1dbe 233c d3bb 695b 6ebf
00000030: 3940 5ebe dab7 34be 56a1 43be 0405 33be
00000040: bbfc 0ebc 2d24 54be f6f3 0cbe 452e 54be
00000050: ae92 26be a635 453d f57a 56be 0b8f 113e
00000060: af85 5cbe c5ec d7bd 00ca 07bd a3e8 2f3e
00000070: 05de 05bf 34ef d8be b93a 633c 6dd7 abbe
00000080: ba5a 45be 0fdd 24bd cb6e b5bd c3ee 92be
00000090: d28e 063e 4b19 21be a59a 33be d7f0 1cbe
000000a0: 27fd 4c3e ed0c a1be 2847 f33d f5c8 cbbe
000000b0: dc57 bebe ed72 9abe 6298 59be 1963 34bd
000000c0: 5d4e 0bbe 7d69 9c3d 6780 bfbc 2ad2 b8be
000000d0: 8f59 9bbe 82e5 ccbe 8393 95be 62dc 3cbf
000000e0: d5ce 363d 126f fcbd 7ac8 99be 5ae7 57be
000000f0: bb64 8dbe e955 98be 3377 4fbe 4b66 4ebe
00000100: b90e eebd 906c f7bd 7d4c b7bd e9de 87bf
00000110: 63ae 1abe ad26 333e fc1c cabd a15d ccbd
00000120: 54ee 583e 95a0 e0be b40e 0bbe 54f5 83be
00000130: 18e4 b7bd b995 97bd 4581 33be ac10 82bd
00000140: 75a0 033d b6f6 85bd 8e42 e0be d06c 11bf
00000150: 510a 423e 851b 9c3d 44ed 4bbd b0fc 7fbd
00000160: b02e 0f3d d2ea b3bd 51ab 71bc c955 18be
00000170: efb7 313d 5f3e 023b 1992 33be da8e e3bd
00000180: cfbe 94be 0592 6d3e 7b51 f8bd d8b4 45bf
00000190: 20ea 15be ee95 7cbe 4d39 363e 3f7d 0a3e
000001a0: 8cfd 71bf 83d7 cabd bc1e fabc c387 5cbe
000001b0: cb29 d3be d536 acbd 191c 543c ef50 a2bd
000001c0: 5dcd 2cbc f376 b3bf 8a8b f5bd 0009 28be
000001d0: 7423 9fbe 02d0 55bd a324 c8be c143 15be
000001e0: 7a06 0dbf cc02 ffbc ebf2 90bd 3769 29be
000001f0: b20e 7fbd 66dc 283e 8dc5 87bd f774 87be
00000200: 7d35 28bc 80a3 e4bd 16a0 b8be 53e1 7ebe
00000210: a093 e1bd c13a 8bbe dcbd df3d fe97 eabd
00000220: a525 ed3d c566 07bf a8da 42be 9742 e0be
00000230: a130 b4be fb74 1b3e 23cf b2be e962 28be
00000240: 8dbe 613e ec43 c4bd 3e11 d1bd 18ad aebd
00000250: 8e38 b0be 7dd2 06bf 4277 66bd 70de 0bbe
00000260: 5dbe 31be f05c bdbe a20c a1be fd86 07be
00000270: bb89 d9bd f880 a8be 6731 a23d c43d 723c
00000280: 991b 5cbe 859d 83bd 4349 60be 0a4e a6be
00000290: 74ee b7be 99d4 d33d 7e45 4a3e ba3b 83be
000002a0: a0dc d0be 86b5 823d 0b98 66be 9bb2 c4be
000002b0: 7a60 0dbe 0980 ab3c 6dfc c7be e5f2 86be
000002c0: fd63 c5bd 172b d33c 011b 2d3e 0a40 553c
000002d0: 0353 673e 6d7f 08bf 4d45 6abd ce9e 8abd
000002e0: 8e10 983e b4ae 08bc 4ae1 f53a 32a0 1ebe
000002f0: 4ebc a5be 9395 1abe 8175 b0be d09a d4bd
00000300: 0d4a b2be e9f6 2bbe ce15 2bbe e23f acbe
00000310: 37fd 813c 8cca 05be 8349 afbe b40a a3be
00000320: 32b6 bbbe d604 88be f0d2 1ebe 5d1d dfbe
00000330: f2b7 683e a961 90bd 06f5 bdbd ae6f 52bd
00000340: 16e2 bebd 4417 f63d c6b5 9e3b 797b efbe
00000350: 1ad5 953c 59e4 553d 1512 b3be f361 033d
00000360: b78c ecbd 8b74 ffbd 63e9 433f 7f60 afbd
00000370: 51c4 43be 0198 78be 4421 abbd a337 dabe
00000380: 1290 b8be 4f50 a4bc be44 cdbe 7d07 8abe
00000390: 0099 9cbe 86f1 cabe ad10 db3d 6430 cabe
000003a0: 7b08 18bd ad43 ffbd 9453 00bf a8d9 afbd
000003b0: 341b e1bd a972 fbbd 4bdd 8abd 3627 833e
000003c0: f30d c0bd ded4 f2be 8ef3 10bf f279 ea3d
000003d0: f202 4a3d a5f8 393c 64dd 27be 215c 56be
000003e0: 88cd 11bf c4a1 0fbe fb1f b23b 679f a83d
000003f0: ba14 96bd ebf6 45be ecc0 d13d cd72 0dbf
0.006555578 -0.42438474 -0.144688 -0.25529432 -0.2944668 -0.2878103 -0.46567583 -0.12598999
0.21720101 -0.15429576 -0.006446378 -0.9310823 -0.21704186 -0.17648259 -0.19104514 -0.17482382
-0.008727248 -0.20716925 -0.13764939 -0.20720775 -0.16266891 0.048146866 -0.20945342 0.14214723
-0.21535371 -0.10543207 -0.033151627 0.17178588 -0.522919 -0.42369998 0.013868981 -0.33562794
-0.1927289 -0.04024988 -0.08859023 -0.28697786 0.13140419 -0.15732305 -0.17539461 -0.15326248
0.20018445 -0.31455174 0.11878806 -0.39801756 -0.37176406 -0.30165806 -0.21249536 -0.04403982
-0.13604112 0.07637308 -0.023376657 -0.36097842 -0.30341765 -0.4001885 -0.29214105 -0.7377378
0.044630844 -0.123258725 -0.30035764 -0.21084347 -0.27615914 -0.29753044 -0.20260315 -0.20156209
-0.11623902 -0.120812535 -0.08950136 -1.0614902 -0.15105586 0.17495222 -0.098688096 -0.09978796
0.21184665 -0.43872514 -0.13579828 -0.25773108 -0.08979052 -0.07401604 -0.17529781 -0.06350836
0.032135446 -0.06541197 -0.43800777 -0.5680666 0.18949248 0.076224364 -0.04978682 -0.06249684
0.034956634 -0.08785023 -0.014750318 -0.14876474 0.043388303 0.0019873602 -0.175362 -0.11111231
-0.29051825 0.23200233 -0.12124916 -0.7722907 -0.14640093 -0.24666569 0.17795296 0.1352434
-0.94527507 -0.09904387 -0.030532233 -0.21536164 -0.41242823 -0.08408896 0.012946152 -0.07925593
-0.010547009 -1.4020675 -0.119895056 -0.16409683 -0.31081736 -0.052200325 -0.39090452 -0.14576627
-0.5508801 -0.031129263 -0.07077583 -0.16544043 -0.062269874 0.16490325 -0.06629477 -0.26456425
-0.010266659 -0.11163998 -0.36059636 -0.24890642 -0.11014485 -0.27193263 0.10924885 -0.114547715
0.11579446 -0.5289119 -0.19028723 -0.43800804 -0.3519335 0.15181343 -0.34923658 -0.16443981
0.22045346 -0.095832676 -0.10208367 -0.08529109 -0.34418148 -0.5266493 -0.056266077 -0.13659072
-0.17357774 -0.36984968 -0.3145495 -0.13235088 -0.10621973 -0.32910895 0.07919579 0.014785234
-0.21494903 -0.06426529 -0.21902947 -0.32481414 -0.35924113 0.10343284 0.19753072 -0.25631505
-0.40793324 0.06382279 -0.22518937 -0.38417515 -0.13806334 0.020935075 -0.39059773 -0.2635719
-0.09638212 0.025777383 0.16904832 0.013015756 0.2259026 -0.53319436 -0.057194997 -0.06768571
0.2970013 -0.008342434 0.0018759158 -0.15490797 -0.32370228 -0.1509612 -0.34464648 -0.10381091
-0.3482212 -0.16793407 -0.16707537 -0.3364249 0.015867813 -0.13065547 -0.34235772 -0.31844103
-0.36662441 -0.2656619 -0.15510154 -0.4357709 0.2272642 -0.07049877 -0.0927525 -0.051376037
-0.09320466 0.12016156 0.0048434464 -0.4677389 0.018290091 0.052219722 -0.34974733 0.032075834
-0.11550277 -0.12473401 0.76527995 -0.08563327 -0.19117858 -0.24276735 -0.08355954 -0.42620572
-0.36047417 -0.020057825 -0.4009151 -0.26958838 -0.3058548 -0.39637393 0.1069654 -0.39490044
-0.037117463 -0.1246408 -0.5012753 -0.085864365 -0.10991517 -0.12277729 -0.067804895 0.25615853
-0.093776606 -0.4742803 -0.56621635 0.114490405 0.049319215 0.011350785 -0.16393048 -0.20933582
-0.5695424 -0.14026552 0.0054359413 0.082335286 -0.07328172 -0.19332473 0.10241875 -0.552533

fc2.weight f4 [128, 260]
00000000: d13b 813d 554f 7cbe e943 24be 58ec a63d
00000010: 3e27 123e 792f 0abe e08d edbd d500 413d
00000020: 7d3a 113e 203b 2ebe fdda 023d 076b edbb
00000030: 6958 f7bc 7bda 9dbc 0331 543d fcf7 0b3d
00000040: 38d2 053e 0129 93bd 5834 5e3e 7930 c5bc
00000050: f658 3c3d ddff 5dbe 8b02 8f3d a8d6 a23d
00000060: d0dc 2dbe 1f99 8d3b f461 583c f50a d93c
00000070: 64c5 f83d fb66 95bd 5edb 233e 7f16 163d
00000080: f48f 693d 263b 2bbe d225 2f3d bbe4 26be
00000090: 6459 d8bd 68fe 31bd 65fe e23c d59d 7cbc
000000a0: 433c 90bd 0bf6 0f3e b687 5ebb 2cf3 843c
000000b0: c46a 3ebe ab00 6e3e 841e a6bd 3d1a a13c
000000c0: cb68 173d fe85 e13d c693 ef3d 212b f93d
000000d0: f63d 56bd 2ee5 153c 7899 1fbe f49c 5dbe
000000e0: 2b06 f83c b2eb 533d 93ce 1c3d e3ce 65bd
000000f0: a943 88bd bc2d 7dbe ea88 103d cab9 abbd
00000100: 1351 963d 07db 85bc 0bb8 f3bd 674d 433e
00000110: c7a6 323d 2713 2cbe 763e b6bd 7441 ef3d
00000120: 3269 983d 8610 67bd 5e0b a0bc 43ae 8e3d
00000130: 7829 97bc ddcb 803d c074 1cbe c771 47bb
00000140: 0fb3 1b3e d883 933d 6dc6 a93e 6d7e bc3c
00000150: b9dc 6ebd cf7f 553e 5910 7cbd 509f 04be
00000160: e680 363b 4da1 80bd e5be f2bd 9f03 53be
00000170: aa37 2b3e 45c1 41be bf78 adbe 944c 363d
00000180: c7d9 36bc f43d 183c b4db e83d aeb3 963c
00000190: 2eaa e6bd 1670 fabc 890d 30bd 3bc6 c2bd
000001a0: bf00 5a3d 2821 b33c bd9c 31be d127 05bd
000001b0: 87d1 06bd 6f1d cabd a5aa 93bd 9fd2 0f3d
000001c0: d950 8a3c 75b6 0c3e 0454 3f3d 6624 9cbd
000001d0: 0deb d1bb 1c17 32be 320d 343e 2a9c eb3d
000001e0: 24b3 b53d dc4d a8bd 2059 9fbd c1ee 8e3d
000001f0: 285a 5b3c 4b9e cfbd 4c72 813d 75fc 1b3d
00000200: 8cda 4e3e bf92 cdba f90c 12be 25d0 f73a
00000210: a751 3abd a544 293c 0e32 d4bc fe26 2b3e
00000220: e7c9 dabc e403 b93d 7fcb 3d3c e2cd 2d3e
00000230: 5f27 eabc 643b 08bd e5cf 8e3d 7ce2 6c3d
00000240: 96e3 f4bd 7c47 b7bd 114c e93d db1a c9bd
00000250: b2ae e33d 914c c5bc a159 85bc 06dd 27bd
00000260: 98ef 223e 2a9b 2d3d 151a 453d f09e 7bbd
00000270: cd0e b6bc d797 103d 1fe1 0f3d 7e2a c5bc
00000280: 6163 00be 08d3 ec3d af13 e3bd 4b12 48bd
00000290: 7a69 b6bb af67 edbd 86c8 e2bd 249b dd3d
000002a0: 805e c73d 3b8d be3d 63e6 f9bd a703 883c
000002b0: fbff d6bd a8e3 0a3d ad4f 83bc eeda 103e
000002c0: fedb 873d 7857 1bbe 04f4 93bd 4b1c 183c
000002d0: 636e d93c 1c37 df3d 72af c03d e447 103d
000002e0: 7b0d 393c 7f63 1dbd 7381 603d 4905 e3bd
000002f0: 2326 aebc 6504 88bd 3a1b ae3d 9167 d53d
00000300: 0627 5c3e e90c c53d 1630 1bbd e9ee fb3d
00000310: f626 1bbd 67b5 22bd 7162 56be da5b 01bc
00000320: dcf2 d73d 28aa 173e 6ba9 eb3d b4c4 c2bd
00000330: 53d1 54be bea3 8a3c 2c16 3cbd 2b61 253e
00000340: 6538 76bd 23d2 67bc 8bdf d6bc c9f5 023e
00000350: b088 bbbd 8cc7 2c3d 115b 72bc 97ab bdbd
00000360: 0f79 1e3d 3024 85bd 52e6 86bb d66e 53bd
00000370: b2f6 5f3c d922 0c3e f01d 85bd 5e00 15be
00000380: 4fee 5a3c 76de b63d f9d6 1d3e 384d 4e3d
00000390: f92b 3c3e a42b b5bd 7d60 5abd 643e 973c
000003a0: 7b79 ff3c aa83 85bd bf73 24bd 0ad4 8e3d
000003b0: 1f39 50bd 3777 943d 3fd3 6fbe 68d0 463e
000003c0: ab34 22be f08c 103e 75ce 8d3c bf56 ae3b
000003d0: f135 383c 4345 8ebe 05a2 a1bd fa53 d0bc
000003e0: 10f8 ea3d 5e38 503c bad2 5e3d 4fd8 2fbe
000003f0: df3e 423d 079c 34bd 176a b3bc 6a90 4fbd
0.06310237 -0.24639638 -0.1604153 0.08150548 0.14272782 -0.13494672 -0.11599326 0.047119934
0.14182468 -0.17014742 0.031947125 -0.0072454247 -0.030193524 -0.019269219 0.051804554 0.034172043
0.13068473 -0.07185555 0.21699655 -0.024070965 0.045983277 -0.21679635 0.06982907 0.07951099
-0.16978765 0.004321232 0.013206948 0.026494483 0.12147024 -0.072950326 0.1600165 0.036642548
0.05702205 -0.16721782 0.042760678 -0.16298191 -0.10563925 -0.04345551 0.027709195 -0.015418489
-0.07042744 0.14058702 -0.0033955402 0.016229235 -0.18595415 0.23242442 -0.08111289 0.019665832
0.036965173 0.11011885 0.116981074 0.12166429 -0.052305184 0.009148879 -0.15585887 -0.21641904
0.030276379 0.05173845 0.038282942 -0.056105506 -0.0665353 -0.24724478 0.03528682 -0.08385046
0.073396824 -0.016339792 -0.11900338 0.19072495 0.043616083 -0.16804181 -0.08898632 0.11682406
0.074419394 -0.056412242 -0.01953667 0.069668315 -0.018452391 0.06288884 -0.15278912 -0.0030432807
0.15205024 0.072028816 0.331592 0.023009503 -0.058315966 0.20849536 -0.061539028 -0.12951398
0.0027847826 -0.06280766 -0.118528165 -0.2060685 0.16720453 -0.18921383 -0.33881184 0.044506624
-0.011160321 0.0092921145 0.1137003 0.018396225 -0.11262928 -0.030571025 -0.042981658 -0.09510466
0.053223368 0.021866396 -0.17344947 -0.032508675 -0.032914665 -0.09868895 -0.07210282 0.035112973
0.016884254 0.13741477 0.046710983 -0.0762413 -0.006406194 -0.17391628 0.17583159 0.11504395
0.08872059 -0.082179755 -0.07780671 0.069791324 0.013388194 -0.10137614 0.063206285 0.03808256
0.20200557 -0.0015683993 -0.14262761 0.0018906636 -0.045488026 0.010331308 -0.025902774 0.16714093
-0.026707603 0.09033945 0.011584162 0.1697307 -0.028583227 -0.033259764 0.069732465 0.05783318
-0.11957471 -0.089491814 0.11391462 -0.098195754 0.11117305 -0.024084361 -0.01627809 -0.04098227
0.1591171 0.042384304 0.048120577 -0.06143087 -0.022223854 0.035301056 0.0351268 -0.024068113
-0.1253791 0.115636885 -0.11087739 -0.04884557 -0.005566773 -0.11592042 -0.11073403 0.10820606
0.09734821 0.09304281 -0.12202146 0.016603304 -0.10498043 0.033908516 -0.016029203 0.14146015
0.06633757 -0.15170085 -0.07224277 0.009284089 0.026541894 0.10899183 0.094084635 0.03522481
0.011294718 -0.038424965 0.054810952 -0.110849924 -0.02125842 -0.06641463 0.08501287 0.10420144
0.21499261 0.09621603 -0.037887655 0.12301428 -0.037878953 -0.03972378 -0.2093599 -0.007895434
0.105443686 0.14811003 0.11506923 -0.095101744 -0.20782976 0.016923781 -0.045919582 0.16150348
-0.060112376 -0.014149222 -0.02622964 0.12789072 -0.091569304 0.04218249 -0.01479222 -0.09261244
0.03868967 -0.06501043 -0.004116812 -0.051619373 0.013669657 0.13685168 -0.06499851 -0.14550921
0.013362481 0.0892915 0.15414037 0.05036661 0.18376149 -0.088462144 -0.053314675 0.018462367
0.031185856 -0.065192536 -0.040149447 0.06974037 -0.050835725 0.07249301 -0.23420428 0.19415438
-0.15840404 0.14116263 0.01731036 0.0053203995 0.011243329 -0.27787217 -0.07892231 -0.025430668
0.114730954 0.0127087515 0.054400183 -0.17172359 0.04742324 -0.04409411 -0.021901174 -0.050674833

fc2.bias f4 [128]
00000000: 60fe 483d 7d21 28be 50b0 c9bd 599b 23be
00000010: 2bed ecbd 88cd 97bd 2704 0dbd a65e f1bd
00000020: 2a40 d7bd 89bb 52be 8e3b ad3d 21a0 76bb
00000030: d458 08be 51a0 61be c8b7 403c 99e1 03be
00000040: 708b 89bd 170c 43be c4b3 2f3c f0b8 1fbe
00000050: d6a1 6dbd b844 35be e75f 9fbd 1268 76bd
00000060: 1f4d 9abd d2e3 14be 0299 4fbe 9071 0ebe
00000070: 092f c23c 758d cbbd 7ef4 cdbd e0f3 cfbd
00000080: c99e e0bd 6282 18be a8e9 8bbc cd49 dbbd
00000090: 2fd6 38be b33b 5cbe 87c5 3abe 0f68 d7bc
000000a0: 1e4a b2bd af64 e4bd 2c23 dfbd bd79 dfbd
000000b0: a6dd 64be c7e4 8dbd 0519 7a3d b503 9dbd
000000c0: 03f7 c8bd ce91 38be 0bb5 d6bd 2bdb b4bd
000000d0: 2f21 39be a802 a63d bf2e 33be b05d d7bd
000000e0: 2498 0dbe a480 20be 9017 0cbe 0ca1 c4bd
000000f0: ed95 51bc 1f61 abbd 9a1c 01be 7099 0fbd
00000100: 1521 bcbd b07b 123d c36c 11be 4099 2abe
00000110: ad9b beb9 7c48 54bd c6f7 11be e752 aebd
00000120: 67f3 6a3c 3785 79bd 7fc7 1bbe 3eeb 90bd
00000130: db05 15be 17ed b1bc c509 eabd a5ce c6bd
00000140: 8f3d 963c 499a af3b 3c81 2cbe b28c 4fbd
00000150: f82f 4c3d a451 0f3a f6f3 11be 69b1 0cbe
00000160: 0924 8cbd 8db1 95bd b1c5 9abd 690d cdbd
00000170: 3da3 cabd 1639 a1bc 7bf8 c9bd c004 0abe
00000180: 2f0a 20be af7f 5abd 538d c5bc 9f55 853d
00000190: b751 97bd 3486 1dbe e958 31be f165 11be
000001a0: a41a b9bd e189 d6bc df8c 22be b1fd 75bd
000001b0: 9970 dabd fa3c e3bd 0ea3 30bd 0f7c dcbd
000001c0: 1402 37bd 2df1 14be 729e 0bbe 5bb8 0fbe
000001d0: 76a5 eabd 3a21 9c3c 577b 6cbe 7034 26bd
000001e0: 6f22 2abe 8d39 a5be f03d 67bd 4381 033b
000001f0: 4597 e0bd 4ee0 8ebd 77a6 0cbd 1294 35be
0.049070716 -0.16419025 -0.09848082 -0.15977229 -0.11568674 -0.07412249 -0.034427788 -0.11785631
-0.10510285 -0.20579351 0.08458625 -0.0037632065 -0.13315135 -0.22033812 0.011762567 -0.12879027
-0.06716049 -0.1904758 0.010724012 -0.15597892 -0.058015667 -0.17701995 -0.07781964 -0.060157843
-0.07534241 -0.14540032 -0.20273212 -0.13910508 0.023704069 -0.0993909 -0.10056399 -0.10153937
-0.10967786 -0.14893487 -0.01707919 -0.10707436 -0.18050455 -0.21507148 -0.18239413 -0.026294736
-0.08705543 -0.11152016 -0.108953804 -0.109118916 -0.22350177 -0.069284014 0.061059017 -0.07666723
-0.09812739 -0.1802437 -0.1048375 -0.088308655 -0.18079065 0.081059754 -0.17498301 -0.10515916
-0.13827568 -0.15674073 -0.13680863 -0.0960103 -0.012792093 -0.08368134 -0.12608567 -0.03505844
-0.091859974 0.03576249 -0.14201646 -0.16660023 -0.00036355612 -0.05182694 -0.14254674 -0.08511906
0.014340258 -0.06091806 -0.1521282 -0.07076119 -0.14553015 -0.021719499 -0.11427645 -0.09707383
0.0183399 0.0053589684 -0.16846174 -0.050671287 0.049850434 0.00054671825 -0.1425322 -0.13739552
-0.06842811 -0.07309256 -0.07557238 -0.100123234 -0.098944165 -0.019680541 -0.09861847 -0.13478374
-0.15628885 -0.053344425 -0.02411524 0.065104716 -0.07388633 -0.15383226 -0.17319073 -0.14199044
-0.090382844 -0.026188793 -0.1587405 -0.060056392 -0.106660075 -0.11095615 -0.04312425 -0.1076585
-0.044679716 -0.14545126 -0.13634661 -0.1403517 -0.114573404 0.019058812 -0.23093925 -0.040577352
-0.16614698 -0.3227047 -0.056455553 0.002006606 -0.109663524 -0.069763765 -0.03433844 -0.17732266

fc3.weight f4 [1, 128]
00000000: a3fc ae3c 46ca 07bd 6bc4 203d 768c a03d
00000010: 4e74 10bd 9fe8 0d3d 7812 883c 57e0 a23c
00000020: 26ed 4e3d 52f5 44bd 2f14 8a3c cba5 e03c
00000030: 887e 4bbd 69ba 94bc ca28 b13c 9cf6 ecbc
00000040: 50db cfbc 78a2 b7bc 7b9f cd3c e179 a53d
00000050: 543d 573d 0215 11bd 4918 dabc 86ca 54bd
00000060: 3947 0f3d 6a74 8dbd 9cd5 bbbc 46d5 d3bd
00000070: 1b45 053d 9d0e 4ebd 5a12 e2bc d415 32bd
00000080: 3bd8 4bbd a550 93bc dfee 3d3d c373 1d3d
00000090: 5df8 05bd b1e2 303d dedc 0dbd 4e2c eb3c
000000a0: 6010 04bd c769 d6bc 2c64 673d aa2a dd3d
000000b0: e7fc 21bd cae4 43bd 141e ed3c 57a3 e8bc
000000c0: 665d f93c 2014 e3bc f01e 99bd f1f7 743d
000000d0: 80a6 2ebd 8b62 b53c 86a0 19bd 9ce0 063d
000000e0: d92e b93d 48c2 bf3d f69a 64bd 376a 453d
000000f0: cf6a f73c 88b5 273d 233a 54bd 5585 cabc
00000100: e035 9b3c e2f3 a13c 2ce4 b13c d10d c0bc
00000110: 109a b03c 9386 d8bc bb7b 8fbd cfdb 30bd
00000120: 6bd5 743c f39a 16bd 9277 c6bc 59d7 6ebc
00000130: 2238 d43c 160b e43c 6891 a4bd f1b5 123d
00000140: 26f7 083d b451 743c 1d96 12bd 0b7d e63c
00000150: 8ea5 b13c dee7 8c3c a9e1 65bd eb5b 10bd
00000160: 760c a63c 5e3c 46bd 9e7b edbc b33c 83bd
00000170: 9d1d 6cbd f188 ecbc c87a f1bc de16 59bd
00000180: 6c00 06bd 5f5d 793d 049f ab3c 776a b03c
00000190: 42cb 42bd 380e 39bd 3e01 d53d 555d 143d
000001a0: 9e5e cb3c 174b 10bd f22a a9bc 32d3 3fbd
000001b0: 1a01 9b3c a99d 86bd 5077 953c 15a7 1fbd
000001c0: c95f 33bd 1df7 b3bd 95b9 e3bc 443d f8bc
000001d0: 8857 573d cefa 923c 11ec 003e 833e 26bd
000001e0: 0215 213d c8cf 6abd 0f51 fa3c 1e6c e83c
000001f0: 4d20 a23d bc9b 98bc bb96 863c 7f1f debc
0.021360701 -0.033151887 0.03924982 0.07839291 -0.035267167 0.034645673 0.01661037 0.019882364
0.05051913 -0.04808552 0.016855327 0.027422806 -0.049681216 -0.018155294 0.021625895 -0.028926186
-0.025373131 -0.022416338 0.02510046 0.08079887 0.05254872 -0.035420425 -0.026622908 -0.051950954
0.034980033 -0.0690697 -0.022929005 -0.10343413 0.032536607 -0.050306905 -0.027596641 -0.04347785
-0.04976676 -0.01798279 0.046370383 0.038440477 -0.03270756 0.04318494 -0.034634463 0.02870765
-0.03224218 -0.026173485 0.056492016 0.10799153 -0.039547827 -0.047825612 0.028945006 -0.028398199
0.030440044 -0.027719557 -0.07476604 0.059806768 -0.042639256 0.022141716 -0.037506603 0.032929048
0.090421386 0.09363228 -0.055811845 0.048196997 0.030202297 0.040944606 -0.051813256 -0.02472178
0.018946588 0.019769613 0.021715246 -0.023444088 0.021557838 -0.026431357 -0.070060216 -0.043178376
0.014943461 -0.036768865 -0.024226937 -0.01457771 0.025905672 0.027837317 -0.080355465 0.035818044
0.033438824 0.014912058 -0.03578769 0.028135797 0.021685388 0.017200407 -0.05612341 -0.03524391
0.020269614 -0.048397414 -0.02898961 -0.06408062 -0.05764543 -0.028873893 -0.029477492 -0.053000323
-0.032715246 0.06088006 0.020949848 0.021535141 -0.047557123 -0.045179576 0.104006276 0.03622182
0.02482539 -0.03522786 -0.02065036 -0.04683227 0.018921424 -0.0657304 0.01824537 -0.0389777
-0.04379252 -0.087873675 -0.027798453 -0.030302651 0.05257371 0.017941859 0.12590052 -0.04058696
0.039326675 -0.057327062 0.03055623 0.028371867 0.07916317 -0.018628947 0.016429296 -0.027114628

bn1.weight f4 [256]
00000000: 1c8f 843e d05d 333f 5d0b 4e3e b08c c03e
00000010: ca70 a93e 9df7 413e 2be2 b43e 2df9 ef3d
00000020: 1e01 ae3e c997 7e3e 6b02 aa3e 1cf4 f33e
00000030: 9a1a be3e a9fe a33d e429 4f3e db2f 093e
00000040: 53d0 8e3e 5f17 7a3e 8804 063f f745 a73e
00000050: 97b8 8c3e 01c2 593e 3a24 5b3e 3a19 a53e
00000060: 58dd 363e d6de 263e e824 a43e cd35 7a3e
00000070: 3e25 8a3e 9ba3 773e 2bc0 8b3e dae8 4a3f
00000080: 08fa 223e 3386 433e cb9a ba3e 35e8 823e
00000090: 8ae5 9f3e 8894 913e 9a56 aa3e 3323 593e
000000a0: 6ddc 0d3e e4fd 3f3e 925d a23e 22b8 e63d
000000b0: 84fd 4c3f c04a 8e3e 8dd3 983e 8be7 a43e
000000c0: e5dd a83e 7d38 853e af83 b83e 8d16 4f3e
000000d0: 223d 8c3e 1055 703e 2d79 2c3e 9c82 e53e
000000e0: fc86 6d3e ab07 c43e 5f99 fb3e 84e0 973e
000000f0: 2e21 863e c13a 843e 7d4e c13e 178e 4c3e
00000100: feef 9b3e ff4f 8d3e 16c3 4a3e 1625 c33e
00000110: 1a8d 933e 75e5 003f 928e 853e 7e00 833e
00000120: 73fe 983e 4b4f b03e 901d 023f cc1e 943e
00000130: b568 993e f55e 233e 6d9f 803f bd6c 603e
00000140: 3d63 843e fe67 683e ed88 5d3f 8cf6 7a3e
00000150: 0985 c13e 4744 4e3e d03a 2d3e a9a9 5e3e
00000160: 30c9 8f3e 43d4 843e dcaf 5b3e 9911 973e
00000170: d1a0 483e bd66 7e3e 0a21 923f c7f7 863e
00000180: c4ca 803e 0313 463e 9e78 7d3e 9f35 953e
00000190: 0027 7a3e 39ba 0b3e 4e6c 483e f978 3e3f
000001a0: 2c61 6b3f bb2c 153e 8e7b 9b3e e8d3 803e
000001b0: 897b 303e c17c 633e d901 bd3e 0497 b93e
000001c0: 091a b73e 2976 243f 8799 8c3e ab53 383e
000001d0: 0182 323e eebb 333f 247c 693e 8e76 603e
000001e0: c925 ff3e 7882 ac3e 4069 bc3e a3fb b03e
000001f0: 7bfd 913e 54bf 8d3e 9253 863e 5ed6 7c3e
00000200: 27f7 733e a5ad 453e c976 2e3e a8bf 793e
00000210: ab0a a13e b40e 693e 5d42 8c3e 893c e33e
00000220: 7c97 3e3e 61d7 273e 9d30 c63e 5265 893e
00000230: 8487 553e c838 803f e5b6 b43e 4ae1 893e
00000240: 2dbd 853e 746f 033f e2d4 883e ebce ab3e
00000250: a80d 5a3e 1cf2 8e3e 8d54 4a3e 585b 603e
00000260: 0d2e 623e bd27 903e 7fdd 9e3e 0285 bd3e
00000270: 9a38 6a3e c740 4f3e 2fd6 283e 659a a53e
00000280: ae44 c53e ee68 2a3e 46a2 403e 5d9a 373e
00000290: 6b81 693e 8d7a 673f 8ad7 023e 223e 8a3e
000002a0: d510 603e 4144 d23e b3bc 433f 8ce7 e83e
000002b0: b10a 413e 3338 a03e bda5 443e 1757 1f3e
000002c0: 80a2 083e 0e65 2b3e a96f 673e af55 d23e
000002d0: cfb0 713e a38d ab3e d0c0 763e 931b 493e
000002e0: 6238 803e 1508 6f3e f95b 643e 0d21 ce3e
000002f0: 8ca8 783e 2ee0 413e 39a1 963e 70d5 953e
00000300: bff6 ea3e 769e 683e b35e 3b3e 73dd 3a3e
00000310: da16 653e 341e cc3e 2298 753e 8d38 5b3e
00000320: 9e2f 903e e4f9 693e 39d6 e13e 160e 943e
00000330: 7120 313e 775d a93e 2544 e13e 21fd ba3e
00000340: c7c5 493e df82 573e 1bdf 7c3e 1d0f 103f
00000350: 9bd4 873e e2b0 603e 3783 c43d df4d 4d3e
00000360: 4bb9 3c3e 1ad8 373e 20d8 763f ab14 4e3e
00000370: 9426 8d3e 4bca ab3e 85c5 783e 44bf bb3e
00000380: 4407 ac3e aa04 823e aca6 b73e 5f12 5e3e
00000390: 71f4 52be add3 823e 38d4 b93e fea9 353e
000003a0: a367 5c3e 57be b63e 0e60 813e a524 5d3e
000003b0: e1a2 6f3e 729c 643e c470 623e 6ac8 813e
000003c0: 6084 c03e be85 813e 5110 833e 808b c23e
000003d0: 6c8f 903e 89df da3e a007 a23e 5305 9a3e
000003e0: cbd7 1e3f 6795 b33e bd52 a73e da21 323e
000003f0: 2ac7 a03e cb7f 9f3e 01b0 933e 1304 df3e
0.25890434 0.7006502 0.20121522 0.37607336 0.33093864 0.18942113 0.35328802 0.117174484
0.33985227 0.24862589 0.3320497 0.47647178 0.3712967 0.08007557 0.20230824 0.13397162
0.27893314 0.24422978 0.52350664 0.32670566 0.2748458 0.21265413 0.21400538 0.3224581
0.17857873 0.16295943 0.32059407 0.24434586 0.2698154 0.24183504 0.2729505 0.79261553
0.15915692 0.19094162 0.36446223 0.25567785 0.31229812 0.28433633 0.33269197 0.21204834
0.13853617 0.18749195 0.31712013 0.11265589 0.80074334 0.27791405 0.298489 0.32207903
0.32981792 0.2601966 0.36037967 0.20223446 0.2739039 0.23469949 0.168431 0.4482621
0.23196024 0.382871 0.4914045 0.2966348 0.2619719 0.25826076 0.37755194 0.19976078
0.30456537 0.27600095 0.19800982 0.38114232 0.2881859 0.50350124 0.26085335 0.25586313
0.2988163 0.34435496 0.5082636 0.28929746 0.29962698 0.15954192 1.0048653 0.2191648
0.25856963 0.2269592 0.8653706 0.24508113 0.3779681 0.20143233 0.16916966 0.21744408
0.2808318 0.25943193 0.21453804 0.29505613 0.19592597 0.24843879 1.1416333 0.26360914
0.25154698 0.1934319 0.24753043 0.29142472 0.2442894 0.13645257 0.19572565 0.7440334
0.9194515 0.14567845 0.30367702 0.25161672 0.17234625 0.22215559 0.36915472 0.36248028
0.3576205 0.642428 0.27460882 0.18000667 0.17432405 0.7020863 0.22801262 0.21920225
0.49833515 0.3369329 0.3679905 0.34566984 0.28513703 0.27685034 0.26235634 0.2469115
0.2382475 0.19304521 0.170375 0.24389517 0.31453452 0.22759515 0.2739438 0.44382122
0.18612474 0.16390754 0.38708964 0.26835114 0.20852476 1.0017328 0.35295787 0.26929694
0.26120892 0.5134194 0.26724917 0.33556303 0.21294272 0.2791909 0.19758816 0.21909845
0.2208788 0.28155318 0.31028363 0.3701554 0.22873154 0.20239554 0.16487955 0.32344356
0.3852896 0.1664159 0.18811902 0.17929979 0.22803275 0.9042137 0.12777534 0.2700053
0.21881421 0.410677 0.7645981 0.45489156 0.18851735 0.31292877 0.19203849 0.15560566
0.13343239 0.16737768 0.22601189 0.41080996 0.23602603 0.33506498 0.2409699 0.19639425
0.25043017 0.23342927 0.2230071 0.4025959 0.24283046 0.18933174 0.29419878 0.29264402
0.45891377 0.22716698 0.18297844 0.18248539 0.22371998 0.39866793 0.23983815 0.21408291
0.2816133 0.22849232 0.4410875 0.28916997 0.17297532 0.3307912 0.43997303 0.36521247
0.19704352 0.21046017 0.24694483 0.5627306 0.26529393 0.21942475 0.0959534 0.20049237
0.18430059 0.1795353 0.9642353 0.20125072 0.27568495 0.33552775 0.24294098 0.36669362
0.33599293 0.25394183 0.35869348 0.21686696 -0.2060106 0.2555212 0.36294723 0.17740628
0.2152391 0.35692093 0.25268596 0.2159601 0.23401977 0.22325304 0.22113329 0.25348216
0.37600994 0.2529735 0.25598386 0.37997055 0.28234422 0.4274867 0.31646442 0.30082187
0.62048024 0.35074922 0.32680312 0.17395726 0.3140195 0.31152186 0.28845218 0.43557796

bn1.bias f4 [256]
00000000: a214 8b3d 6b23 323e 873a e7bb 0df9 fe3d
00000010: 5455 99bd ed57 303d 22ad 163e 789b b33c
00000020: 2c3d c13d 4928 4f3d 99e3 c83d e913 ad3d
00000030: 8e25 7a3e 9985 48be c076 eb3c 5895 a93b
00000040: ad04 503d 9cfe 033d db6b 413c 91eb d23d
00000050: 5c36 44bd df00 f23c 4ade 433d 124b 003d
00000060: 930d 883c 4056 9e3d 0b68 5d3d e72c 613d
00000070: 4279 2f3e b7de 8e3d b446 933d 8847 423e
00000080: 5296 61bd e775 9d3d 1933 d93d 99f6 c53d
00000090: 8dde d23d 18cc 0d3e 5356 2b3d 5915 b13d
000000a0: bd1e f1bc 6c20 4d3d dc66 c23d 9f7e edbd
000000b0: 5964 9b3e 67bf 1b3e bcd2 023e 632f 253e
000000c0: 550a 353e 35bc 283d abf4 45bd 8aee 9bbb
000000d0: 06a6 4d3d 963e a53d ce73 583d 1974 403e
000000e0: 56be 803d 37a9 503e 049a 2d3e 1817 39bc
000000f0: bcad 533d 288d 2b3d 5580 253e 3671 853d
00000100: b7bf 893d 2805 a43d 3955 953d f46b e8bd
00000110: a097 4ebd 7eb4 953e 904b 7b3c ccd9 903d
00000120: d220 873c 33b8 fc3b f303 383e b58c a13d
00000130: 67a6 533d 6ef4 983d b6de a53c eb71 fe3c
00000140: 84d0 a83c 87b3 343d 1a35 303d 4d30 b23d
00000150: 2e1d 693e 11c3 543d 4e76 583d d0eb 5b3d
00000160: b698 043e 315d ae3d ebae 8b3d 3e34 d23d
00000170: 33ba ae3c 7340 ac3d 1605 583d 1ec6 9abc
00000180: 01a2 e83d a8d2 643d 3150 963d 1493 473d
00000190: 20ed ab3d c421 7f3d 97f1 393d b471 1b3e
000001a0: 8101 d53e 9810 3ebc 3a12 8a3d 16e6 8e3d
000001b0: c60d 29bd a265 a2bb 86f7 693d 44c8 003e
000001c0: a450 1d3e 0e8d c13d 9fad 253e 072a 193d
000001d0: f9de 5b3b 2ddb 813e 9a00 9d3d 5068 053e
000001e0: a521 b93e 98ac 0b3e e4e9 f53d cc9c 843d
000001f0: bd8a 923d 4eaa ce3d 5765 893b f8ca 08bc
00000200: 14bd 883d 0e1b 393c 0672 393d 7909 983d
00000210: f224 0c3e 7da0 063e e387 823d ef67 133e
00000220: 5a81 0d3d 526a f6b9 7b06 2a3e eeaf 44bd
00000230: 1e66 873d dfea 873e 4ff3 1c3e 9728 f53d
00000240: e5b8 3d3d 4500 343e bb52 313d 979b dd3d
00000250: 1e5d 38bb f28d 7e3c b021 1fbc de9e ba3d
00000260: 7cc3 a23d b030 9f3d a7d4 a13d c2f0 bf3d
00000270: e899 b83d 512d 693d e49a 033d b5c2 a53d
00000280: 7181 19bd 9202 dcbd 8e37 e23c 91f7 0e3d
00000290: 81ea cb3d c98f da3e f5f0 67bc 513e 933d
000002a0: e4b2 b63c a398 433e f986 59bc 4e73 2b3e
000002b0: 1807 173c 793f e73d 0f48 893c 207b ec3c
000002c0: ea46 8d3c 1be9 a73b c19a 3e3d e2b5 243e
000002d0: e625 7cbc ecc2 093d 6491 663d fa8f 373d
000002e0: 0f0f 033e ec4d 3abc 31f7 ad3d 3ca2 e93d
000002f0: a327 953d 9766 123d 5950 a43d 9516 69bd
00000300: 1c56 213e 166c 643d 0cbb e53d fe9b fd3c
00000310: 1607 4a3d de04 a83d 9ab0 2f3d 0596 e53b
00000320: 5605 c23d 6c40 463d 3b9e b13a 2778 da3d
00000330: d9d4 973d 3cdb 333e ae94 073d fa79 d03d
00000340: e906 3b3d b4a4 993c 97ce 963d 708f 81be
00000350: 8c5a bf3d 2a83 783d 20ab 803e dd46 f1bc
00000360: 52f6 a73b 78c1 b03c 70ea b13d 462c 4e3d
00000370: 6389 cc3d bb43 253e 584b d439 eff9 133e
00000380: 98a7 163e d95e d43b dbec cd3d 33f5 c03d
00000390: 3c69 5cbd 1aa8 f63c 7f9b 293e c2ec 7d3d
000003a0: f5c0 403d a523 1e3e 7ff3 643d d300 ec3c
000003b0: cb5e 143c 55c8 8c3d 7ecf 693d 9655 e23d
000003c0: 9bdb 4f3e e370 4f3d e4b7 383d 92bd 0c3e
000003d0: 9825 063e ccb7 cf3d 3e84 ac3d 893f b33d
000003e0: 5b8f b43e ba2b d33d 344b a43d b5ab a53c
000003f0: 252c ac3d ce7b 343e 8931 903d ca08 433e
0.06791045 0.17396323 -0.0070565375 0.124498464 -0.07486978 0.043052603 0.14714482 0.02192472
0.09435496 0.05057553 0.09809036 0.08451063 0.24428388 -0.19582213 0.028743148 0.005175274
0.05078571 0.032225236 0.0118055 0.10298837 -0.047903404 0.029541431 0.047819413 0.031321593
0.016608035 0.07731295 0.0540543 0.054974463 0.171361 0.06976073 0.0719122 0.189726
-0.055074997 0.07688504 0.10605449 0.096661754 0.102963544 0.13847387 0.041830372 0.0864665
-0.029433602 0.050079748 0.09492275 -0.11596417 0.30349997 0.15209733 0.12775701 0.16131358
0.17679723 0.041195113 -0.048329037 -0.0047586607 0.05020716 0.08068578 0.052844815 0.18794288
0.06286304 0.2037705 0.16953284 -0.01129701 0.051679358 0.041882664 0.16162236 0.06515734
0.0672602 0.08008796 0.072916456 -0.113487154 -0.05043757 0.29239267 0.01533784 0.070727915
0.016495142 0.007712388 0.17970257 0.07888166 0.051672366 0.07468496 0.020247798 0.03106018
0.02060724 0.044116523 0.04301939 0.08700619 0.22765037 0.051943842 0.0528472 0.053691685
0.1294888 0.085138686 0.06820472 0.10263871 0.021329021 0.0841073 0.052739225 -0.018893298
0.11359025 0.05586496 0.07339514 0.04872425 0.083948374 0.06228806 0.045396414 0.15180093
0.4160271 -0.011600636 0.06741758 0.06977479 -0.0412729 -0.004955963 0.057120822 0.12576395
0.15362793 0.09450732 0.16179512 0.037393596 0.003354965 0.2536253 0.0766613 0.13028073
0.3615848 0.13640058 0.12007502 0.06475219 0.071553685 0.10091077 0.004192989 -0.008349173
0.06676689 0.011297954 0.045274757 0.07423682 0.13685969 0.13147159 0.063735746 0.14395116
0.034547187 -0.0004699999 0.16604035 -0.048019342 0.06611274 0.2654638 0.1532719 0.119706325
0.046318907 0.17578228 0.04329179 0.10820692 -0.0028131674 0.015536772 -0.009712622 0.09112333
0.07947442 0.07772958 0.07901888 0.09372093 0.0901373 0.056927983 0.032130137 0.08093778
-0.03747696 -0.10742678 0.027614381 0.034904066 0.099568374 0.42687824 -0.01415657 0.0718962
0.022302099 0.19101195 -0.013276809 0.16743204 0.009218 0.11291403 0.016757993 0.028867304
0.017245729 0.005124224 0.046534304 0.16085008 -0.015389895 0.033633158 0.056291 0.04481504
0.12798713 -0.011371117 0.08494414 0.11407897 0.07282951 0.03574237 0.080231376 -0.0569063
0.15755504 0.05576714 0.11217317 0.030958172 0.049323164 0.08204053 0.04289303 0.007006409
0.09473674 0.04840128 0.0013551185 0.106674485 0.07413644 0.175641 0.033100776 0.10179515
0.045660887 0.018755294 0.07363623 -0.25304747 0.09343442 0.060671963 0.25130558 -0.029452736
0.005125799 0.021576628 0.086872935 0.05033519 0.09987142 0.16139118 0.00040491926 0.14450811
0.1471237 0.0064810333 0.10054942 0.09421768 -0.053811297 0.030109454 0.16563223 0.061993368
0.04705902 0.15443285 0.05589628 0.028808987 0.0090558035 0.06874148 0.057082646 0.110514805
0.20298617 0.050644767 0.045097247 0.1374419 0.13100278 0.10142478 0.08423661 0.08752353
0.35265622 0.103110746 0.08022156 0.020223478 0.084068574 0.17625353 0.07040698 0.19046322

bn1.running_mean f4 [256]
00000000: ab1a 8d3e 4b1b 6d3d 9561 ff3f 24e1 b33e
00000010: a1ba 933e 024f 2840 b86d d23f f75f e73e
00000020: 6291 a23f d710 ad3f 0952 ce3e 0031 1b41
00000030: 3b96 9d40 b8bb bb3f 4766 083f 7b0d f53f
00000040: 8b17 553f 0efe ba3f 38d5 2941 c544 2f3e
00000050: cc62 663f 2d2e f93f 93be 3840 d5fd 6c3f
00000060: 2ff8 693f 6649 9440 274e 2840 ac6a f33e
00000070: 4cc5 5240 e87c 1c3f 618a bb3e 396f aa3e
00000080: b7a5 1a3f f404 033f dd5e c73e f6b7 8340
00000090: 7388 083f 4b13 4640 9697 9240 133f 4b3f
000000a0: 38cc 7b3f 257d 0240 9a80 c63f 1ed2 f03f
000000b0: 4b56 fc3e f58c 263f 0864 9b3f 239d a63f
000000c0: d8bb 3540 73ec b23e bb35 873f 6fb1 b53f
000000d0: 7fc3 723f 1f30 863f fae2 5c3f ed30 7c3f
000000e0: 8ccf 223f c154 0540 b853 c83e 5a39 843f
000000f0: 344e e23f 6673 8d3e babe a93f bbe4 853e
00000100: 7a63 173f 2606 0440 2cb0 ab40 d8ce c140
00000110: 018a 8d3f d765 2540 071b 793f ea6a be3f
00000120: 3d3f aa3f cf0b 1141 89bb 9c3f 6347 8f3e
00000130: 79bd 5340 4be3 ba3f 034a 563f dcb9 f23e
00000140: 2f8a 813f d8bb 293f c4d6 c340 95ab 8f3f
00000150: ad7e ff3f 570c 093f 9881 c73e ccbf 3b3f
00000160: 9c50 803f 04dc 913e 0a95 013f ee45 a13e
00000170: 5ed9 dc3f edec 413f 292e 0a41 86fd 1c40
00000180: 0b33 1d3f e652 323e cdac c33e ae1b 2540
00000190: 97f4 1740 e198 063f 3290 cb3e 0ba6 db3f
000001a0: 5197 ef3e 9899 ad3f fc63 ff3e 921c 113f
000001b0: caf3 ac3f 5a92 1040 d6e1 b73f 630c 4c3f
000001c0: 0d1f 0640 cedc 1e41 1670 2640 38e5 643e
000001d0: 05bb 883f 0204 9241 3af2 b93f f306 9740
000001e0: ac2c 3440 1512 5e3f 155d e33e cd54 2f3e
000001f0: 3868 503e ed35 013f 476a 3140 523b fd3e
00000200: cf5c c73e c5c1 6e3f e70f ef3f 2f6c fd3f
00000210: 66be 0e40 b3a8 583f 745f a13f c8e0 1a3f
00000220: b4b8 1c3e 5db3 1a40 80e2 a63f 89c9 1740
00000230: 1a71 c040 53fb 1e3e 70d3 4e3f f8af 6f3f
00000240: 77be 793e c2e3 e93e ee3d a43e b8ea bf3f
00000250: 3580 6a3f ec85 be3e 6b96 fb3e 848b c13e
00000260: 4e54 2e40 5905 ab40 23f2 1740 3252 8c3f
00000270: 7b9d 413f a32c 973f e700 9b3e 7cc6 fc3e
00000280: 0d8f 973e c344 103f 9719 b83f 0d56 8e3e
00000290: 1226 693f cb29 c13f 4e89 8c3e b41f ab40
000002a0: a835 a33f e704 1840 3a2d 1641 c821 c43f
000002b0: 9b78 3440 10bd 8c3f 8972 1a3f d459 bd3f
000002c0: 221e b33f e6d6 a43f adac a43e dc3c db3f
000002d0: 209a e83f 7af0 953f b824 b43f e0f3 933e
000002e0: ceab 193f a0e8 b53f c3be 4a3f a028 093f
000002f0: 43b2 da3f 6675 d03d 580a 1c3f 00b1 f03e
00000300: 4424 803f 2d34 6c3f dabd 7d3e e44e 343f
00000310: fa9b 713f 416a 083f 9dab a33f 8196 cf3f
00000320: f342 9540 8cb9 273f b299 de3f 9642 433f
00000330: 88fe 443e 5e09 a33f 3347 8e3f 4c3c 013f
00000340: 29b5 a13f edf7 b63e 5642 b33f 9ec5 b940
00000350: aca9 1440 83a5 2a3f dc9e c840 af19 363f
00000360: c617 023f cb4c dc3f d3f8 e83f e4e4 e53d
00000370: 096e 8540 3439 973f 8729 2a40 6962 e73f
00000380: 0c0c a540 ec47 b93f 40b7 a040 c8fd 353f
00000390: 66c9 cf3e d58c 6c3f 11d7 443f 2b32 c93f
000003a0: 6719 9f3e 565a 283f 642d 7640 bbd5 343f
000003b0: 78e7 823f f46b 063f 1d56 a03e d7c8 2b40
000003c0: a323 d73f 95bb 2b40 9945 3b40 68c4 8f3f
000003d0: 5e6e 993f 5abd c73f f6fb e53f b7c6 1f3f
000003e0: bcae 6b3f f5e4 5c3f 223a 763e 0822 ab3f
000003f0: a46e 863f 3139 5d40 82f9 bf3f c01c 2a3f
0.2755941 0.057887357 1.9951655 0.35132706 0.28853324 2.6298223 1.6439734 0.45190403
1.2700617 1.3520764 0.40296963 9.699463 4.9245887 1.4666662 0.5328106 1.9144739
0.8323905 1.4608781 10.614555 0.17116077 0.899945 1.9467217 2.8866317 0.92574817
0.91394323 4.63396 2.62977 0.47542322 3.293292 0.6112809 0.36629012 0.3328798
0.6040911 0.5117943 0.38939562 4.116206 0.53333205 3.0949275 4.581004 0.7939312
0.9835849 2.0388882 1.5507996 1.8814123 0.49284586 0.65058833 1.2139902 1.3016704
2.83959 0.3494602 1.0563272 1.4194773 0.94829553 1.0483435 0.8628384 0.98512155
0.6359794 2.083298 0.39126372 1.0330002 1.7680116 0.27627105 1.326133 0.2615107
0.59136164 2.0628753 5.3652554 6.0564995 1.105774 2.5843408 0.97306865 1.4876378
1.3300549 9.065383 1.2244731 0.2798415 3.3084395 1.4600614 0.8370668 0.47407424
1.0120295 0.6630225 6.1199665 1.1224238 1.9960533 0.53534454 0.3896606 0.73339534
1.00246 0.2848817 0.5061804 0.31498665 1.7253835 0.75752145 8.63627 2.4529738
0.6140601 0.17414436 0.38217774 2.5798144 2.3743036 0.52577025 0.3975845 1.7160047
0.46795133 1.3562498 0.4988097 0.5668422 1.3511899 2.2589326 1.4365795 0.797064
2.0956452 9.928907 2.6005912 0.22353065 1.0682074 18.251957 1.4527047 4.7195983
2.8152266 0.8674634 0.44406953 0.17122193 0.20352256 0.5047291 2.7721117 0.4945932
0.38937995 0.9326442 1.8676728 1.979864 2.230371 0.84632415 1.2607255 0.6049924
0.15304834 2.4171975 1.3037872 2.3716757 6.0138063 0.1552556 0.8079138 0.9362788
0.24389063 0.45681578 0.320785 1.4993505 0.9160188 0.3721155 0.49138197 0.37801754
2.7238955 5.344403 2.3741539 1.0962584 0.7563092 1.1810497 0.30274126 0.49370182
0.29601327 0.5635492 1.4382809 0.27800027 0.91073716 1.5090879 0.27448505 5.34762
1.275075 2.3752992 9.386042 1.5322809 2.8198612 1.0995197 0.60331017 1.4793038
1.3993571 1.2878082 0.3216299 1.7127948 1.8172035 1.1714013 1.4073706 0.28897
0.6002778 1.4211617 0.7919733 0.53577614 1.7085651 0.10178642 0.60953283 0.4701004
1.0011067 0.92267114 0.24779454 0.7043288 0.94378626 0.5328713 1.2786747 1.6217805
4.6644225 0.655175 1.7390654 0.7627348 0.19237721 1.2737234 1.1115478 0.5048263
1.2633411 0.35736027 1.4004619 5.805373 2.322856 0.666588 6.269392 0.7113294
0.50817525 1.7210935 1.8200935 0.11225298 4.169682 1.1814332 2.6587846 1.8076907
5.1577206 1.4475074 5.0223694 0.71090364 0.40583342 0.9240239 0.76890665 1.5718435
0.31074068 0.6576284 3.8465204 0.70638627 1.0226889 0.52508473 0.313157 2.6841333
1.680775 2.683324 2.926123 1.1231813 1.1986806 1.560466 1.7967517 0.6241259
0.920635 0.8628686 0.24045613 1.336976 1.0502515 3.4566157 1.4998019 0.6645012

bn1.running_var f4 [256]
00000000: fbd6 a63f 0935 543e 3e6e 2541 f2cf b73f
00000010: 8c50 6b3f 92f5 6341 e6fc ba40 255c f73f
00000020: 25df db40 7901 0441 0e1c fe3f 0672 8e41
00000030: df83 e841 5a9e 2741 3d78 0d40 4105 3f41
00000040: 9a21 b840 16a4 fa40 2994 4d43 5378 343f
00000050: 91ef 8940 afe0 3f41 c61d 8f41 5081 9540
00000060: e14b ae40 107c cf41 8769 8f41 8851 ff3f
00000070: e4fe 7941 1c6e 8140 e28f ca3f bb4d 873f
00000080: 026b 4440 05e2 0540 e92a 0240 6e86 1542
00000090: 1ce0 4240 ed18 5f41 4f88 0142 d24e b940
000000a0: 11aa b540 97c1 9441 8aff 1041 b74c 5541
000000b0: fa9d 0540 0041 3840 7516 0341 c1fb 0c41
000000c0: fd26 9c41 9769 a33f daa5 9b40 980a 2d41
000000d0: 64a6 a540 1b9a 9e40 5571 fc40 711c 3240
000000e0: 0f1c 9140 7611 3641 a267 c03f 9e98 bc40
000000f0: 7843 3f41 5c8d 483f 0b79 0341 39c2 a93f
00000100: 7b3c 6540 b0bf 6c41 4bd9 0b42 82fc a041
00000110: 7402 cc40 d3ef 7541 fd67 8840 30b4 3641
00000120: 0cd4 d140 b946 d241 e367 0c41 c0d5 633f
00000130: 720f a341 df60 1641 515d 9d3f 0e5a 3040
00000140: 65e0 a740 036f 8240 ff46 6142 f230 c140
00000150: 3a51 ec40 d6d8 fb3f 59b8 e83f 4d99 8740
00000160: 5554 8340 141a 973f d6d1 2540 038f ec3f
00000170: 3539 a140 b09f b440 d638 dd42 4b51 7e41
00000180: 527e 5440 00d0 3b3f 8677 d13f 12eb 0c41
00000190: 5b04 b141 0e0d 7f40 7754 d93f 4444 c43f
000001a0: 83e4 123f a218 fb40 3f9a 3240 4a29 8440
000001b0: 47f0 0d41 5b6e 8441 f4ec 1341 2b99 b440
000001c0: 4626 7041 95a6 8a41 1c42 a941 6fc1 303f
000001d0: adfd a340 919a dd43 e085 2141 6e49 f041
000001e0: f2c2 7e41 2156 c240 d4cb f23f 025f 363f
000001f0: 42bf 3a3f 7c28 1740 89c4 2741 f904 2540
00000200: 3b57 d33f d148 a340 e258 1c41 ffec 4341
00000210: 2a14 9041 e47f 2d40 020e 0a41 87be fd3f
00000220: 8376 c23e 082d 2641 1440 c440 64da 0841
00000230: 9ff5 1c42 11e6 223f 9c85 5f40 c1a8 7240
00000240: c73a a73f 2b3e fc3f b18e cb3f 0cbe 6d41
00000250: 3e54 9540 c905 9d3f e686 4a40 1057 9e3f
00000260: 997a da41 a972 ae41 f920 5a41 9e5a 7940
00000270: 0f25 9f40 32b6 ae40 e440 b13f 8412 0c40
00000280: a976 9a3f 1351 3740 b80d 0241 2f74 843f
00000290: 8bb7 b640 67de a440 dc25 af3f fa58 2642
000002a0: ce20 ee40 5a40 2441 1f2d 1043 7609 dd40
000002b0: 4424 6241 e381 cb40 370b 6740 91cf d240
000002c0: 865a 3541 4dcf 0541 a675 dc3f ab41 5141
000002d0: d24b 6141 ed68 bb40 5104 1e41 2c8a 5a3f
000002e0: c91a 3e40 4324 2641 1c6b 7540 8ae5 7240
000002f0: aed1 3c41 51be 9a3e 3619 8140 6666 e73f
00000300: 11df 2741 a8ce 6640 fc74 a53f 7e09 5640
00000310: 8343 bb40 663c 3040 c442 4d41 577e 8341
00000320: 16b8 b741 4ebf 7b40 3a05 eb40 34cd 8940
00000330: 251d 343f a1e2 c440 ea50 8240 b85a 6940
00000340: 7833 f540 28ce e43f b126 c940 bf53 1642
00000350: 4c68 9741 a0fe 6540 aaea 4d42 06d3 9340
00000360: db18 1240 332a 0f41 44f0 d83f 0807 153f
00000370: 242b 0e42 d3fe e040 9272 a041 98d4 2641
00000380: 0647 cd41 aeed 2b41 eb6b c541 1260 8240
00000390: 9bec c63f 661a 9e40 392f ab40 fcb2 1641
000003a0: 92dc 833f 4144 5240 45c4 c741 7d41 8340
000003b0: 990f a140 151a 2940 57fd c13f dd7f ad41
000003c0: 5e8b 2941 e206 8941 4438 5241 d3e3 ea40
000003d0: a32e 9740 9dfa 8441 807a 4d41 6990 2640
000003e0: 39ad 3f40 099b f540 cea2 803f e852 fe40
000003f0: 140c 1941 f156 df41 0062 b440 a6be fa3f
1.3034357 0.20723356 10.339415 1.4360335 0.9191978 14.247454 5.8433714 1.9324995
6.8709893 8.25036 1.9852312 17.805676 29.06439 10.47616 2.2104638 11.938783
5.7541018 7.83253 205.57875 0.704961 4.310494 11.992354 17.889538 4.672035
5.4467626 25.935577 17.926527 1.9946756 15.624729 4.044691 1.582516 1.0570596
3.0690312 2.0919201 2.033869 37.38128 3.0449286 13.943585 32.383114 5.7908716
5.67701 18.594526 9.062387 13.331229 2.0877671 2.8789673 8.192983 8.811463
19.519037 1.2766598 4.8639956 10.815086 5.1765614 4.9563117 7.8888345 2.782986
4.534675 11.379263 1.5031626 5.89363 11.953972 0.783407 8.2170515 1.3262397
3.5818164 14.796799 34.9622 20.123295 6.3752995 15.371051 4.262694 11.418991
6.5571346 26.284533 8.775363 0.8899803 20.382542 9.39865 1.2294103 2.7554965
5.246142 4.076051 56.319332 6.037225 7.3849154 1.9675548 1.8181258 4.2374635
4.1040444 1.1804833 2.5909324 1.8481144 5.0382333 5.644493 110.61101 15.894847
3.32021 0.7336426 1.6364601 8.80739 22.127127 3.9851718 1.6978902 1.5333333
0.5737993 7.846757 2.7906644 4.13004 8.871161 16.553885 9.24535 5.6436973
15.009344 17.331339 21.15728 0.69045156 5.1247163 443.20755 10.095184 30.035854
15.922594 6.073014 1.8968453 0.7123872 0.72948086 2.361846 10.485482 2.5784285
1.6510996 5.1026387 9.7717 12.24536 18.009846 2.7109308 8.62842 1.9823769
0.37981042 10.385994 6.132822 8.553318 39.239864 0.63632303 3.4925299 3.79155
1.3064812 1.9706472 1.5902921 14.858898 4.6665335 1.226739 3.1644835 1.2370319
27.309862 21.805986 13.63305 3.8961558 4.9732738 5.4597406 1.3847928 2.18863
1.2067462 2.8643234 8.128349 1.0347956 5.709905 5.1521487 1.3683429 41.58689
7.4415045 10.265711 144.17625 6.907405 14.133854 6.3596053 3.6100595 6.5878377
11.3346 8.363111 1.7223403 13.078532 14.081011 5.8565583 9.876054 0.85367084
2.9703848 10.383853 3.8346624 3.79526 11.801191 0.30223325 4.0343275 1.8078125
10.49196 3.6063633 1.2926326 3.3443294 5.851991 2.7536864 12.8288 16.43669
22.964886 3.9335513 7.344388 4.306299 0.7035697 6.1526647 4.072377 3.646162
7.662533 1.7875414 6.285973 37.581783 18.925926 3.593666 51.479164 4.6195097
2.282767 8.947803 1.6948323 0.58213854 35.54213 7.0311065 20.055943 10.426903
25.65968 10.745527 24.677694 4.0742273 1.5540956 4.9407225 5.3495145 9.418697
1.0301688 3.285416 24.970835 4.101744 5.033154 2.642217 1.5155438 21.687433
10.596525 17.12836 13.138737 7.3403106 4.724443 16.62237 12.842407 2.602564
2.9949477 7.675175 1.0049684 7.9476204 9.565449 27.917452 5.636963 1.9589431
