checkpoint_agent1_actor.pth (torch_old, 166228 bytes, 14 tensors)

fc1.weight f4 [256, 24]
0.047503278 0.20264061 0.107965805 -0.043032546 -0.017149124 -0.039259404 0.037734143 0.03508508
0.071487345 0.1376771 0.08742287 0.001169866 0.010389372 -0.022105835 0.018630303 0.015512383
-0.054586608 0.16291316 -0.029455112 -0.009426381 0.028479977 -0.1354668 0.020130465 -0.0038524587
0.06513961 -0.029434241 -0.006991449 -0.1263813 -0.012544884 0.019438475 -0.0015584477 -0.08089981
0.078257725 -0.089334495 -0.017410599 -0.08930971 -0.108071394 0.14921889 0.008119049 0.021386065
0.06699545 -0.11463559 0.010505048 -0.11673315 0.039185487 0.14995551 0.0023536368 -0.022911197
0.059177443 -0.040071845 -0.008492353 0.047225576 -0.098147415 0.0072004353 -0.018987974 -0.03171239
0.015341819 0.055872843 0.01568859 -0.028281301 -0.004744061 0.12716006 -0.028599354 -0.01988095
0.12910528 -0.023188137 0.009961518 -0.023953367 -0.019883059 0.18975776 -0.0401888 0.021724511
-0.075290464 0.060803656 0.013504432 -0.08548315 0.02052364 -0.044898044 0.023451474 -0.07082863
-0.055922836 0.015116316 0.077516414 0.01512819 0.03607868 0.00729982 0.037062697 -0.06977248
0.04417303 0.06895241 -0.014732827 -0.14210351 -0.050093513 0.06475677 0.07396814 -0.14191382
-0.060447827 0.06751192 0.009014927 0.028020259 0.069876954 -0.19560984 0.00062256533 0.03264618
-0.025898421 0.051988598 0.01916661 -0.030451695 -0.010727663 -0.13280569 -0.029266378 -0.024699785
-0.097630985 -0.008713457 0.03547929 0.039200168 -0.057555273 0.16210629 -0.04390848 -0.073132135
-0.012962332 0.048824582 0.06665491 -0.047692418 0.030799797 -0.015703997 -0.04309299 -0.1152111
0.04659195 0.025902567 -0.05802579 -0.0061502503 0.10652983 0.039735567 0.0053957873 -0.011073011
0.06595035 0.047052212 0.006520848 0.057385825 0.16338715 0.0719502 -0.01769684 0.13709915
0.028080361 0.12855162 0.0020438463 0.05839446 -0.014729168 -0.018565686 -0.04453875 0.16249721
0.087210774 0.11982025 -0.04184474 0.0008986748 0.01010962 -0.12821424 0.032224547 0.050964233
0.031618845 0.1372682 0.027064038 -0.05197454 0.03941447 -0.10296545 -0.061596878 -0.07154056
0.008843685 0.04681522 -0.056242447 -0.18732071 -0.06800474 -0.02511547 0.03438515 -0.18591908
0.059874065 0.0019171949 -0.009685961 0.046215825 -0.049460486 -0.0839231 0.005473226 -0.013359972
0.03258776 0.05833911 -0.03369888 0.04390676 0.0014657741 0.0074898405 -0.027034948 0.060407184
0.0012068795 -0.120248616 0.06114292 -0.035103716 -0.15568402 0.009608437 0.020723626 -0.014713307
-0.0511227 -0.11161812 0.02183503 0.054525588 -0.07395592 0.049137317 0.03333584 0.018000424
-0.09578498 -0.114626884 0.0018331262 0.14258 0.011399662 0.033447612 -0.0006063901 0.055272136
0.019469507 0.16126806 -0.0024645561 0.066885 0.08109676 -0.042143974 0.011266779 0.065492675
-0.013806711 0.13369122 0.016337361 0.087213404 0.1278189 -0.13559622 -0.027915183 0.097361036
0.004519529 0.21144468 0.040718433 -0.012813697 0.04916433 -0.051221978 -0.024718324 0.008247392
0.071733564 -0.16437021 -0.010560538 -0.07049691 0.005218117 -0.09632556 -0.0050713206 0.008369015
-0.010869526 -0.1128074 0.07631471 0.22473757 -0.012506003 -0.08972334 -0.04166744 0.18764205
00000000: cc92 423d 0581 4f3e 2d1d dd3d e542 30bd
00000010: 527c 8cbc 78ce 20bd 1e8f 1a3d 5fb5 0f3d
00000020: f567 923d 3afb 0c3e c30a b33d 3056 993a
00000030: 2f38 2a3c 4c17 b5bc 949e 983c a627 7e3c
00000040: 3596 5fbd b5d2 263e d94b f1bc 1c71 1abc
00000050: d74e e93c cfb7 0abe a5e8 a43c 8879 7cbb
00000060: ea67 853d 1420 f1bc 8618 e5bb 196a 01be
00000070: 0f89 4dbc 703d 9f3c d444 ccba cdae a5bd
00000080: 9645 a03d 01f5 b6bd aca0 8ebc 02e8 b6bd
00000090: 8954 ddbd d6cc 183e c205 053c d431 af3c
000000a0: e934 893d 10c6 eabd 5d1d 2c3c ca11 efbd
000000b0: f680 203d f08d 193e 793f 1a3b 43b0 bbbc
000000c0: 0c64 723d 6022 24bd 8323 0bbc 9b6f 413d
000000d0: 8301 c9bd a1f1 eb3b ab8c 9bbc dae4 01bd
000000e0: 415c 7b3c ecda 643d 5c85 803c 30ae e7bc
000000f0: 1174 9bbb 3f36 023e 3149 eabc 60dd a2bc
00000100: 2d34 043e 0cf5 bdbc a335 233c da39 c4bc
00000110: cce1 a2bc dc4f 423e 039d 24bd 9af7 b13c
00000120: e331 9abd 410d 793d b141 5d3c ca11 afbd
00000130: 3121 a83c 03e7 37bd 4e1d c03c 9a0e 91bd
00000140: 580f 65bd 6daa 773c edc0 9e3d 3adc 773c
00000150: 3dc7 133d 5433 ef3b 0ecf 173d e0e4 8ebd
00000160: c7ee 343d ec36 8d3d f561 71bc 9583 11be
00000170: db2e 4dbd 339f 843d 9c7c 973d db51 11be
00000180: 2498 77bd b143 8a3d 58b3 133c be8a e53c
00000190: a61b 8f3d f24d 48be a733 233a 00b8 053d
000001a0: ed28 d4bc fff1 543d 4b03 9d3c d575 f9bc
000001b0: 14c3 2fbc 37fe 07be 0bc0 efbc 3457 cabc
000001c0: c1f2 c7bd e3c2 0ebc bb52 113d 5b90 203d
000001d0: 14bf 6bbd 31ff 253e 61d9 33bd 4dc6 95bd
000001e0: f65f 54bc 49fc 473d 5f82 883d 2059 43bd
000001f0: db4f fc3c aba5 80bc 4682 30bd ccf3 ebbd
00000200: 33d7 3e3d 9f31 d43c 73ac 6dbd 0a88 c9bb
00000210: 502c da3d c3c1 223d 25cf b03b 936b 35bc
00000220: fa10 873d d2b9 403d d6ac d53b 660d 6b3d
00000230: f64e 273e a05a 933d f7f8 90bc b863 0c3e
00000240: c908 e63c 09a3 033e 0df2 053b 072f 6f3d
00000250: 9c52 71bc 1117 98bc 446e 36bd ab65 263e
00000260: 909b b23d 5264 f53d 6465 2bbd 0c95 6b3a
00000270: d2a2 253c 984a 03be e3fd 033d dfbf 503d
00000280: c382 013d 0990 0c3e 67b5 dd3c 41e3 54bd
00000290: 1171 213d 8ddf d2bd 024d 7cbd db83 92bd
000002a0: 1ae5 103c 51c1 3f3d 7b5e 66bd 00d1 3fbe
000002b0: 1246 8bbd f5be cdbc 71d7 0c3d 9261 3ebe
000002c0: 823e 753d 634a fb3a ddb1 1ebc ce4c 3d3d
000002d0: 1497 4abd e0df abbd bf58 b33b c9e3 5abc
000002e0: be7a 053d fef4 6e3d d607 0abd 93d7 333d
000002f0: 381f c03a 566d f53b 6578 ddbc 866d 773d
00000300: 2830 9e3a e844 f6bd 0071 7a3d eac8 0fbd
00000310: a26b 1fbe b56c 1d3c 98c4 a93c 1510 71bc
00000320: 0966 51bd 0a98 e4bd 60df b23c 3956 5f3d
00000330: 3476 97bd 3644 493d 298b 083d a075 933c
00000340: ea2a c4bd 80c1 eabd 8245 f03a 7e00 123e
00000350: a6c5 3a3c 5d00 093d 27f6 1eba 0965 623d
00000360: 847e 9f3c 7423 253e 6484 21bb 01fb 883d
00000370: 0f16 a63d 299f 2cbd 4c98 383c 0621 863d
00000380: 8b35 62bc 5ae6 083e eed5 853c f19c b23d
00000390: f5e2 023e bcd9 0abe 62ae e4bc 3965 c73d
000003a0: 8f18 943b f484 583e 5fc8 263d 8af0 51bc
000003b0: 8960 493d 23ce 51bd 157e cabc 1220 073c
000003c0: 0ce9 923d aa50 28be 1b06 2dbc af60 90bd
000003d0: bdfc aa3b 5646 c5bd 522d a6bb 311e 093c
000003e0: 1916 32bc 9107 e7bd e34a 9c3d 9b21 663e
000003f0: fae5 4cbc dfc0 b7bd 7aab 2abd 3d25 403e

fc1.bias f4 [256]
0.16721286 -0.039405994 -0.2609297 -0.13565746 -0.111385174 -0.1583911 -0.020731699 -0.2658463
0.19701466 -0.009092946 -0.1687091 0.13656285 -0.11242111 -0.24989767 0.09047066 -0.06278344
0.025685662 0.059270397 -0.27218735 -0.06043055 -0.1351262 0.10165385 0.008217388 -0.05040002
-0.31419173 -0.051105734 0.008429984 -0.13183554 -0.17446905 0.0548032 0.10625306 0.0829595
-0.21296898 -0.32593316 0.0065573775 -0.09338984 0.03731288 -0.11781048 -0.12420788 -0.14803469
-0.23837988 0.07551134 -0.009248607 -0.19958708 -0.15250942 -0.06339164 -0.13380027 -0.187455
0.051218346 -0.26067266 -0.06536655 -0.27059746 0.015767394 -0.3009388 -0.06470802 -0.05851297
0.050097443 -0.11689925 -0.19153824 0.07194051 -0.21041897 -0.37538993 -0.063960336 -0.06872148
0.115454055 -0.011068616 0.12304778 -0.004737854 -0.0005699568 -0.34712157 -0.08342125 0.08882829
0.09609473 -0.25356233 0.0040872437 0.03381538 -0.044112746 0.18324588 -0.03641026 -0.05978071
-0.03134438 -0.25765485 -0.01567116 -0.10982016 0.071161434 -0.33802915 0.20185347 0.024812656
-0.1631453 0.14615081 -0.11242821 -0.13164765 0.09589967 -0.22194743 -0.13696116 0.015190526
-0.15075742 0.08445903 -0.10363239 -0.2011435 0.062295936 0.116864875 -0.2221096 0.052512012
0.03266868 0.030267728 -0.27710918 -0.23483159 0.00921926 -0.20499432 -0.018535517 0.0018375802
-0.13997215 -0.21754344 -0.047287066 -0.19617905 0.02170902 -0.38442752 0.18270263 -0.0400593
-0.074502334 0.11083915 -0.27428052 -0.14383319 -0.064805135 0.02289767 -0.046662565 -0.029546734
-0.07756758 0.11718419 -0.22350773 0.021343838 -0.29895812 -0.10860371 -0.0030184202 -0.12991962
0.082731806 -0.15370148 -0.036148258 -0.27827156 0.06891971 -0.30428553 -0.059025526 -0.24323821
-0.28452584 -0.12585807 -0.13774101 0.048648305 0.17414829 0.08650367 0.1674541 0.07886186
-0.20069738 0.13141482 -0.2990675 0.14672963 -0.15333995 -0.0031140775 -0.19120409 -0.15450971
-0.03790765 0.079844676 -0.0074350955 -0.16438825 0.12142398 -0.0016740898 -0.11545627 -0.004050296
0.078478225 -0.23284009 -0.021146964 -0.12565883 0.029896133 -0.0835948 0.25944778 -0.14615597
-0.111394234 -0.3344584 0.06253664 0.121013924 -0.0037306491 -0.16604689 -0.2733986 -0.14277491
-0.24082725 -0.009527692 -0.26819086 0.114924796 0.028009865 0.20617098 0.15037067 -0.15985146
-0.16297732 -0.12488687 -0.012438091 -0.1183192 -0.09208496 -0.24482906 0.14752182 -0.0059783165
0.064736016 -0.24521478 -0.28502858 -0.022576537 0.17240345 -0.29030436 0.099548906 -0.15232868
0.067158975 0.042413298 -0.067495644 0.17559361 0.21521257 -0.01737289 -0.101616934 -0.37332228
-0.21053527 -0.014719858 0.30880645 0.03724658 -0.1405732 -0.37647346 0.012124523 -0.15439558
-0.3116946 -0.12711543 -0.28386658 -0.10737585 0.016301252 -0.1251101 0.01982356 -0.18000829
0.045257326 -0.07489111 -0.08368896 -0.22139315 -0.051657062 0.011948475 0.049823288 -0.11039158
-0.0163605 -0.06445438 -0.07845668 0.05372476 -0.15167652 -0.096110515 -0.030840604 0.03585656
0.10198787 -0.037327077 0.12345313 -0.17637047 -0.20259845 -0.12201836 -0.20014222 0.14284077
00000000: d939 2b3e 2e68 21bd 9498 85be cae9 0abe
00000010: e91d e4bd 4731 22be 86d5 a9bc 021d 88be
00000020: 36be 493e 94fa 14bc 14c2 2cbe 22d7 0b3e
00000030: 0a3d e6bd 2de5 7fbe ae48 b93d 9b94 80bd
00000040: bd6a d23c 84c5 723d 245c 8bbe 0686 77bd
00000050: 865e 0abe e52f d03d 39a2 063c 4070 4ebd
00000060: bddd a0be 3f54 51bd ea1d 0a3c e5ff 06be
00000070: 04a8 32be 5279 603d 349b d93d ace6 a93d
00000080: 8a14 5abe b6e0 a6be 45df d63b 2c43 bfbd
00000090: 64d5 183d 9f46 f1bd b360 febd 6896 17be
000000a0: db19 74be b0a5 9a3d 7887 17bc 8e60 4cbe
000000b0: 6e2b 1cbe 7ad3 81bd f002 09be 34f4 3fbe
000000c0: 54ca 513d e376 85be e6de 85bd c08b 8abe
000000d0: 9f2a 813c a714 9abe a385 84bd 4cab 6fbd
000000e0: fa32 4d3d e068 efbd 9a22 44be 8c55 933d
000000f0: 1278 57be 1c33 c0be a3fd 82bd d9bd 8cbd
00000100: 2d73 ec3d 2459 35bc 7900 fc3d 0040 9bbb
00000110: 2769 15ba ebb9 b1be c3d8 aabd 9beb b53d
00000120: 50cd c43d ecd2 81be 49ee 853b ff81 0a3d
00000130: 91af 34bd cfa4 3b3e ed22 15bd 9edc 74bd
00000140: f762 00bd 56eb 83be ce60 80bc 64e9 e0bd
00000150: 16bd 913d 2812 adbe adb2 4e3e e943 cb3c
00000160: 900f 27be 8fa8 153e c340 e6bd a4ce 06be
00000170: 0c67 c43d 3046 63be 8c3f 0cbe afe1 783c
00000180: 2760 1abe dbf8 ac3d 383d d4bd 90f8 4dbe
00000190: 062a 7f3d da56 ef3d b370 63be d616 573d
000001a0: 98cf 053d 07f4 f73c 41e1 8dbe b177 70be
000001b0: 610c 173c 08ea 51be ccd7 97bc f6da f03a
000001c0: dc54 0fbe b5c3 5ebe 15b0 41bd 29e3 48be
000001d0: 1dd7 b13c afd3 c4be 6616 3b3e 3815 24bd
000001e0: ae94 98bd a3ff e23d 7f6e 8cbe 0249 13be
000001f0: 8eb8 84bd e593 bb3c 3f21 3fbd fe0b f2bc
00000200: c0db 9ebd 44fe ef3d 36df 64be 46d9 ae3c
00000210: 0a11 99be 9f6b debd b0d0 45bb a609 05be
00000220: 4b6f a93d ec63 1dbe 3210 14bd 9c79 8ebe
00000230: c725 8d3d 50cb 9bbe c0c4 71bd 7013 79be
00000240: 5fad 91be f0e0 00be fb0b 0dbe 7243 473d
00000250: ee53 323e d628 b13d 1679 2b3e 5482 a13d
00000260: 9d83 4dbe 9b91 063e 601f 99be 4b40 163e
00000270: 2605 1dbe 8d15 4cbb 01cb 43be cb37 1ebe
00000280: 0d45 1bbd 9b85 a33d 1aa2 f3bb 6555 28be
00000290: 23ad f83d 226d dbba 5674 ecbd 58b8 84bb
000002a0: 31b9 a03d a26d 6ebe 663c adbc b5ac 00be
000002b0: bce8 f43c c033 abbd 57d6 843e e9a9 15be
000002c0: a922 e4bd 223e abbe 3613 803d 26d6 f73d
000002d0: e87d 74bb 3208 2abe e7fa 8bbe 9633 12be
000002e0: 6b9b 76be 091a 1cbc 5050 89be b15d eb3d
000002f0: f274 e53c 7c1e 533e c5fa 193e 1ab0 23be
00000300: 87e3 26be b0c4 ffbd 23c9 4bbc 5651 f2bd
00000310: 0a97 bcbd 78b4 7abe f60f 173e c1e5 c3bb
00000320: 5194 843d 9519 7bbe 44ef 91be 6ef2 b8bc
00000330: 888a 303e c6a2 94be 4ce0 cb3d 0dfc 1bbe
00000340: a58a 893d 91b9 2d3d 283b 8abd d0ce 333e
00000350: af60 5c3e 9751 8ebc 8a1c d0bd 1924 bfbe
00000360: 8f96 57be 8f2b 71bc e11b 9e3e df8f 183d
00000370: 6cf2 0fbe 21c1 c0be efa5 463c e019 1ebe
00000380: 6f96 9fbe 8c2a 02be f656 91be dfe7 dbbd
00000390: 348a 853c dd1c 00be 0565 a23c 1854 38be
000003a0: bf5f 393d 8360 99bd 1e65 abbd e3b4 62be
000003b0: 5b96 53bd 89c3 433c 8113 4c3d fb14 e2bd
000003c0: 7506 86bc a800 84bd e5ad a0bd 7e0e 5c3d
000003d0: 1751 1bbe 97d5 c4bd 6fa5 fcbc 54de 123d
000003e0: 04df d03d 47e4 18bd ffd4 fc3d 769a 34be
000003f0: f875 4fbe c3e4 f9bd 15f2 4cbe da44 123e

fc2.weight f4 [128, 256]
0.003093647 -0.124598384 -0.042216647 0.017664297 0.053721823 0.11077066 -0.22646284 0.1174017
-0.18926731 -0.026834017 0.066415235 0.057939656 -0.20105016 0.030253237 -0.0508451 0.17139791
-0.04543196 -0.02500787 -0.08704857 -0.029488586 0.011779555 -0.06831983 -0.11612901 -0.0042169658
-0.05841845 -0.11409188 -0.123243526 -0.16694221 0.034124516 0.22779548 0.112870544 -0.32238278
-0.17723805 -0.016025363 -0.04723413 0.09310447 -4.6746576e-05 0.08845734 -0.13571393 0.050814506
0.08146424 0.081316784 0.025383784 0.11027107 0.022526365 0.09211936 -0.026221488 -0.073256634
-0.023794286 0.010066628 0.06557471 0.05434813 0.16355145 -0.0146437995 0.15366283 -0.16683652
-0.019076657 -0.1521734 -0.041702088 -0.029338645 -0.08344356 -0.09372088 0.074856475 -0.09659513
-0.026674444 -0.033325013 0.114673436 0.106042236 0.03454544 -0.03267154 0.05571803 0.15626001
0.033763066 0.13063104 -0.06103131 0.05337068 0.011822247 0.09760695 -0.026607081 0.065726966
0.05090896 0.09143738 -0.024634393 -0.1054309 -0.077818856 -0.019086495 -0.13225019 -0.24403511
0.14098763 -0.122888915 -0.22417577 -0.12222069 -0.13013348 0.17459342 0.2715284 0.031943377
-0.13172479 -0.102353804 0.05387368 0.054952327 0.16747169 -0.04350029 -0.31010324 0.07887697
-0.0039746067 0.124772646 -0.15017867 -0.14663292 -0.115595296 0.20635036 0.01782461 -0.13922158
0.06991633 0.051221684 -0.16015944 0.015061628 -0.016161017 -0.0759486 -0.068644665 -0.06862771
-0.05952618 0.007994359 0.17467457 0.045922443 -0.14323516 0.023782521 0.09374083 -0.33455423
0.045486085 -0.030362383 -0.07315739 -0.15904784 -0.30486587 0.045074664 -0.038443934 0.0640459
-0.020920638 -0.12823431 0.06661856 0.08194868 -0.27615577 0.05440383 0.08398904 0.07085418
0.110941805 -0.018243287 -0.1766681 0.0021890074 -0.015038548 0.058588818 0.06337741 -0.11411973
0.13887696 0.070498504 -0.101384796 -0.0322874 -0.05656756 -0.027871046 -0.013409127 -0.22880888
-0.10481482 -0.2850308 0.052227687 -0.018746369 0.13561015 -0.14009863 -0.04492911 0.120958894
0.17669567 0.040436145 0.016493144 -0.0033042878 -0.04605275 0.09383086 -0.007544506 -0.11896965
-0.2525242 -0.08381985 0.15758148 0.10052507 0.1824426 -0.10572127 -0.03427841 -0.24606504
0.06347259 0.14451288 -0.094002515 -0.052211363 -0.07169658 0.1530986 0.15510102 0.026389085
-0.13677765 -0.14003824 -0.22901034 0.10494542 0.23530231 0.0020424782 -0.017874897 0.1403225
-0.039922494 0.06758818 -0.039167397 -0.120198 -0.016584747 0.10326101 0.03572236 -0.062341087
-0.063840024 0.061640646 0.12095295 0.055296008 -0.062064786 -0.22893097 0.030348837 -0.06544672
-0.09499062 0.07639739 -0.15726961 0.08632801 -0.122605845 0.036084224 0.10418563 0.02027632
-0.14130495 -0.028311772 -0.23363215 -0.20726158 0.058651596 0.0018941691 -0.15660179 0.026159309
-0.10925391 0.009693487 0.023722142 0.15381958 0.05435088 0.02201895 -0.22948554 0.024201078
-0.06285971 0.05769293 0.10731233 -0.011266192 0.0713239 0.015781526 0.12262451 -0.057940997
-0.07219248 -0.057747044 -0.37502778 0.037434023 0.07219662 -0.027133727 -0.16475941 -0.13938428
00000000: c9be 4a3b 702d ffbd 5deb 2cbd b7b4 903c
00000010: 6a0b 5c3d badb e23d e0e5 67be 4d70 f03d
00000020: 4acf 41be 03d3 dbbc b604 883d 2252 6d3d
00000030: 18e0 4dbe a3d5 f73c f442 50bd ef82 2f3e
00000040: dd16 3abd 4edd ccbc 8546 b2bd 0c92 f1bc
00000050: 09ff 403c 44eb 8bbd 0cd5 edbd 792e 8abb
00000060: 2f48 6fbd 01a9 e9bd 1a67 fcbd e6f2 2abe
00000070: 26c6 0b3d 3843 693e ac28 e73d 5b0f a5be
00000080: e47d 35be 9f47 83bc 9378 41bd 8ead be3d
00000090: c111 44b8 1f29 b53d 98f8 0abe df22 503d
000000a0: b9d6 a63d 6a89 a63d a7f1 cf3c ccd5 e13d
000000b0: 3689 b83c 13a9 bc3d 72ce d6bc 9307 96bd
000000c0: 3cec c2bc 80ee 243c 094c 863d 259c 5e3d
000000d0: 087a 273e 8cec 6fbc ca59 1d3e 31d7 2abe
000000e0: a646 9cbc 58d3 1bbe cfcf 2abd 9957 f0bc
000000f0: 75e4 aabd bcf0 bfbd 5a4e 993d abd3 c5bd
00000100: 5d84 dabc cf7f 08bd e8d9 ea3d ac2c d93d
00000110: 857f 0d3d 98d2 05bd 9738 643d a002 203e
00000120: 244b 0a3d 25c4 053e f8fb 79bd 379b 5a3d
00000130: 19b2 413c 27e6 c73d 18f7 d9bc dc9b 863d
00000140: ea85 503d 8543 bb3d 11ce c9bc 28ec d7bd
00000150: 7e5f 9fbd 485b 9cbc 986c 07be 57e4 79be
00000160: 105f 103e 2fad fbbd 558e 65be d74e fabd
00000170: b641 05be 9ec8 323e c505 8b3e 0fd7 023d
00000180: dde2 06be df9e d1bd a6aa 5c3d b115 613d
00000190: b37d 2b3e 5c2d 32bd dac5 9ebe 408a a13d
000001a0: 6b3d 82bb cd88 ff3d 70c8 19be f126 16be
000001b0: 3abd ecbd 824d 533e eb04 923c 1a90 0ebe
000001c0: 4b30 8f3d d4cd 513d d600 24be 0cc5 763c
000001d0: 1c64 84bc f18a 9bbd 9395 8cbd af8c 8cbd
000001e0: b9d1 73bd c6fa 023c e4dd 323e 2c19 3c3d
000001f0: 3dac 12be 90d3 c23c 31fb bf3d b14a abbe
00000200: 9e4f 3a3d 88ba f8bc 8bd3 95bd 70dd 22be
00000210: 6117 9cbe 36a0 383d 6377 1dbd 7f2a 833d
00000220: c261 abbc db4f 03be 506f 883d b6d4 a73d
00000230: 4a64 8dbe 8dd6 5e3d 7202 ac3d ff1b 913d
00000240: 7535 e33d f272 95bc 7be8 34be 7375 0f3b
00000250: 3e64 76bc d4fa 6f3d 04cc 813d 9bb7 e9bd
00000260: c335 0e3e 8561 903d d5a2 cfbd cb3f 04bd
00000270: 63b3 67bd d251 e4bc f4b1 5bbc e04c 6abe
00000280: 27a9 d6bd 8fef 91be b3ec 553d fc91 99bc
00000290: 63dd 0a3e 0476 0fbe 9607 38bd 4cb9 f73d
000002a0: b6ef 343e 5fa0 253d a11c 873c c08c 58bb
000002b0: cfa1 3cbd 652a c03d e737 f7bb 5ca6 f3bd
000002c0: da4a 81be bea9 abbd 0a5d 213e 17e0 cd3d
000002d0: 3cd2 3a3e 6584 d8bd 8567 0cbd 79f8 7bbe
000002e0: ebfd 813d 2ffb 133e 6484 c0bd 95db 55bd
000002f0: a8d5 92bd e1c5 1c3e cdd2 1e3e ec2d d83c
00000300: 710f 0cbe 2f66 0fbe b081 6abe a0ed d63d
00000310: 17f3 703e 19db 053b 606e 92bc b4b0 0f3e
00000320: c585 23bd ac6b 8a3d fe6d 20bd 5e2a f6bd
00000330: bcdc 87bc 827a d33d 9c51 123d 5e59 7fbd
00000340: 8fbe 82bd e77a 7c3d 2eb6 f73d 117e 623d
00000350: a537 7ebd e16c 6abe 209e f83c ee08 86bd
00000360: 718a c2bd 3c76 9c3d 490b 21be bdcc b03d
00000370: c618 fbbd 0dcd 133d 475f d53d 861a a63c
00000380: 3fb2 10be 17ee e7bc 443d 6fbe 613c 54be
00000390: a83c 703d c545 f83a 385c 20be 0c4c d63c
000003a0: 84c0 dfbd 6ed1 1e3c f054 c23c e182 1d3e
000003b0: 079f 5e3d 1661 b43c 42fe 6abe 5741 c63c
000003c0: 97bc 80bd 6c4f 6c3d 91c6 db3d d695 38bc
000003d0: 4412 923d 4248 813c 8f22 fb3d 8a53 6dbd
000003e0: a7d9 93bd 2a88 6cbd a403 c0be 6b54 193d
000003f0: d2db 933d 8d47 debc b1b6 28be c1ba 0ebe

fc2.bias f4 [128]
-0.026702294 0.03884563 0.07070076 0.007646354 0.08660854 0.10862839 -0.04647927 -0.15348284
-0.11006603 -0.04946818 0.10965862 0.055547014 0.009298774 -0.012200393 0.08742239 0.024132136
0.022809254 0.10614455 -0.0016680041 0.037707306 0.08234757 -0.016758414 0.019299759 -0.01154548
0.13539301 -0.0034726062 -0.060724504 0.0031758598 -0.012253382 0.07257088 -0.044742238 0.07451498
0.009335234 0.05753698 0.09833245 0.05781584 0.07255443 -0.016057132 -0.08688525 -0.008563221
0.054034516 0.058953095 -0.089436136 0.095966026 -0.0054081646 0.015756022 0.01886256 0.10282285
0.02316763 -0.027332323 0.03403435 -0.0073714745 -0.108774506 0.041272037 0.09832263 0.080148466
-0.06802115 0.021450842 -0.042865716 0.038134877 -0.0015854274 0.05680104 0.08828985 -0.0623296
0.1104084 -0.08428716 -0.0071466356 -0.04058681 0.03868656 0.029885866 -0.07805596 0.14680457
0.10684011 -0.14973082 0.052721072 -0.065211624 -0.06264594 0.0044982973 0.05128811 0.033426132
-0.033111002 0.06210003 -0.038628798 -0.0015109413 0.05519085 0.03879493 0.0103333285 0.0017809554
0.08594456 -0.057566475 -0.02352124 0.040808074 0.058235273 -0.068354316 0.22284003 0.0243475
-0.06981935 0.020260721 0.028254515 -0.02237794 0.104280844 0.113253765 0.06391105 0.13932003
-0.0013581173 -0.0766677 0.03935322 0.05877955 -0.0094024 0.0077448576 -0.03048542 -0.07691199
-0.057735644 0.063311 0.026489165 -0.00495581 -0.026846966 -0.022695823 0.10723248 0.012539227
-0.16834573 0.07270461 0.042099155 0.030288411 0.08368832 0.015046249 -0.0023145194 -0.2220253
00000000: c5be dabc 981c 1f3d 8fcb 903d 448e fa3b
00000010: d15f b13d 9078 de3d 0c61 3ebd 9b2a 1dbe
00000020: 4c6a e1bd 259f 4abd b394 e03d 4485 633d
00000030: e359 183c 28e4 47bc 830a b33d c2b0 c53c
00000040: 79da ba3c 5062 d93d eea0 daba fa72 1a3d
00000050: d8a5 a83d f148 89bc 871a 9e3c 4129 3dbc
00000060: 77a4 0a3e aa94 63bb 42ba 78bd 1622 503b
00000070: 69c2 48bc 0ba0 943d a343 37bd 4f9b 983d
00000080: cff2 183c e5ab 6b3d 8662 c93d 4dd0 6c3d
00000090: 6b97 943d 3f8a 83bc e5f0 b1bd c14c 0cbc
000000a0: 4c53 5d3d cd78 713d 4b2a b7bd d689 c43d
000000b0: f936 b1bb c612 813c a885 9a3c c994 d23d
000000c0: 0bca bd3c 09e8 dfbc 9a67 0b3d 698c f1bb
000000d0: 2bc5 debd de0c 293d 605d c93d e124 a43d
000000e0: ac4e 8bbd adb9 af3c f693 2fbd 5133 1c3d
000000f0: 1ece cfba 35a8 683d 4fd1 b43d 534d 7fbd
00000100: cd1d e23d bf9e acbd 532e eabb 5b3e 26bd
00000110: cc75 1e3d 34d3 f43c cedb 9fbd f053 163e
00000120: fdce da3d 0953 19be 0df2 573d ac8d 85bd
00000130: 844c 80bd 7466 933b 7b13 523d d7e9 083d
00000140: 679f 07bd 9a5c 7e3d 3b39 1ebd c70a c6ba
00000150: cd0f 623d 6fe7 1e3d 1f4d 293c f26e e93a
00000160: b403 b03d d3ca 6bbd 9eaf c0bc 5e26 273d
00000170: 1c88 6e3d 59fd 8bbd 2d30 643e 6974 c73c
00000180: 73fd 8ebd d0f9 a53c 0376 e73c f151 b7bc
00000190: 3291 d53d 97f1 e73d cce3 823d e9a9 0e3e
000001a0: db02 b2ba f503 9dbd d830 213d d3c2 703d
000001b0: 860c 1abc 93c8 fd3b 8fbc f9bc 0984 9dbd
000001c0: 367c 6cbd 33a9 813d ceff d83c 5964 a2bb
000001d0: 2bee dbbc 97ec b9bc b49c db3d 5471 4d3c
000001e0: d362 2cbe 28e6 943d 2a70 2c3d 671f f83c
000001f0: c864 ab3d 8b84 763c 31af 17bb 9a5a 63be

fc3.weight f4 [2, 128]
-0.38622266 0.122971125 -0.21452981 0.09747298 -0.41553032 -0.23170398 -0.16153398 0.12084913
-0.5269876 -0.21824768 0.21570362 -0.18196565 -0.061116166 -0.21901213 -0.12977912 -0.10693243
-0.4520994 0.20589079 -0.16519873 0.16923308 -0.23605703 0.11654627 -0.18327272 0.076033555
0.14999449 0.18691392 -0.13800052 -0.37570593 0.18853867 -0.027409345 -0.28701964 0.1648086
-0.10048941 -0.23537104 0.16426685 0.1592495 0.19827287 -0.32405618 -0.10638137 -0.4765102
-0.089543164 -0.2253143 -0.30650625 0.075165026 -0.13455278 0.048835244 0.30104673 -0.21650694
0.11015647 -0.41904068 -0.07785021 -0.21418919 -0.23785555 0.121362515 0.15098065 0.19724576
-0.333347 0.1471054 -0.29127517 0.029662555 -0.31567314 -0.39807412 0.07804261 0.20970604
0.17909902 -0.051540684 0.10579851 0.03644404 -0.2298317 0.03213827 -0.42783654 0.07383849
0.2108917 0.041940525 0.21791895 -0.25959703 -0.0257294 0.0956238 0.07191286 0.02843333
0.111927904 0.105011426 0.14899556 -0.08532275 -0.112518184 0.20031857 0.23172249 -0.2882351
0.3066798 0.09010929 -0.5330827 -0.14865465 -0.044739828 -0.045225028 -0.18756263 0.17898181
0.19671942 -0.31672916 -0.20017515 0.15239841 0.14447714 -0.12639114 -0.035288356 0.19128731
-0.06869003 -0.05899197 0.14645174 0.118873544 -0.28831455 0.1947331 -0.47846982 0.02731789
-0.13282862 0.115121014 0.06924979 0.13765293 0.031837173 -0.1918561 -0.23719443 -0.16594456
-0.030140128 -0.25081003 -0.21873595 0.14022216 0.06603999 -0.20064537 0.16360225 -0.6291246
-0.37237582 0.22967845 -0.20450018 0.1567462 -0.04466343 0.036031958 -0.23677146 0.5378142
0.022454834 -0.41945794 -0.017467562 0.19309017 0.3365011 -0.29182577 0.074158184 -0.3164664
0.023921406 -0.24099371 0.24580172 -0.18435113 -0.059821624 -0.3246778 0.34926108 -0.38811448
-0.15771107 -0.24260513 0.1560585 -0.046549436 0.12307592 0.23248522 -0.06955443 0.19707012
-0.5647541 0.07053274 -0.12660497 -0.13463716 0.08615677 -0.027732901 0.45075348 -0.06649975
-0.35179847 -0.20122363 0.18034779 0.24640428 0.37471426 0.4782751 -0.09566279 -0.027655344
0.32273075 -0.23387012 0.2477532 -0.010585937 -0.02460148 0.3329476 0.16449884 0.16242011
-0.008868282 -0.17147116 0.0400076 0.23037657 -0.31454042 -0.054536507 -0.22598737 -0.041236263
-0.12576088 -0.6832404 0.20793413 0.2687733 -0.1398514 0.45482743 -0.07769331 0.29185352
-0.37944707 -0.4309425 -0.19988531 -0.033137705 -0.276007 -0.18265669 0.27068743 -0.23720069
-0.17378633 0.30705282 0.25786716 0.4037547 0.15389529 -0.020316008 0.12367988 0.09141777
-0.11633876 0.28257692 -0.021787623 -0.35865334 0.3784187 -0.33972234 -0.019479036 -0.2715243
-0.17150429 -0.012193548 -0.11514608 0.5043486 -0.34992644 0.25690827 0.30057198 0.019343425
-0.5358212 -0.5838656 -0.12720516 -0.14633802 0.12514162 -0.1663068 -0.06844782 -0.53869134
-0.27160466 0.2520279 -0.1682474 -0.11823318 -0.44880372 0.11390212 -0.12620746 -0.27106804
-0.6610062 0.062152263 -0.21202947 0.22003148 0.21079925 -0.033131074 -0.096511215 -0.01454167
00000000: fabe c5be 49d8 fb3d b4ad 5bbe ea9f c73d
00000010: 64c0 d4be cf43 6dbe 2a69 25be c07f f73d
00000020: a9e8 06bf 527c 5fbe 69e1 5c3e 3455 3abe
00000030: f254 7abd b744 60be d1e4 04be 64ff dabd
00000040: 9379 e7be 09d5 523e db29 29be 704b 2d3e
00000050: efb8 71be d0af ee3d d8ab 3bbe 7bb7 9b3d
00000060: 2898 193e 5d66 3f3e 0250 0dbe 875c c0be
00000070: 4810 413e 9089 e0bc 3df4 92be 96c3 283e
00000080: 64cd cdbd 1b05 71be 9235 283e 4d12 233e
00000090: 0b08 4b3e b1ea a5be 7ade d9bd 25f9 f3be
000000a0: 6862 b7bd cbb8 66be 63ee 9cbe 1ff0 993d
000000b0: 34c8 09be 7707 483d cc22 9a3e ffb3 5dbe
000000c0: b799 e13d 808c d6be ee6f 9fbd 6954 5bbe
000000d0: 6890 73be e98c f83d ac9a 1a3e cbfa 493e
000000e0: 75ac aabe cca2 163e 0522 95be e3fe f23c
000000f0: e99f a1be 5fd0 cbbe ced4 9f3d 2ebd 563e
00000100: bc65 373e 531c 53bd e4ac d83d 5846 153d
00000110: 0059 6bbe 6ba3 033d 640d dbbe a238 973d
00000120: fef3 573e d4c9 2b3d 2526 5f3e e7e9 84be
00000130: 76c6 d2bc 69d6 c33d 0d47 933d 04ed e83c
00000140: 753a e53d 3b10 d73d 4b92 183e b2bd aebd
00000150: ef6f e6bd 5020 4d3e a948 6d3e 8d93 93be
00000160: 2205 9d3e 388b b83d 1c78 08bf ed38 18be
00000170: 1c41 37bd e13d 39bd 6b10 40be 0247 373e
00000180: d170 493e 532a a2be b7fa 4cbe 540e 1c3e
00000190: d1f1 133e ae6c 01be 868a 10bd d2e0 433e
000001a0: 5cad 8cbd 90a1 71bd 72f7 153e f973 f33d
000001b0: f79d 93be 1d68 473e fff9 f4be c5c9 df3c
000001c0: 3a04 08be 91c4 eb3d d5d2 8d3d e4f4 0c3e
000001d0: b267 023d ed75 44be 19e3 72be 5fed 29be
000001e0: 6ee8 f6bc 2c6a 80be 51fc 5fbe 6696 0f3e
000001f0: f93f 873d fb75 4dbe 5987 273e 4f0e 21bf
00000200: 0ba8 bebe d430 6b3e 7f68 51be 1382 203e
00000210: 00f1 36bd 3f96 133d 3874 72be 31ae 093f
00000220: 33f3 b73c 31c3 d6be 2218 8fbc 6eb9 453e
00000230: df49 ac3e 306a 95be 3fe0 973d e207 a2be
00000240: d3f6 c33c 0ec7 76be 72b3 7b3e 8bc6 3cbe
00000250: 8507 75bd 2b3c a6be 59d2 b23e f1b6 c6be
00000260: 037f 21be 7b6d 78be cdcd 1f3e 9faa 3ebd
00000270: 3a0f fc3d 9b10 6e3e 8e72 8ebd c0cc 493e
00000280: ba93 10bf 7873 903d bca4 01be 53de 09be
00000290: f672 b03d 1c30 e3bc 29c9 e63e 0531 88bd
000002a0: ee1e b4be 910d 4ebe 17ad 383e 6751 7c3e
000002b0: 8cda bf3e 79e0 f43e daea c3bd 768d e2bc
000002c0: f73c a53e a67b 6fbe 04b3 7d3e a370 2dbc
000002d0: 0b89 c9bc 1c78 aa3e 6272 283e 7551 263e
000002e0: 454c 11bc 2396 2fbe 02df 233d d6e7 6b3e
000002f0: 710b a1be ac61 5fbd 3c69 67be 5be7 28bd
00000300: 76c7 00be d8e8 2ebf afec 543e a79c 893e
00000310: 3535 0fbe 24df e83e ac1d 9fbd d36d 953e
00000320: e346 c2be 7fa4 dcbe bcae 4cbe 67bb 07bd
00000330: ca50 8dbe 5b0a 3bbe 8b97 8a3e bde4 72be
00000340: 0bf5 31be 0736 9d3e 2a07 843e f0b8 ce3e
00000350: ba96 1d3e c26d a6bc e04b fd3d 3d39 bb3d
00000360: 0443 eebd ecad 903e f57b b2bc 69a1 b7be
00000370: 19c0 c13e 16f0 adbe 8092 9fbc 3c05 8bbe
00000380: d29e 2fbe 72c7 47bc b5d1 ebbd fd1c 013f
00000390: 8f29 b3be 7b89 833e 92e4 993e 1a76 9e3c
000003a0: 942b 09bf 3778 15bf 1242 02be a2d9 15be
000003b0: 2025 003e 544c 2abe 5f2e 8cbd ade7 09bf
000003c0: c40f 8bbe cd09 813e 0c49 2cbe 3d24 f2bd
000003d0: 9ac9 e5be 8445 e93d 873c 01be 6ec9 8abe
000003e0: b437 29bf 5f93 7e3d 411e 59be ef4f 613e
000003f0: c2db 573e 73b4 07bd aca7 c5bd 2f40 6ebc

fc3.bias f4 [2]
-0.0229484 -0.022616763
00000000: 48fe bbbc ca46 b9bc

bn1.weight f4 [256]
0.4510156 0.6326535 1.0987546 0.40523642 0.55379957 0.4739814 0.3149786 1.016743
0.937593 0.883986 1.0866303 0.84074837 0.8635603 1.0765761 1.013929 0.9971685
0.69233805 1.0888458 0.54096574 0.51517534 0.97483534 0.7565684 1.0119436 0.8587782
1.0589892 0.9853904 0.92670697 1.1248813 0.3941819 0.6488323 0.78256255 0.32037407
0.6380142 0.5309318 0.98531705 0.66291165 0.16048302 0.8468349 0.46460718 1.0715631
0.7665669 0.4697107 0.8318519 0.37092772 1.0126747 0.72678125 0.39390185 1.0274901
0.719214 0.4897304 0.65148574 0.93665147 0.24640307 0.8101245 0.4731344 1.2429129
0.66434896 1.0581076 0.5147847 0.37612775 0.4120532 1.3876233 0.749497 0.54343754
0.3832398 0.82179755 0.5547283 0.4934309 0.8288393 0.5999514 1.1567073 0.48495004
0.66847587 0.40926248 0.5688936 0.37777415 0.30231416 1.0057057 0.79269755 0.69689554
0.6870449 0.34577444 1.1454777 0.3643677 0.68497306 0.96615446 1.0387452 0.9273314
0.7353114 1.0904075 0.51680034 0.88828945 1.0547253 0.28017402 1.0122077 1.0267533
0.5693131 0.5539648 0.35815334 0.89064777 0.55309194 0.9683061 0.44177595 0.59527355
0.32783526 0.34839484 1.0422012 0.47983274 0.8359513 0.81405306 0.323864 0.33564213
1.0544533 0.79972434 0.3854518 0.8175375 0.666115 0.6015142 0.9254682 1.1712896
0.89206046 0.44364232 0.3547213 0.77422965 0.53628844 1.0994279 0.553229 0.5692184
0.4167568 1.1033404 0.7992903 0.54666394 0.40999144 0.8078412 0.40662366 0.3953439
0.48836982 0.35122222 0.5800084 0.48253542 0.75383687 0.90646374 0.42814818 0.43297917
1.0086887 0.46909273 1.2688468 0.7733372 1.106477 0.71733296 0.68703294 1.0210979
0.43873915 0.81998473 0.36992216 0.50548625 0.4878475 0.640783 0.44167027 0.8338033
0.76742303 0.9937125 0.38660398 0.6739915 1.1595535 0.59941727 0.2224592 1.0263988
0.921378 0.41759187 0.6785507 1.2202824 1.0418209 0.51664174 0.7357679 0.42177686
0.68186355 0.67809457 0.79082507 0.44816744 0.6887563 0.69136685 1.0534555 0.72205734
1.276652 0.32998538 0.49067408 0.36940637 0.7950536 0.6422235 0.45046905 0.48311988
0.6378863 -0.46913755 0.86589503 0.4116652 0.69721544 0.26699558 1.0147225 0.80310935
0.6599687 0.49032843 0.90784234 0.37188783 0.90668565 0.50940084 1.2750707 0.7629735
1.0933042 1.102681 0.25975266 0.9413059 0.90314263 1.2962795 0.7989858 0.86189467
1.0991255 0.92981315 0.9787277 0.4016328 0.53903854 0.42691192 0.8947832 0.7563179
0.9137092 0.5044054 0.8070965 0.63000804 0.6957124 0.8413574 1.1217985 0.91791373
0.5149715 0.9349664 1.0348922 0.47446126 0.5887225 0.83595735 0.599151 0.28328693
0.61256427 0.86397445 0.5458738 1.1888449 0.6791135 0.37799627 0.30944464 0.3701015
0.49857584 1.0081991 0.51296884 1.1195633 1.1937951 0.34021327 0.5948227 0.3994258
00000000: 84eb e63e 94f5 213f fea3 8c3f 267b cf3e
00000010: cfc5 0d3f b1ad f23e e044 a13e a224 823f
00000020: 1806 703f e84c 623f b416 8b3f 493b 573f
00000030: 4a12 5d3f 3fcd 893f 6dc8 813f 6f46 7f3f
00000040: 113d 313f 4d5f 8b3f bb7c 0a3f 88e2 033f
00000050: cf8e 793f 77ae 413f 5e87 813f e3d8 5b3f
00000060: f58c 873f 8c42 7c3f ab3c 6d3f 1cfc 8f3f
00000070: 36d2 c93e e019 263f 0556 483f 1208 a43e
00000080: e654 233f 25eb 073f bd3d 7c3f 94b4 293f
00000090: a955 243e 2cca 583f fee0 ed3e fb28 893f
000000a0: ba3d 443f ec7d f03e 3ff4 543f 3dea bd3e
000000b0: 539f 813f 560e 3a3f 81ad c93e cc84 833f
000000c0: 691e 383f f1bd fa3e c5c7 263f 64c8 6f3f
000000d0: 1651 7c3e 5264 4f3f ac3e f23e c517 9f3f
000000e0: c612 2a3f 1270 873f eec8 033f d193 c03e
000000f0: a3f8 d23e a49d b13f 09df 3f3f b91e 0b3f
00000100: 0238 c43e 5361 523f ad02 0e3f faa2 fc3e
00000110: d02e 543f 6a96 193f fc0e 943f 5f4b f83e
00000120: 3c21 2b3f da8a d13e 03a3 113f 9d6b c13e
00000130: ecc8 9a3e f7ba 803f 3aee 4a3f bf67 323f
00000140: 2de2 2f3f 5909 b13e 039f 923f 678e ba3e
00000150: 655a 2f3f e655 773f 9af5 843f 9765 6d3f
00000160: 5e3d 3c3f 7992 8b3f 074d 043f f066 633f
00000170: 3d01 873f f872 8f3e 0690 813f a76c 833f
00000180: 81be 113f a3d0 0d3f e05f b73e 7e01 643f
00000190: 6f97 0d3f e9e2 773f 7530 e23e d963 183f
000001a0: 06da a73e cf60 b23e d966 853f a3ac f53e
000001b0: e800 563f c865 503f 81d1 a53e 49d9 ab3e
000001c0: 53f8 863f bcba 4c3f f059 c53e 234a 513f
000001d0: 8386 2a3f d6fc 193f 7ceb 6c3f d1ec 953f
000001e0: 135e 643f 1625 e33e 089e b53e ea33 463f
000001f0: 334a 093f 0eba 8c3f 6aa0 0d3f 4cb8 113f
00000200: 2661 d53e 423a 8d3f 4a9e 4c3f 2bf2 0b3f
00000210: 66ea d13e aece 4e3f fa30 d03e 846a ca3e
00000220: 9c0b fa3e 66d3 b33e 6e7b 143f e20e f73e
00000230: 74fb 403f 020e 683f 3d36 db3e 72af dd3e
00000240: b61c 813f ec2c f03e 9269 a23f 6df9 453f
00000250: 0aa1 8d3f 22a3 373f 64e1 2f3f 56b3 823f
00000260: 6ba2 e03e 85ea 513f 7066 bd3e 8c67 013f
00000270: 26c7 f93e 5b0a 243f 9b22 e23e 2274 553f
00000280: d675 443f f163 7e3f f5f0 c53e b58a 2c3f
00000290: 406c 943f 6973 193f 58cc 633e 0961 833f
000002a0: 6edf 6b3f 9ace d53e 80b5 2d3f 3732 9c3f
000002b0: 635a 853f a242 043f 495b 3c3f 23f3 d73e
000002c0: 9c8e 2e3f 9b97 2d3f 8373 4a3f 3476 e53e
000002d0: 5552 303f 6bfd 303f a1d7 863f c0d8 383f
000002e0: 5569 a33f d8f3 a83e a239 fb3e d522 bd3e
000002f0: a288 4b3f c268 243f e1a3 e63e 7d5b f73e
00000300: 844c 233f cc32 f0be 4cab 5d3f c8c5 d23e
00000310: b67c 323f a5b3 883e 6de2 813f 9398 4d3f
00000320: b5f3 283f 540c fb3e 5b68 683f 1568 be3e
00000330: 8d1c 683f 1868 023f 8435 a33f 3b52 433f
00000340: 64f1 8b3f a724 8d3f 4dfe 843e 6cf9 703f
00000350: 5b34 673f 7dec a53f 558a 4c3f 21a5 5c3f
00000360: 25b0 8c3f 3c08 6e3f e68d 7a3f d0a2 cd3e
00000370: 6efe 093f 3394 da3e 8310 653f 0d9e 413f
00000380: d9e8 693f b620 013f e09d 4e3f 3548 213f
00000390: 351a 323f 3363 573f 1897 8f3f 65fc 6a3f
000003a0: 2cd5 033f f559 6f3f 5977 843f 96ec f23e
000003b0: 85b6 163f 4d01 563f f661 193f fc0a 913e
000003c0: 03d1 1c3f 6e2d 5d3f 63be 0b3f 122c 983f
000003d0: 62da 2d3f ba88 c13e 876f 9e3e f27d bd3e
000003e0: 5545 ff3e ab0c 813f ed51 033f da4d 8f3f
000003f0: 47ce 983f 6f30 ae3e 4d46 183f 8a81 cc3e

bn1.bias f4 [256]
0.012561042 0.027572118 -0.018981006 0.02508216 0.083349735 0.025156843 0.010458668 0.043360848
-0.025579788 0.008505095 0.020148559 -0.074225776 -0.043497726 -0.0008337649 0.061851993 -0.024963412
0.040694006 -0.012140307 0.01257713 0.04900042 -0.09116749 0.020314274 -0.03776658 -0.00392915
0.12651598 0.087938614 0.03692582 0.029274177 -0.07617211 -0.029968005 -0.012125716 0.0049194056
0.07745324 0.11339082 -0.032535728 0.008544695 0.036356498 -0.041421335 0.07514521 0.026083913
-0.054816205 -0.008804069 0.08098792 0.07315582 -0.0013537373 -0.13142966 -0.0071745925 0.0453345
0.09024792 -0.022607613 -0.016604079 -0.070053175 -0.046893783 0.055026665 -0.0072539723 0.028403621
0.041128572 0.010744072 0.010829056 0.04733533 -0.03302245 -0.042083044 -0.05556436 -0.019245349
-0.020329086 -0.02826368 0.032983925 -0.021924859 0.0877611 0.030547218 0.010105003 -0.07478047
-0.058293927 -0.044799436 -0.07992566 -0.072251186 -0.0049283244 0.037177697 0.013431982 -0.023826605
0.023693116 -0.025590248 -0.04047058 -0.006165041 0.041835953 0.02837974 0.06357181 0.024524119
-0.014374026 0.11977417 0.16059026 0.034253318 -0.08547063 -0.024172526 0.0010616829 -0.06865535
0.053192765 -0.016965287 -0.0031934704 0.008571798 -0.13968153 0.03216084 0.0059593366 -0.0070805973
0.009382409 -0.23424134 0.09070489 -0.09507532 0.06650988 0.08465392 0.05626827 0.05933192
-0.00091152644 -0.061930314 -0.011740681 -0.04138122 0.031002851 0.017011391 0.074117996 0.03169548
0.046080153 -0.015954608 -0.0023923009 0.039562494 -0.09076842 0.016520215 -0.078625135 0.055357683
-0.024506701 0.13176247 -0.05216452 0.07725951 0.08721103 0.0065629478 0.0043699103 -0.0028590437
-0.13691555 0.04054975 -0.04668407 0.027925158 0.102013536 -0.010463868 -0.02039742 0.09827104
0.006889736 0.019292956 0.08735103 0.08292867 0.038829647 0.07141355 0.08263028 -0.058750156
-0.06378637 -0.02181832 0.0014532382 -0.13840832 0.050569657 0.0513534 -0.031764306 0.06917231
0.04122929 0.076837905 -0.018229308 0.07243646 0.1248613 0.017056674 -0.042012095 0.10957631
0.08922442 0.013653949 -0.067483 0.07843801 -0.036916725 0.0056754034 0.052962206 0.06684147
0.06742531 0.030365145 0.05328564 -0.065333515 -0.021287907 0.05800852 0.03974642 0.0700208
0.05604201 0.0047937287 -0.0028273088 0.03453312 0.06324973 0.00023307471 0.0717942 -0.039449736
0.033028044 0.13032642 0.07338391 -0.09031223 -0.02420735 -0.10273145 0.0270153 -0.031397622
0.01982567 -0.12848325 -0.007295854 0.21310906 0.21778597 -0.05835976 0.021675503 -0.027457718
-0.025357472 0.02511215 -0.011060908 0.03384975 0.039322708 -0.013493817 -0.042167705 -0.016730277
0.03363399 0.021927884 -0.020802733 -0.008417575 0.039015956 -0.035762627 0.059318136 -0.02542596
0.08324483 0.052892607 0.06744943 -0.012160981 0.057775036 -0.02478074 0.07559896 0.05848801
0.0407809 -0.008451019 0.020863142 0.069729224 0.05558935 -0.028341664 0.0026359716 -0.08707698
-0.022536207 0.06506142 0.04354063 -0.015377778 -0.028575916 -0.10495078 -0.022295713 -0.026158005
0.17120777 -0.051235516 0.01261422 -0.09047621 -0.113355614 0.059828497 0.035170104 -0.008456698
00000000: d4cc 4d3c ecde e13c 0e7e 9bbc 1a79 cd3c
00000010: 44b3 aa3d b915 ce3c d55a 2b3c 259b 313d
00000020: b48c d1bc f458 0b3c 970e a53c af03 98bd
00000030: ac2a 32bd 0491 5aba 8458 7d3d 1280 ccbc
00000040: c2ae 263d 23e8 46bc 4f10 4e3c aab4 483d
00000050: 05b6 babd 1f6a a63c 21b1 1abd 19c0 80bb
00000060: 688d 013e 2919 b43d 873f 173d 66d0 ef3c
00000070: 2000 9cbd 767f f5bc f0aa 46bc f732 a13b
00000080: ce9f 9e3d 7239 e83d 2f44 05bd 0cff 0b3c
00000090: 8dea 143d 6ba9 29bd bbe5 993d eead d53c
000000a0: f586 60bd f13e 10bc ffdc a53d b8d2 953d
000000b0: e36f b1ba 7f95 06be d818 ebbb abb0 393d
000000c0: e7d3 b83d 9a33 b9bc 4705 88bc 0a78 8fbd
000000d0: b213 40bd a463 613d bbb2 edbb b6ae e83c
000000e0: 6f76 283d e707 303c 5a6c 313c b1e2 413d
000000f0: 8c42 07bd 455f 2cbd 7497 63bd 6ca8 9dbc
00000100: 2f89 a6bc 3c89 e7bc 271a 073d c39b b3bc
00000110: 17bc b33d 293e fa3c 748f 253c 8126 99bd
00000120: 9dc5 6ebd 9d7f 37bd 10b0 a3bd 6ef8 93bd
00000130: c87d a1bb a447 183d d111 5c3c 0330 c3bc
00000140: 1118 c23c a4a2 d1bc 7bc4 25bd 1d04 cabb
00000150: 2d5c 2b3d a17c e83c f031 823d cee6 c83c
00000160: 0981 6bbc 294c f53d c671 243e 354d 0c3d
00000170: 3a0b afbd 7605 c6bc 2b28 8b3a 2d9b 8cbd
00000180: a8e0 593d c9fa 8abc 8b49 51bb ba70 0c3c
00000190: ad08 0fbe 16bb 033d 8a46 c33b 5b04 e8bb
000001a0: adb8 193c f6dc 6fbe 7cc3 b93d d9b6 c2bd
000001b0: 5536 883d 095f ad3d 8f79 663d 0706 733d
000001c0: 81f3 6eba a4aa 7dbd fc5b 40bc 5b7f 29bd
000001d0: b1f9 fd3c 795b 8b3c 2dcb 973d 1fd3 013d
000001e0: 8bbe 3c3d 3db3 82bc 26c8 1cbb 480c 223d
000001f0: cbe4 b9bd 6755 873c 3706 a1bd bdbe 623d
00000200: 47c2 c8bc beec 063e 77aa 55bd 3c3a 9e3d
00000210: b29b b23d ff0d d73b 7731 8f3b cb5e 3bbb
00000220: 9733 0cbe 7f17 263d cc37 3fbd 4dc3 e43c
00000230: 79ec d03d a570 2bbc 7d18 a7bc 5442 c93d
00000240: 4bc3 e13b 430c 9e3c 19e5 b23d 82d6 a93d
00000250: d60b 1f3d 4441 923d 103a a93d 01a4 70bd
00000260: 6ea2 82bd 55bc b2bc 957a be3a e9ba 0dbe
00000270: 2122 4f3d f157 523d 4a1b 02bd 36aa 8d3d
00000280: 0be0 283d 315d 9d3d a155 95bc 9159 943d
00000290: 48b7 ff3d 70ba 8b3c e014 2cbd 8b69 e03d
000002a0: 4bbb b63d d0b4 5f3c 8734 8abd 1ba4 a03d
000002b0: fe35 17bd bcf8 b93b e6ee 583d 2ee4 883d
000002c0: 4816 8a3d 53c0 f83c 0b42 5a3d 94cd 85bd
000002d0: fa63 aebc 589a 6d3d 24cd 223d 1167 8f3d
000002e0: 4f8c 653d b614 9d3b 5f4a 39bb 9a72 0d3d
000002f0: 1389 813d 8465 7439 d608 933d 0c96 21bd
00000300: 6a48 073d 4a74 053e 4e4a 963d 9ef5 b8bd
00000310: 7e4e c6bc de64 d2bd 314f dd3c cb9a 00bd
00000320: 7269 a23c 1d91 03be 0f12 efbb 4339 5a3e
00000330: 4903 5f3e a50a 6fbd d390 b13c 02ef e0bc
00000340: 79ba cfbc ffb7 cd3c d038 35bc 09a6 0a3d
00000350: d910 213d 2c15 5dbc 0bb8 2cbd ef0d 89bc
00000360: cbc3 093d 1ba2 b33c 7e6a aabc dee9 09bc
00000370: 32cf 1f3d d57b 12bd 93f7 723d 1a4a d0bc
00000380: 447c aa3d eba5 583d ed22 8a3d da3e 47bc
00000390: 84a5 6c3d fa00 cbbc a1d3 9a3d 2091 6f3d
000003a0: df09 273d 2576 0abc 2ee9 aa3c 32ce 8e3d
000003b0: a9b1 633d c72c e8bc 44c0 2c3b 6a55 b2bd
000003c0: da9d b8bc ec3e 853d a957 323d 13f3 7bbc
000003d0: 0a18 eabc 6ff0 d6bd 80a5 b6bc 5049 d6bc
000003e0: 1751 2f3e 55dc 51bd e0ab 4e3c 974b b9bd
000003f0: fd26 e8bd ba0e 753d 870e 103d f68d 0abc

bn1.running_mean f4 [256]
0.5994896 0.28439838 0.09468519 1.3285235 0.95507956 0.4793823 0.00972922 0.14458777
2.2031233 0.3756596 0.20146745 0.033619747 0.21867703 0.17425208 0.18334664 0.22242978
0.077994116 0.15984976 0.4715997 0.31834668 0.23132291 1.5326554 0.94973 0.38739455
0.080918446 0.06577445 0.6690086 0.37471488 0.55749 0.06332924 0.20489353 0.7890003
0.16563453 1.0917501 0.079576455 6e-45 2.6183012 1.0362064 0.10357721 0.33098537
0.087196566 0.34933385 0.5962823 0.5774526 0.41226414 0.52026916 0.062182307 0.33971623
0.15685795 0.26059362 1.0344052 0.057012424 0.071181096 0.05881353 0.046244632 0.25794446
0.16718176 2.5628517 0.7820433 0.09589645 0.030054996 2.6270747 0.3467453 1.3876616
0.11374824 2.2559254 0.26910025 0.26524046 6e-45 0.1702881 0.5384627 0.1851773
0.014801412 1.0357012 1.2907692 0.1251294 0.14013892 0.68594253 0.28255966 0.4626938
2.2462063 0.5806905 1.0286584 0.64889544 0.2039053 0.046882354 1.7604975 0.09968905
0.15044627 0.13981958 0.7028445 3.468169 0.8281809 0.1825999 1.3087204 1.0584493
0.12695342 0.0059914016 1.2376261 0.34810397 0.02041152 0.6790656 0.20628102 0.96171075
0.35452697 0.23798323 0.14916542 2.308342 0.13428757 0.028047241 2.0520396 0.28106806
0.27463463 0.68539745 0.34990704 0.55706525 0.91053295 0.2964976 0.06957508 0.4210622
0.12223405 1.1850265 0.2971479 0.5915964 0.28872123 0.7006497 0.91185695 0.19072999
0.108347766 1.7875817 0.14993072 0.17081292 0.00064281264 0.13764007 0.02077834 0.39295676
0.45737588 0.13895021 0.087942265 6e-45 0.19286501 0.045038223 0.17892787 0.3024651
0.07291715 3.0005088 0.04791732 1.4660132 0.06708636 0.089726776 1.1675805 0.17299092
0.08573298 0.9329365 0.0135437315 0.3839873 1.9440904 0.08732645 0.46957943 0.031222044
0.117399424 0.15453652 0.07733586 0.11823797 0.0828802 0.30737963 0.88895965 0.25172597
0.06522347 0.4608904 1.1165073 0.08446535 1.4219187 1.6115652 1.2738281 4.639296
1.2506231 0.27334508 0.40062934 0.3336057 0.5637012 0.09045249 0.16318098 0.16532712
0.103945754 0.19449864 0.4255515 0.119299054 0.46740162 0.69787425 0.08865369 0.50208396
2.30871 0.021604493 0.6751254 0.49437603 0.08017959 1.9246918 2.7653155 0.15001044
2.6875303 0.37983766 1.6791477 0.54634416 1.716057 0.07906553 0.54432327 0.3778439
0.32062402 0.02485298 0.7774834 2.0161068 1.2100585 0.2614908 0.8384451 1.6966406
0.9342898 0.65027094 0.42579958 0.0656792 0.4286563 0.0070961183 0.7967507 0.77078843
0.07762435 0.078490265 0.16254188 0.29773396 0.3543505 0.09651314 0.677398 0.5714521
0.9472121 0.3527068 1.8665271 0.042269018 0.6479162 0.6946749 0.31110725 0.19823027
0.16053417 1.4638103 0.9431176 0.54343826 0.32857957 5.187657 0.25619206 0.51848453
0.31315038 0.8781837 0.1241988 0.064336225 0.40767366 0.47801238 0.061223876 1.1420609
00000000: 2778 193f aa9c 913e 4fea c13d 0f0d aa3f
00000010: 1880 743f 9971 f53e 4e67 1f3c d10e 143e
00000020: f9ff 0c40 7556 c03e 7c4d 4e3e dcb4 093d
00000030: dfec 5f3e 236f 323e 39bf 3b3e a2c4 633e
00000040: 61bb 9f3d a8af 233e 8475 f13e 56fe a23e
00000050: eadf 6c3e 0d2e c43f 8121 733f 9458 c63e
00000060: 92b8 a53d c1b4 863d 2644 2b3f a1da bf3e
00000070: aab7 0e3f c3b2 813d 9ccf 513e ecfb 493f
00000080: 199c 293e 78be 8b3f fbf8 a23d 0400 0000
00000090: 3f92 2740 69a2 843f 4a20 d43d ea76 a93e
000000a0: 1d94 b23d e3db b23e f5a5 183f efd3 133f
000000b0: 4914 d33e 5c30 053f e0b2 7e3d 49ef ad3e
000000c0: 5f9f 203e 876c 853e 6467 843f dc85 693d
000000d0: 65c7 913d 75e6 703d 036b 3d3d 4c11 843e
000000e0: b231 2b3e c305 2440 fd33 483f 5c65 c43d
000000f0: e535 f63c fe21 2840 9a88 b13e e59e b13f
00000100: d6f4 e83d 1561 1040 82c7 893e 99cd 873e
00000110: 0400 0000 0160 2e3e b1d8 093f 1e9f 3d3e
00000120: 9f81 723c db91 843f ed37 a53f ec21 003e
00000130: 9480 0f3e ee99 2f3f a9ab 903e 34e6 ec3e
00000140: d8c1 0f40 22a8 143f 14ab 833f 031e 263f
00000150: 8dcc 503e b607 403d fb57 e13f c629 cc3d
00000160: 960e 1a3e dd2c 0f3e 9eed 333f 7bf6 5d40
00000170: aa03 543f 78fb 3a3e 2684 a73f 447b 873f
00000180: 1400 023e 8553 c43b 886a 9e3f af3a b23e
00000190: 0f36 a73c 3ed7 2d3f 553b 533e ad32 763f
000001a0: 8f84 b53e e0b1 733e d2be 183e e0bb 1340
000001b0: ae82 093e 54c3 e53c 9e54 0340 27e8 8f3e
000001c0: e99c 8c3e 3576 2f3f 0427 b33e d49b 0e3f
000001d0: b018 693f 89ce 973e 617d 8e3d 7795 d73e
000001e0: d855 fa3d f3ae 973f c523 983e dd72 173f
000001f0: 45d3 933e c75d 333f 756f 693f b94e 433e
00000200: 6fe5 dd3d 7acf e43f 7087 193e 95e9 2e3e
00000210: 6d82 283a 85f1 0c3e 5637 aa3c a131 c93e
00000220: 2c2d ea3e f748 0e3e 131b b43d 0400 0000
00000230: 687e 453e 007a 383d de38 373e b5dc 9a3e
00000240: 9655 953d 5608 4040 f444 443d 52a6 bb3f
00000250: 9364 893d acc2 b73d 4773 953f 8824 313e
00000260: c694 af3d edd4 6e3f 87e6 5d3c fc99 c43e
00000270: f4d7 f83f 36d8 b23d b76c f03e 5fc5 ff3c
00000280: 1c6f f03d d23e 1e3e 4362 9e3d c026 f23d
00000290: 18bd a93d dd60 9d3e dc92 633f 3ae2 803e
000002a0: e293 853d d4f9 eb3e b6e9 8e3f 2bfc ac3d
000002b0: 6f01 b63f c547 ce3f cd0c a33f 1d75 9440
000002c0: 6b14 a03f e3f3 8b3e 4a1f cd3e 5ece aa3e
000002d0: b94e 103f 283f b93d ea18 273e 834b 293e
000002e0: 83e1 d43d a72a 473e e3e1 d93e 1053 f43d
000002f0: 444f ef3e e3a7 323f 1190 b53d 9388 003f
00000300: e8c1 1340 e8fb b03c 05d5 2c3f db1e fd3e
00000310: 3235 a43d 4d5c f63f eefa 3040 569c 193e
00000320: 7f00 2c40 157a c23e 50ee d63f 36dd 0b3f
00000330: c1a7 db3f 1ced a13d c558 0b3f c174 c13e
00000340: d528 a43e 7a98 cb3c 2709 473f e507 0140
00000350: 32e3 9a3f 1fe2 853e 57a4 563f 852b d93f
00000360: 9e2d 6f3f 2878 263f 6702 da3e d182 863d
00000370: d778 db3e 8e86 e83b dbf7 4b3f 6452 453f
00000380: 84f9 9e3d 81bf a03d 6171 263e 9670 983e
00000390: 6e6d b53e aea8 c53d f569 2d3f af4a 123f
000003a0: 7e7c 723f fc95 b43e 5cea ee3f 4722 2d3d
000003b0: d6dd 253f 37d6 313f 7349 9f3e e0fc 4a3e
000003c0: 1263 243e 235e bb3f 2870 713f c51e 0b3f
000003d0: 953b a83e 4901 a640 9b2b 833e 67bb 043f
000003e0: 3f55 a03e a6d0 603f f15b fe3d b6c2 833d
000003f0: 9aba d03e 0abe f43e e3c5 7a3d 0d2f 923f
