checkpoint_critic0_critic.pth (torch_old, 192338 bytes, 13 tensors)

fcs1.weight f4 [256, 48]
00000000: 9ae9 6f3d 3f1a 113e 6d51 04bd 4da3 30bc
00000010: 269b 783e bb0d 79be d0fe d3bc 7c93 b4bd
00000020: 1893 edbd b72a 97bd 3868 94bc eba3 ff3d
00000030: 95d6 403d d9dc a13b 75ef c33c cbcb 453e
00000040: 4f40 88be 161f 8fbe 22db a7bd 8815 e8bd
00000050: 36fb 8abc 2a3e d83d 401d a6bd f890 14be
00000060: 7eed e03d 769c d1be a93a 4a3d b493 5d3e
00000070: e630 86be 25a0 2fbe b1fd f83c 4506 8b3e
00000080: 9e19 0d3e c7d9 0abf 02ef 8ebd da9e a1bd
00000090: 1ae8 cfbd 00f0 0fbd 6061 723c 52ff a2bd
000000a0: deb5 9d3d d841 13bf 9312 e93c 5635 653e
000000b0: 2fc7 e93d 06d6 273c cfb5 88bd 183f 533e
000000c0: ddea 9f3d b567 e6be 2807 3a3d 86d2 04bd
000000d0: 174a 72bd f246 ddbd 372b 003d 192a ddbc
000000e0: 87db 033e 932c f7be 8041 033d 91ab cc3d
000000f0: 0a26 b0bc e729 cebe 589e 14bd 3931 b13d
00000100: 9a46 633e f514 c4be 46c9 71bd 33da 93bd
00000110: 7678 c23d 0473 7abe d2f1 9bbd 57aa fbbd
00000120: 9d3b fabd ab5d 72be dfc4 08bd 46dc 183c
00000130: df89 e63d eea3 dfbd 4e79 b2bd e8f3 843d
00000140: b0f9 2f3d 228d 7bbe f1a7 203e aaf5 a93d
00000150: 379d 613d f7f9 cabe fff1 2d3e e92e 023e
00000160: 07d1 8c3d dab4 1cbe 528b fdbd 4c0b 323e
00000170: 84b4 dcbd f517 83be f9ee b1bd 35c5 7b3e
00000180: ad52 413e 177d 93be 5d26 e23c b85b 28be
00000190: 1bf7 08be 9e95 073e 8d04 213d 5123 78bd
000001a0: bd33 283e 1fd3 02be c001 033c 7b0f cd3d
000001b0: 9065 90bd 3dd8 e83d d275 a9bc 1d9b c13d
000001c0: 4fde d63d 482a a9bd ab15 12be 79a8 9d3e
000001d0: 8b49 46be 367b 81bd d716 e3bd ca68 833e
000001e0: 091a 573e 3c77 e0bd 40d2 9d3c 6508 343d
000001f0: 31d3 f93c 1599 f13d b8df a6bc 325f d93d
00000200: d541 6a3e 50c4 b3bd bcbf 913c a949 a43e
00000210: c300 d63c b38f 923d 9274 b3bd ed6b 9a3e
00000220: 3ce5 9a3e df40 6a3c ff3e b83c c660 be3e
00000230: d97b 1b3e 4690 acbd 9bb4 6fbc 4e88 a63e
00000240: 370d 2e3e 5fe8 693e 2ada 39bc aadc 32bd
00000250: 541c 2abd 46da be3d 470a c1bc 0738 81bd
00000260: 5ec8 883e 656b 723e 6998 673c e177 0a3c
00000270: 0426 e3bd 33c6 3cbd 4581 38bd b168 6b3d
00000280: 49e9 943e 5eeb c63e 083f c33b ac8f fa3d
00000290: a268 c8be 5907 dbbd 81c9 90bc 4eb8 063e
000002a0: 958c 8abc 7670 923e f85e 68bc d83d e7bc
000002b0: 7b19 b33d e5f2 473d 276c 6fbc 5f43 86bb
000002c0: 4fa0 773c 8777 c63e fe15 eebc 7b28 5c3c
000002d0: d9b1 0d3e e419 bc3c a7b9 1d3a 0e82 4cbb
000002e0: d87a f23d ed14 543e e0af b8bc a8f7 9cbd
000002f0: 2ced cd3e 9aa5 fbbd f332 ee3b fca6 adbb
00000300: d6e6 78bd 8a02 293d a6bf f13b 5d02 163d
00000310: 4411 353d 5d24 d03d 5ac1 29bc 08b7 30bd
00000320: b30f 04bc 7d36 163e 8629 babc d758 5fbc
00000330: 4beb cd3d 5986 bebd b770 bc3c d1c4 7b3c
00000340: 228a 743d b177 1ebd 4dca 35bd f78b 20bd
00000350: 1d80 a63e 262c 72be 610b 0e3d 9fb7 263d
00000360: 1c81 bd3d d4f6 b1bc c291 76bd 508d a2bc
00000370: 7298 05be ce4d 773d f25b 5e3d 8a96 2c3d
00000380: 9c29 9c3e 2c8c c73d c15d 25bd e7ba 60bc
00000390: 676f 03bd 5d29 dfbd 13a3 233d 4513 5bbc
000003a0: 6fae 063f 5927 373e d60a d1bc c2d7 9abc
000003b0: 7378 b1be 5006 30be bc89 403d 85a4 8b3d
000003c0: a9e1 993b 6700 04be 9ca4 8abb e658 96be
000003d0: 927d 273e 2361 8f3e 2a38 28bc feff 93be
000003e0: 6bc9 1bbd cfe6 fbbd a061 85bd 1b64 a6be
000003f0: 23cf d13d 0aa0 a43c 867f dfbd 9386 a7be
0.05857239 0.14170168 -0.032304216 -0.010781121 0.24277934 -0.24321644 -0.02587834 -0.08817193
-0.116003215 -0.07381194 -0.018116102 0.12482437 0.04707964 0.004939657 0.023917893 0.19316022
-0.26611564 -0.27953404 -0.08196093 -0.11332232 -0.01696549 0.10558732 -0.08111048 -0.14508426
0.10982798 -0.40939683 0.04937235 0.21638376 -0.26209182 -0.17150934 0.030394407 0.2715322
0.13779303 -0.5423855 -0.06979181 -0.07891627 -0.10151692 -0.03514099 0.014793724 -0.07958855
0.07700704 -0.57522345 0.02845124 0.22383627 0.114149444 0.010243898 -0.06675302 0.20629537
0.078084685 -0.45000997 0.04541698 -0.032427333 -0.05915269 -0.10804547 0.031291213 -0.026997613
0.12876712 -0.48276195 0.032044888 0.09993661 -0.021502513 -0.40266344 -0.03628382 0.086519666
0.22194901 -0.3829724 -0.05902984 -0.072193526 0.09495632 -0.24457937 -0.07614483 -0.12288349
-0.122184016 -0.23668544 -0.033390876 0.009329861 0.112567656 -0.10919939 -0.08714543 0.06491834
0.04296273 -0.24565557 0.15689065 0.0829881 0.055081572 -0.39643833 0.16986845 0.12713207
0.06875806 -0.15303364 -0.12380089 0.17387122 -0.10776618 -0.25604215 -0.086881585 0.24586947
0.18879195 -0.28806373 0.027606184 -0.16441238 -0.13375513 0.13240668 0.03931098 -0.060580555
0.16425987 -0.12775849 0.007996023 0.10012718 -0.070506215 0.11369369 -0.020686064 0.09453414
0.10491621 -0.08260018 -0.14266078 0.30792597 -0.19363992 -0.06322329 -0.11088341 0.25665885
0.21006025 -0.10960242 0.019265294 0.04395332 0.030496212 0.11796776 -0.02037035 0.1061386
0.22876675 -0.08777678 0.017791621 0.32087448 0.02612341 0.07156315 -0.087624684 0.30160466
0.30253017 0.014297693 0.022490976 0.37183207 0.15183963 -0.084259555 -0.014630462 0.32525867
0.16997229 0.22842549 -0.011343518 -0.043667473 -0.041530922 0.09318976 -0.023564471 -0.063095145
0.26715368 0.2367378 0.0141354585 0.008451433 -0.11091235 -0.046087455 -0.045045156 0.05747289
0.29084232 0.38851446 0.0059584416 0.122344345 -0.39142329 -0.10694761 -0.01767421 0.13156244
-0.016912738 0.28601426 -0.014182799 -0.028227732 0.087450944 0.048815627 -0.014613188 -0.0040973867
0.015113904 0.38763067 -0.029063221 0.013437386 0.13837375 0.022961564 0.0006016739 -0.0031205448
0.11839837 0.20711108 -0.022544801 -0.07664424 0.4022001 -0.12287445 0.007269257 -0.005299447
-0.060767017 0.041262187 0.0073775826 0.036623348 0.04420592 0.10163186 -0.01036104 -0.043143302
-0.008060384 0.14669223 -0.022724878 -0.013632021 0.10054644 -0.093029685 0.023002965 0.015366749
0.059702046 -0.038688365 -0.044382382 -0.03919598 0.32519618 -0.23649654 0.03467882 0.04070246
0.09253141 -0.021724142 -0.0601976 -0.019842774 -0.13046435 0.060376935 0.054286905 0.042135753
0.30500495 0.097435325 -0.040372614 -0.013716436 -0.032088663 -0.10896561 0.03995044 -0.013371293
0.52609915 0.17886104 -0.025517862 -0.01890171 -0.34662208 -0.17189908 0.047006354 0.06818489
0.0046960902 -0.12890778 -0.0042310487 -0.293647 0.16356495 0.28003797 -0.010267297 -0.28906244
-0.038033884 -0.122998826 -0.06512761 -0.3249825 0.10244586 0.020095844 -0.10912995 -0.3271986

fcs1.bias f4 [256]
00000000: 45b4 0e3e eae7 9f3c 3b10 8d3e 6fea dabe
00000010: 6b4b 29be 72a8 9abe 1f8e 4dbd 1eb3 25bd
00000020: 69d0 16bc 8137 26bb 4e4c 7bbe 7cab 0ebf
00000030: e2e9 9abe b22a ae3d b83f eb3d 431c 17be
00000040: 779a fcbd 0c7b 373e 3295 93be 61f6 00bd
00000050: 5ad4 cfbe 7331 b0be 5d03 84be cdca 89be
00000060: 63f8 ca3d 12b2 18bd 24b8 89be bdba e33b
00000070: 0f12 5abe c9cc e33c ef24 acbe 5439 51bf
00000080: 9df4 dcbe 4674 fdbc 5217 c6be 7cde 9abe
00000090: 63f9 9ebe 643b 1fbe 50d1 8cbd 2462 35bd
000000a0: 08fd 62be d8e3 a73d 8994 583d d495 44be
000000b0: fc9d 1abf 07fa 0fbe 275f d2be b0ba 36bf
000000c0: bfc7 00be 185e c1bd b76e 963e 7e1f 97be
000000d0: 889e 0ebe 7b07 63be 8bce e2be 5cab 76bd
000000e0: a7f1 bb3e 7dc5 49bf e9b8 a3be 1a38 03be
000000f0: 5663 9abd 4d80 92bd 4b2b 81be 546a 63bd
00000100: 79fb debe 73bb cdbe 58be 5abe b852 84be
00000110: f7c0 303c 6430 03be 692f 07bd 9260 f73d
00000120: 0e25 233c 23a7 e4bd d30d b7be 9ab2 07be
00000130: e0da 2fbe add9 79be bae5 ecbe a0f3 da3d
00000140: e9a4 e9be 0001 1abd 8837 f5bc 90d3 39be
00000150: 56c8 cb3d 7a34 babd 6fce 66be 5081 45be
00000160: d3d2 b5be c3ad 50be 75bd 783e f138 14bf
00000170: 7ec7 93bd aa9e 4d3c dcca d2be 0324 62be
00000180: 1285 91be 5201 933d 63ee dc3d f82c 2dbe
00000190: 0489 ebbd e1c3 b7bd d1a4 d3bd 4365 9c3d
000001a0: ee0d 12bf 8dd3 a93d b003 39be f676 10bf
000001b0: 23a0 4dbe 2560 5bbe 686d 6fbe a374 e4be
000001c0: 3231 35be a163 3dbf 3925 b6be 1e81 6abe
000001d0: 415d 8e3d dfa0 d0be cf4a e2be 6d6b d3be
000001e0: 510f acbe 0a24 c6be 2f94 f1bc 401a 81be
000001f0: bf1e 83be 04d5 923d ae36 e43d 46ef 30bc
00000200: 13e0 cdbe 0b1e 233e bdca 52be 8402 eabe
00000210: 11d7 763d 79f3 06be 1840 88bf 5463 cabe
00000220: a3c5 d63d 4351 0cbf afec d2be af34 7ebf
00000230: 0336 3bbf 7cb9 973d 6031 4bbf 34d7 e3bd
00000240: 3edb 20bd 4d37 85bd 22f7 313e ba05 1ebf
00000250: 2e30 89be d2c2 3cbe b022 cbbd 4ebd 51be
00000260: cf46 5dbe 8e4b 1bbf d48b 6bbd 97bc a43e
00000270: 3461 edbd 3092 3dbe 369d 14be cbd5 0fbd
00000280: c1e5 e4be 8cdb 41bd ffdf 2ebe 79c4 35be
00000290: 0699 80be 12ee 013f c2f4 b03e c9b7 eabd
000002a0: 27fc bebe d5f5 0cbe 9931 64be 6773 dcbe
000002b0: 4db7 cdbd 9bf1 b6bd 8071 3836 e35a 41be
000002c0: 04c6 c43d 5ce6 883e 9eff 333d 88e9 253e
000002d0: 957c 12be 1992 473e 3604 1abe 16b0 03bf
000002e0: 876e 65bd c640 69bc 4fde 8f3d 5575 5abe
000002f0: 09b8 7cbe 8f36 2dbe f818 81be 7767 9fbe
00000300: c79b 97be f8d2 d7ba 8b47 94be 4cc1 9a3c
00000310: d643 86be b2ec 81be d162 c8bd 424a 2bbe
00000320: 9a58 64bc c861 083d 9238 aa3d 6c82 c5be
00000330: 838f 0dbe 845d 7abe ba17 85be bb88 96be
00000340: 7368 d5be 1e97 823d 437d 06bf da83 db3b
00000350: 726d 76bc fd78 10be 5a3d 4ebe fcf4 4abe
00000360: 5f57 a53d 9ae1 27bc 4f6a 52be a068 2ebf
00000370: 9224 9e3a d79d c8be 5d5d a5bd b9d9 bdbd
00000380: 5c24 f6be 5c68 193e 18fb debd 001c 12be
00000390: d582 e9bd e2d0 acbc 2b74 2dbe 7e1e 18bf
000003a0: 247c a33d 595d 21bf d321 12be d1a5 b1be
000003b0: 021a 2fbd 8919 bebe 54c9 7f3c b5b5 d0bd
000003c0: 4ac2 27be b790 a4be dc3f e2be f44a c63c
000003d0: ca74 8cbe dc8d c6be 89ab 253d a5f1 123e
000003e0: 6578 59be 41c2 723e bc72 323d db33 b93d
000003f0: 5728 a63e 61dd 233e 2f0f c33e b26b 8ebf
0.13935955 0.019519765 0.27551445 -0.42756984 -0.16532676 -0.3020664 -0.050184365 -0.040454023
-0.009204962 -0.0025362673 -0.24540827 -0.55730414 -0.30256563 0.08504237 0.11486763 -0.14756875
-0.12334149 0.17918032 -0.28824764 -0.031484965 -0.405917 -0.34412727 -0.25783816 -0.26912537
0.09910657 -0.037279196 -0.268983 0.006949751 -0.21295951 0.02780761 -0.33621928 -0.817281
-0.43155375 -0.030939233 -0.38689667 -0.30247867 -0.31049642 -0.1555 -0.06875861 -0.044283047
-0.22166836 0.081977546 0.05287603 -0.1919778 -0.60397315 -0.14060222 -0.4108822 -0.7137861
-0.12576197 -0.09441775 0.29381344 -0.29516214 -0.13927662 -0.22170822 -0.44298205 -0.060222015
0.36707804 -0.7881697 -0.31977013 -0.1281437 -0.07538478 -0.07153378 -0.25228342 -0.055521324
-0.43551233 -0.40182075 -0.21361673 -0.2584436 0.010788194 -0.12811428 -0.0330042 0.12078966
0.009957565 -0.11164691 -0.35752735 -0.13251725 -0.17173338 -0.24399443 -0.46269017 0.10690999
-0.4563363 -0.03759861 -0.029933706 -0.18147111 0.099503204 -0.0909204 -0.22539686 -0.1928761
-0.3551241 -0.20378785 0.24291022 -0.57899386 -0.072157845 0.0125500355 -0.41170394 -0.2208405
-0.28421837 0.07177986 0.10787656 -0.16911685 -0.11500743 -0.08972908 -0.103341706 0.07636502
-0.57052505 0.08292303 -0.18067813 -0.5643152 -0.20080619 -0.21423395 -0.23381579 -0.44620237
-0.17694548 -0.73980147 -0.35575274 -0.22900817 0.069513805 -0.40747735 -0.441977 -0.41292897
-0.33605435 -0.3869937 -0.029489605 -0.2521534 -0.25609395 0.07169536 0.11143242 -0.010799235
-0.40210018 0.15929429 -0.20585151 -0.45705044 0.060263697 -0.13178815 -1.064456 -0.39528906
0.10486915 -0.54811496 -0.411962 -0.9929914 -0.7312929 0.07408425 -0.79372215 -0.11125031
-0.039271586 -0.065046884 0.1737943 -0.6172749 -0.2679457 -0.18433693 -0.099187255 -0.2048237
-0.21609043 -0.6066216 -0.057506397 0.32175133 -0.11590806 -0.18512797 -0.14513096 -0.035116
-0.44706538 -0.047328517 -0.17077635 -0.1775073 -0.25116748 0.5075389 0.34561735 -0.114608355
-0.37301752 -0.13765652 -0.22284545 -0.43056795 -0.100447275 -0.08932801 2.7484202e-06 -0.18882327
0.09608081 0.2673825 0.043944947 0.16202366 -0.14305337 0.19489326 -0.15040669 -0.5144056
-0.05601361 -0.014236635 0.07024824 -0.21333821 -0.24679579 -0.16915344 -0.25214362 -0.31133625
-0.29611036 -0.0016466072 -0.28960833 0.018891 -0.2622363 -0.25375897 -0.09784473 -0.16727546
-0.01393714 0.033296376 0.08311571 -0.38576066 -0.13824277 -0.24449736 -0.25994664 -0.29401192
-0.4168125 0.063764796 -0.52534884 0.0066990675 -0.015040742 -0.14108653 -0.20140591 -0.19820017
0.08073305 -0.010246659 -0.20548366 -0.68128395 0.0012065342 -0.39182922 -0.08074448 -0.09270043
-0.48074615 0.14981216 -0.10887736 -0.14268494 -0.11401907 -0.021095697 -0.16938846 -0.5942153
0.07982662 -0.6303306 -0.14270715 -0.3469682 -0.042749412 -0.37128857 0.015611965 -0.10190908
-0.16382709 -0.3214166 -0.44189346 0.024205662 -0.27432853 -0.38780105 0.04044679 0.14349993
-0.21237333 0.23706914 0.04356645 0.09043094 0.32452652 0.16002418 0.38097522 -1.1126616

fc2.weight f4 [128, 260]
00000000: 9c58 f7bd 202c cdbd 3110 043d 19ba 143e
00000010: f6c0 113d f83d 693d 43e8 d7be e11f adbd
00000020: 5438 853d fe28 613e c524 213d f025 923c
00000030: 36d1 b5bd 83d9 dcba 006f 0bbc 729e 853c
00000040: 8cfa cbbd 6e62 5abe 5557 783d e8cc 78bd
00000050: 0dbb 03bc 414e c8bd c1ac 96be 3ae9 c33d
00000060: 4292 193d 35ca 73bd d6c6 0abe 3dfd 4e3e
00000070: 4020 bc3c 64c2 4abe 19d7 203c bfc9 503d
00000080: b1c4 743d 31f1 6c3d c89d b43c 9d16 e1bc
00000090: ba10 283d eb36 abbd 2d53 fb3c 62f8 94bc
000000a0: 6887 f6bd c8a1 cc3d fe57 243d 0bf4 2c3b
000000b0: 1d87 b2be 5ab6 49bd 0387 633c 485c 37be
000000c0: 1078 37be da0a 3f3e 4405 bebd bc19 033e
000000d0: 6643 233e 433a e73c 47db 63be 383d 733d
000000e0: 152e 173e 1b4d ab3d dc3b 493d e5fc 863d
000000f0: 30bf 68bd b981 4dbe 0106 1e3e 231b d43d
00000100: 0d96 c83d 2aec e7bc 75da 8bbd 4f5d c5bd
00000110: 52fb 8ebd 9e64 bcbd 147f 0f3e 702b c2bd
00000120: bc7d 47bd 4a60 f83b 3935 f63d 2cd4 0bbe
00000130: e086 d93d 72a0 a4bd e80f e93b 12e7 82bd
00000140: 368c 51bd 061c c83d 9c0b 493d 1a84 9dbe
00000150: 3a7f 04be 34b5 febb cfac a0be a73e bdbb
00000160: 7974 d73b a12b 1bbd 7a88 663d 974b 533e
00000170: cb0a fabd 6f36 fdbb 2930 df3c a249 2dbd
00000180: 2a43 a73d b330 a63d f3d8 873d c3cd bbbd
00000190: 933d 74be 3b3a 96b9 8bd3 013e b665 383c
000001a0: 6fbe a83d 85e8 0e3e fef8 79bd 4ea0 32bd
000001b0: d8c8 4e3e 7bf8 fabc 9bd9 44be 24a0 85bc
000001c0: 260c 42bd b2ce f0ba a6be e8bc 34d6 aebc
000001d0: 1450 2cbd dcd7 9cbd 9c54 d3bd d690 48be
000001e0: b02d 0b3e 0f3d 07be d808 38bd b9e4 56bd
000001f0: 1840 283e 1273 923d fdcd bb3d 6134 10be
00000200: 4ccb 99bc 9b9c 37bd 4402 ff3c 4feb 3f3d
00000210: 9cf9 ed3d fc29 1cbd da20 30be 720e 4abe
00000220: 8677 003e d7dd 68bd 11d8 bcbd 9c4f fbbc
00000230: 7713 80bd a20a 52bf 565d 9cbe 323b 69bd
00000240: c23a a23d db61 ddbd 5835 b8be fe5c 1abe
00000250: 701e 8abd 2a63 e83c e29e 98bd 77b0 5fbe
00000260: ea4c 2fba 2442 0cbd 35d9 073d 18ad 4cbd
00000270: dac7 e13d e1a0 8b39 6b87 b9bd 4c6f 0fbc
00000280: 132c 5abe dd43 6c3e 8439 f33d 7f2b b03d
00000290: 96a8 af3d 29dc 0e3d bafb 9f3c 2e7e e63d
000002a0: 80fb d13d 445c b13d 742c cabc c89b a7bc
000002b0: 13c5 e63d b686 febd 2d3b aebd fe8d 2e3d
000002c0: c635 ce3d a941 0f3d 6fef 45bd 35a6 42bd
000002d0: 1451 2d3e 4df8 50bd 6d58 bcbd f051 d33d
000002e0: e8c5 c43e 078d e9bd e788 6f3c ab62 babe
000002f0: ef3f 61be 33fa 5abd 51e4 63bd f52a 923c
00000300: fefa 0a3d be1d 5bbc e69a 67be f21d 1fbe
00000310: 84b6 1bbe 60c4 0e3e 8ab2 61be 528d a2bb
00000320: e05d ad3d 48aa a0be def3 dfbc 7efb 9dbd
00000330: 0381 243e 3dcd e2bd 89cb d5bd 3558 80bd
00000340: a02d c53b 8070 a33d 2cac 823d 9c85 853c
00000350: 418f 0dbe fb40 c8bb 5f14 58bd e5b0 fcbd
00000360: e765 0d3e 99fc 64be ad3a 163e 9c89 8fbe
00000370: a113 e13c d838 b9bc da71 603d 43bb e1bd
00000380: 3c7d 1f3d fc57 2d3c 05d6 143e 0360 10be
00000390: ee93 2e3d 9b8e 83bd ac9e 39be 93ca 51bc
000003a0: 65aa cabd 236b a9bd 17a3 f63c d012 a03e
000003b0: 8bb2 4d3e 509f 8cbe 5ac0 0ebe b456 cf3e
000003c0: ea18 fcbd 976a 4bbd fbc6 0ebe f5d9 abbd
000003d0: 9014 333d bf41 d4bd 1ede aebd 0b92 6ebd
000003e0: a178 02bd 50e8 dcbd 3cf2 273d 022f b4ba
000003f0: f035 3b3e 6bac 6b3c 68f5 6cbd 8938 4bbe
-0.12077448 -0.10018182 0.032242004 0.14524116 0.035584413 0.056943864 -0.4216939 -0.08453346
0.06504884 0.21988294 0.039341707 0.017840356 -0.088777944 -0.0016849492 -0.008510351 0.016310904
-0.099598974 -0.2132661 0.06063016 -0.06074229 -0.008040202 -0.09780551 -0.29428676 0.09565969
0.037492998 -0.05951901 -0.13552412 0.2021379 0.022964597 -0.19800717 0.009816908 0.05097365
0.059757892 0.057847206 0.022047892 -0.027476603 0.041031577 -0.08360084 0.03067931 -0.018184844
-0.120375454 0.09991795 0.04012298 0.0026390578 -0.34868708 -0.04924617 0.01388717 -0.17906296
-0.17916894 0.18656483 -0.09278348 0.12802786 0.15943679 0.028226024 -0.22251616 0.059384555
0.14763673 0.08364316 0.049129352 0.065912046 -0.056822956 -0.20069017 0.15431978 0.103567384
0.09794245 -0.028310854 -0.06828777 -0.09636938 -0.06981529 -0.09198879 0.1401332 -0.09480941
-0.048703894 0.007579838 0.1202187 -0.13655156 0.106214285 -0.08038415 0.007112492 -0.063917294
-0.051159106 0.0977097 0.049083337 -0.30764848 -0.12939158 -0.007773066 -0.31381842 -0.005775291
0.006575164 -0.037883405 0.056282498 0.20634304 -0.1220909 -0.0077274363 0.027244644 -0.04230655
0.081671074 0.081147574 0.06633177 -0.09170105 -0.23851614 -0.00028653615 0.12678353 0.0112547185
0.08239447 0.13955887 -0.061028473 -0.04360991 0.20193803 -0.030636063 -0.19223635 -0.016311713
-0.047374867 -0.0018372147 -0.02841122 -0.021342374 -0.042068556 -0.076583594 -0.10318872 -0.195865
0.13591647 -0.13206886 -0.04493031 -0.05246422 0.164307 0.07150854 0.091701485 -0.14082481
-0.018773697 -0.044827085 0.03112901 0.046855267 0.11619875 -0.038125977 -0.17200032 -0.19732073
0.12545595 -0.056852188 -0.09220899 -0.03067761 -0.062537126 -0.82047474 -0.3053996 -0.05694122
0.079213634 -0.1080968 -0.35978198 -0.15074536 -0.06744087 0.028367598 -0.074521795 -0.2184466
-0.00066871813 -0.034242764 0.03316613 -0.049969763 0.11024447 0.0002663201 -0.09059032 -0.008754563
-0.21305875 0.23072763 0.118762046 0.08602046 0.08577077 0.03487793 0.019529212 0.112545356
0.10253048 0.086601764 -0.0246794 -0.020460024 0.11268058 -0.12428038 -0.08507381 0.042615883
0.1006885 0.034974728 -0.048324045 -0.04752179 0.1692546 -0.051018048 -0.091965534 0.10318363
0.3843224 -0.11403852 0.014620042 -0.36403403 -0.21997045 -0.053461265 -0.05563766 0.01784275
0.03393077 -0.01337379 -0.22617683 -0.15538767 -0.15206343 0.13942099 -0.22040763 -0.0049606944
0.08465171 -0.31379914 -0.027337965 -0.07713984 0.16064839 -0.11074302 -0.10439212 -0.06266824
0.006017402 0.07980442 0.063804954 0.016299061 -0.13824178 -0.006111262 -0.052753802 -0.123384275
0.13808404 -0.22361983 0.1467082 -0.28034675 0.02747518 -0.022610113 0.054796077 -0.110220455
0.038937792 0.010580059 0.14534767 -0.14099126 0.042621545 -0.06423684 -0.18126935 -0.012804645
-0.098957814 -0.08272388 0.030107064 0.31264353 0.2008764 -0.27465296 -0.13940564 0.40495837
-0.123094395 -0.0496622 -0.13943093 -0.083911814 0.04372078 -0.103641026 -0.08538459 -0.058244746
-0.031853322 -0.107864976 0.041002497 -0.001374692 0.18282294 0.014384369 -0.057851225 -0.19845785

fc2.bias f4 [128]
00000000: 7ec5 e53b 8e85 30be 9e5e f6bd 53cd 1dbe
00000010: 79a1 4fbe 59ac 2bbe 5930 0e3d 0161 0bbe
00000020: f8d7 f2bd 330f 2dbe 6564 0c3e 8e41 673d
00000030: 8e38 023b 914c 8abe fcc7 d6bc f229 a1bd
00000040: 6b22 17be bfbf 05be 1866 11bd 8110 20be
00000050: 6687 1ebb f77a 98bd d1aa 89bd 6f96 0ebe
00000060: aff6 a6bd 9301 c93c 95cb 41bd c680 95bd
00000070: 07eb c6bd ee49 24be 577c dcbd 94fd f3bd
00000080: f84d d7bd 4da9 01be 7890 10bd 34fb a13c
00000090: 5fad 12be 2b46 8abd 58f2 22be e39f 92bd
000000a0: 9706 06be c2b4 e6bd 2a05 ccbc 5f52 3fbe
000000b0: c8eb 89be cf4b d2bd 1813 033c 9525 a5bd
000000c0: 81be eabd d614 39be 972e 3bbd 3aa4 5abe
000000d0: 8a0d 53be e5d3 e43d d46a 21be 550f 283d
000000e0: 1205 8bb9 d412 60bd af5f eabd 1e54 1ebe
000000f0: be70 e8bd 40a7 4fbd cf73 fabd cac3 dfbd
00000100: 4dc5 793d e960 04be b585 07be de01 edbd
00000110: 6196 be3c fde9 a6bd 4652 64be acc4 69be
00000120: 3225 0abe 0895 0dbe b706 54be 705b e4bd
00000130: e198 f9bd cfa8 edbc eb3e adbd 917e 91bb
00000140: 7f80 303d c847 a63d e6de 29be 0f4c c0bd
00000150: 49c6 8c3c 86d3 2fbd 85f1 72be c36e 47bd
00000160: 2695 2bbc beab ccbd a2e6 00be 2f80 89bc
00000170: 2906 c0bd f83e 8abd d179 10be 9d7b 06be
00000180: ef39 1bbe 112b 41bd f522 26be d348 c0bd
00000190: 689f aabd 9a70 29be 59d4 43be 2576 2dbe
000001a0: b47d f1bd b1e9 073c 93b5 ebbd ac82 2cbd
000001b0: 1730 b6bd c96f 2bbe 67a7 a3bc 2637 d1bd
000001c0: c88d 2cbe 63e8 11be 74b5 4ebe 43e5 17be
000001d0: 41a6 0fbe 6694 cdbd 638c 68be ac79 29be
000001e0: 19a3 28be 1b83 0dbe bfbc 36bd 330f 6a3c
000001f0: fe33 26be 108c 26bd 3b12 63bd 76f2 0dbe
0.0070120683 -0.17238447 -0.120297655 -0.15410356 -0.2027644 -0.16764964 0.034714077 -0.13611223
-0.11857599 -0.1690033 0.13710172 0.056459002 0.0019870135 -0.2701154 -0.026218407 -0.078693286
-0.14759223 -0.13061427 -0.035497755 -0.15631296 -0.002418959 -0.07445329 -0.06722034 -0.13924573
-0.0815252 0.024536883 -0.04731329 -0.07299952 -0.09712797 -0.16043827 -0.107659034 -0.119136006
-0.10512918 -0.1266224 -0.035294026 0.019773103 -0.14323948 -0.06751665 -0.1591276 -0.07159402
-0.13088451 -0.112649456 -0.024904806 -0.18683766 -0.269377 -0.102683656 0.008000158 -0.08063809
-0.11462117 -0.18074355 -0.04569873 -0.2135171 -0.20610633 0.11173228 -0.15763408 0.041030247
-0.00026515924 -0.054705456 -0.114440314 -0.15461776 -0.11349629 -0.05069661 -0.1222912 -0.10926016
0.060979176 -0.12927593 -0.13234599 -0.11572622 0.023265066 -0.081500985 -0.2229701 -0.2282893
-0.13490751 -0.13826382 -0.20705687 -0.11150253 -0.121873625 -0.029011158 -0.08459266 -0.0044401367
0.043091293 0.0811916 -0.16588935 -0.09389507 0.017184393 -0.042926334 -0.23724945 -0.048689615
-0.0104725715 -0.09993695 -0.1258798 -0.016784756 -0.09376175 -0.067502916 -0.1410897 -0.13133092
-0.15158819 -0.047160212 -0.16224273 -0.0938889 -0.083311856 -0.1654686 -0.19123973 -0.169396
-0.11791554 0.0082954625 -0.11509242 -0.042116806 -0.08895891 -0.16741861 -0.019977285 -0.10215597
-0.1685096 -0.14248805 -0.20186406 -0.1483355 -0.14028265 -0.100380704 -0.22709803 -0.1655032
-0.16468467 -0.13819544 -0.044613596 0.01428585 -0.16230771 -0.040660918 -0.055437308 -0.13862023

fc3.weight f4 [1, 128]
00000000: 0dcb 033d a06b 24bd 3bb4 a83c 0115 0b3d
00000010: 86a3 b0bd 49e1 20bd 876e 913c 221c 0a3d
00000020: b493 dc3c 8b82 45bd 3fc8 ba3c f608 933c
00000030: 84a0 973c 5a56 ddbc 2f94 d43c 1f9b 8c3c
00000040: 5fa5 85bd e641 67bd e089 cf3c 911c 3dbd
00000050: 66a3 393d b9f8 6cbd 2018 00bd 5aa4 2fbd
00000060: b051 dc3c d28c a03c 6512 b13c 1281 0d3d
00000070: 91ad 133d af53 aebc d07d d6bc 84b4 e3bc
00000080: 0012 f2bc 4265 54bd 7754 083d 28a4 ab3c
00000090: ef57 e3bc 41ef df3c f634 54bd 21be 333d
000000a0: 4b7b 23bd faa2 2ebd 0b4d 053d 3ef7 bbbd
000000b0: e326 e03d b416 57bd 3cbd d73c ab8f 4cbd
000000c0: fe51 003d 8239 94bd eb1a 70bd 7255 c03d
000000d0: 51f2 15bd e3b7 0b3d c6d1 3abd 7772 ba3c
000000e0: 30ee c63c 558b 4f3d 1492 2abd 04d3 09bd
000000f0: 304e 3b3d 9a20 953c 6d5f 20bd 86a0 fdbc
00000100: 40e8 6f3c 347e 373d a6ee 313d b27d fdbc
00000110: 153f aa3c 4f08 7bbd 1ac0 0abd 106f 00bd
00000120: 1d75 f6bc 3da3 abbd 88a4 4cbd 8bec 2abd
00000130: a4e9 f23c e323 383d 6dbd 58bd 44a6 b23c
00000140: 7617 813c 42ee a33c 997f c93d 69ad a73d
00000150: f558 043d 842f e13c ad97 99bd 81c7 1dbd
00000160: 7f85 d53c 584c 2fbd 492b 163d f2dd 883c
00000170: 774a 933d 3013 81bd abfe 0fbd 8e65 933d
00000180: bde8 17bd 003e 033d a408 40bd 9e01 9f3d
00000190: a180 91bc c91d c1bd b2f9 42bd 9545 21bd
000001a0: a0fc 27bd 812c 8bbc bd8d 2fbd 087a 35bd
000001b0: 1767 3c3d 129b bbbc a229 be3c a01e 5bbd
000001c0: 174e 41bd a77b 22bd 9616 44bd ba42 93bd
000001d0: 03ea 533d cb9e 5c3d 91ac dd3d 811a cfbc
000001e0: e433 e2bc e521 5fbd f106 253d 372a 9e3c
000001f0: 7407 953d 6e48 e8bc f320 123d b81e f7bc
0.032176066 -0.0401417 0.020593753 0.033955578 -0.086249396 -0.03927735 0.017752899 0.033718236
0.0269259 -0.0482202 0.022800563 0.017948609 0.018509157 -0.027018715 0.025949566 0.017163811
-0.06525683 -0.05645933 0.025334299 -0.04616982 0.045321845 -0.057854388 -0.031273007 -0.042881347
0.02689442 0.019598398 0.021615217 0.03454692 0.036054198 -0.021280138 -0.026183039 -0.027796037
-0.029549599 -0.05185438 0.033283677 0.0209523 -0.027751891 0.027335765 -0.05180832 0.043882493
-0.039912503 -0.042635895 0.032544177 -0.09178017 0.10944917 -0.052511886 0.026335351 -0.0499417
0.031328194 -0.07237531 -0.05861942 0.093912974 -0.036608044 0.034110915 -0.04561021 0.02275966
0.024283499 0.050669987 -0.041643217 -0.033648506 0.045728862 0.018204022 -0.039153505 -0.030960333
0.014642775 0.04479809 0.043440484 -0.030943725 0.020782033 -0.06128722 -0.03387461 -0.031355917
-0.03008514 -0.083807446 -0.049961597 -0.04172949 0.029652424 0.0449561 -0.052915026 0.021807797
0.015758257 0.020011071 0.098387904 0.08187372 0.0323114 0.027488478 -0.07499633 -0.03852034
0.026064632 -0.042797416 0.036662374 0.016707394 0.071919374 -0.06302488 -0.03515498 0.071971044
-0.03708719 0.03204155 -0.04688324 0.0776398 -0.01776153 -0.09429509 -0.04760141 -0.039373
-0.041012406 -0.016988995 -0.04285978 -0.04430583 0.04599675 -0.022901092 0.023213211 -0.053496003
-0.047193613 -0.039668705 -0.047873102 -0.071904615 0.051736843 0.053862374 0.1082393 -0.025281193
-0.027612634 -0.054475684 0.040289823 0.019307239 0.07276812 -0.02835485 0.035675954 -0.030166015

bn1.weight f4 [256]
00000000: 9628 973e 5dc9 1a3e 1644 ab3d b4e5 833e
00000010: d6a7 293f c8c2 993e b5b3 933e 42d6 6d3e
00000020: 1869 963e 6caf 6e3e 6aed 6f3e 80f7 823e
00000030: e560 823e 4d0c 603d d677 6b3e 6914 4d3e
00000040: e674 9f3e b391 2b3f a9a0 9e3e dec0 d63e
00000050: 5163 043f 794a e83e d321 8d3e 6b17 b23e
00000060: 7a0d 203e a587 683e ef6e ad3e c326 313f
00000070: 9306 8a3e 0841 183e e284 bb3e 9cef 513f
00000080: b1a1 393e 112f a03e 33d7 b63e 627a 4d3e
00000090: 299b 8e3e 6e52 513e 259b be3e 1199 873e
000000a0: 20c2 3d3e cbb0 b43e 7158 e13e 3c5d d93e
000000b0: dfa7 7a3f cd4c 753e 3a6f a03e 59a5 133f
000000c0: 5300 323e 360c 743e 4ba2 b73e 8dfc 853e
000000d0: ac0a dd3e 0175 d53e 8322 3c3e c67a 9f3e
000000e0: af5a 253e 5535 d33e a1ef 243f fcc5 0d3f
000000f0: f6ff d53e ab13 7b3e fc6c 703e 855c bf3e
00000100: 36e4 653e b4b9 3a3e ab6c 823e 709f 813e
00000110: 671c c53e 5ed0 023f 6187 993e 9234 d03e
00000120: c41d bb3e 1aed dd3e 37a5 863e 79ee 723e
00000130: cdeb 943e b978 d23e 6dc0 8b3f 1d20 723e
00000140: 44b5 783e b0ef cf3e 1384 b43e 2964 b03e
00000150: 7bc5 773e c207 673e 4f38 9c3e 9477 f93d
00000160: 21e7 023e d8e6 343e d470 c23e ab75 123f
00000170: ce6f 013e 0ad9 3e3e c151 903f 92a3 973e
00000180: 1def 2d3e ecb6 5e3e d3ac 353e 7a76 d73e
00000190: 338a d13e e657 093e 2749 863e 950c 233f
000001a0: 4d4d 1d3f 35fd 2e3e a85f a03e f88e 1e3e
000001b0: d212 573e cfe7 3b3e 64e4 0b3f b9a7 763e
000001c0: af7f 9c3e 14d1 dc3e f56a 573e 76b0 463e
000001d0: e1ab 963e ab5a c83e 662b 783e 592e a73e
000001e0: 89ee a43e 553e 583e 785f 783e dc9d cf3e
000001f0: 6ae7 933e 5747 9d3e 7854 bd3e f4b6 d33e
00000200: ae0d 543e 03a2 253e edcb 543e 4694 663e
00000210: 2182 813e 8ec5 6e3e c468 a93e be5d 1e3e
00000220: b866 0c3e d43d c93e bf04 8c3e be12 483f
00000230: 2a9b 6e3e c018 6f3f bea6 b73e b629 cc3e
00000240: 992a 613e 1bb7 4a3e 4973 9a3e c611 733e
00000250: 4a4d 6b3e bc5f 563e d919 8e3e a81a 8a3e
00000260: c3ae 953e a6be a53e 6245 423e 3448 0c3f
00000270: a5d9 5d3e c24c 903e 1a55 2e3e 5b27 743e
00000280: 4ecd c93e d874 233e 0733 903e b2af 4c3e
00000290: 90ab 443e 57b1 b13e c43c 5d3e eb8e aa3e
000002a0: 51fa b43e 7a3e 6f3e 11b7 b23e 21ba 0c3f
000002b0: b908 bf3e acd8 603e 0e41 bd3e a6ca 2c3e
000002c0: c2a5 793e 4eb4 aa3e 760a 253e e6bb b53e
000002d0: 99e9 b63e 9885 8c3f 6994 ae3e 1810 5e3e
000002e0: 6d9a a03e d57e 823e 6644 0c3e 0cb1 803e
000002f0: 4ecf 873e 9f9e 3d3e a428 9b3e 39fc c83e
00000300: e558 213e 96a1 4a3e dd30 403e d3dd 443e
00000310: 2b1f 933e 914e ea3e 4ac5 6d3e 8b84 963e
00000320: cf04 733e be74 af3e c36e d63e b8fd a53e
00000330: 5090 373e 37af 2e3e 7e5c c03e 0968 cc3e
00000340: cb20 b43e fec2 643e f937 1b3e c6e6 8c3e
00000350: 83a5 d13e 4868 733e 0aff 443e 6538 833e
00000360: d4cd 103e 92ac 953e 81e7 303f a228 aa3e
00000370: d3cc 793e a735 993e b8ac 003f 7f66 613e
00000380: ae60 5b3e 3a89 5a3e 2b7f ad3e ae5d 803e
00000390: 896f 8b3e 8d9b ef3e ab59 8f3e aa6a 483e
000003a0: 22b4 2d3e b018 063f fa19 f03e 8731 6e3e
000003b0: 5930 833e 31c1 673e 87c1 373e a66f 543e
000003c0: bb35 dd3e c511 3e3e 66c5 883e 103a f13e
000003d0: 2056 8d3e 9483 d03e 1fbc c73e 2154 d53e
000003e0: 9bcb 173e 1f59 ab3e 6e2d 2f3e c0ba 213e
000003f0: 4622 9f3e d3f7 b43e 3dd3 8a3e 000c 2d3f
0.29523152 0.15115876 0.08362596 0.25761187 0.6627172 0.3003142 0.28848043 0.23226264
0.29377055 0.23309106 0.2343041 0.25579453 0.2546455 0.05469923 0.22994933 0.20027317
0.31143874 0.67019194 0.3098195 0.4194402 0.51714045 0.45369318 0.27564868 0.34783491
0.15630141 0.22707994 0.33873698 0.6919977 0.2695814 0.14868557 0.3662482 0.8200624
0.18128087 0.3128591 0.3571106 0.20066217 0.27852753 0.204416 0.3722774 0.26483968
0.18531084 0.35291132 0.44012788 0.42453945 0.979124 0.23955078 0.3133486 0.57674176
0.17382936 0.23832783 0.35866007 0.26169243 0.43172204 0.4169083 0.1837254 0.31148356
0.16147874 0.41251627 0.64428145 0.55380225 0.41796845 0.24519221 0.23479074 0.37375274
0.22450337 0.18234903 0.25473532 0.25316954 0.38498232 0.51099193 0.29986098 0.40665108
0.36546147 0.43344957 0.26297924 0.23723783 0.29086152 0.4110773 1.0918099 0.23645063
0.24287897 0.40612555 0.35257015 0.34451416 0.24196427 0.22561553 0.3051171 0.12181011
0.12783481 0.17666185 0.37976706 0.572108 0.12640306 0.18637481 1.1274949 0.29616982
0.16985746 0.21749467 0.17741708 0.42082578 0.4092575 0.13412437 0.26227686 0.63691074
0.61446077 0.17088778 0.3132298 0.15484226 0.21003273 0.18350147 0.5464537 0.24087419
0.30566165 0.43128264 0.21036895 0.19403252 0.29428008 0.39131674 0.24235305 0.32652548
0.32213238 0.21117528 0.24255168 0.40550125 0.28887492 0.3071849 0.36978507 0.4135052
0.20708343 0.16175084 0.20780917 0.225175 0.25294593 0.23317549 0.33087742 0.15465447
0.13711059 0.39304984 0.2734737 0.781536 0.23301378 0.9339714 0.35869402 0.39875573
0.21988906 0.19796412 0.3016608 0.23737249 0.22978702 0.20934957 0.27754095 0.26973462
0.29234895 0.32372016 0.1897178 0.54797673 0.21665056 0.28183562 0.17024651 0.23843138
0.39414448 0.15962541 0.2816393 0.19988897 0.19206071 0.34705612 0.21605211 0.33312163
0.35347226 0.23363677 0.34905294 0.5497151 0.37311342 0.21957654 0.36963695 0.16874179
0.24379638 0.33340687 0.16117272 0.35494918 0.35725096 1.097827 0.34097603 0.21685827
0.31367818 0.2548739 0.13697967 0.25135076 0.26525348 0.1851754 0.30304444 0.3925493
0.15756567 0.19788203 0.1876864 0.19225244 0.28734717 0.45763066 0.23219791 0.29397997
0.23732303 0.34268755 0.4188138 0.32420135 0.17926145 0.17059027 0.37570566 0.39923123
0.3518127 0.22340009 0.1515807 0.27519816 0.40946588 0.23770249 0.19237915 0.25628963
0.14141017 0.29233223 0.69103247 0.33234125 0.2439454 0.29923746 0.5026355 0.22011755
0.21423599 0.2134141 0.33886084 0.25071472 0.27233532 0.46798363 0.279981 0.19571939
0.16963246 0.5238142 0.4689482 0.2326108 0.25622824 0.2263229 0.17944919 0.20745715
0.43205056 0.18561466 0.26713103 0.4711461 0.2760477 0.40725386 0.39010713 0.41665748
0.14823763 0.33466431 0.17107174 0.15793896 0.31080836 0.35345325 0.27114287 0.67596436

bn1.bias f4 [256]
00000000: 16a9 1d3e 14d4 bb3c 5ca0 8ebe 35d8 37bc
00000010: a1b3 c93d 0ccb aa3d 755c 883d 57d2 a83d
00000020: 8d05 e23d 3e63 d83c 3ed7 ebbd 9e13 d2bd
00000030: a842 81bd 0c10 05be 4a56 953d fa87 8e3c
00000040: e60c ac3d aefc 3f3e f2f6 dd3d 4bc5 073e
00000050: b92b 6c3e ee08 353e 8a19 c13d 2235 f93d
00000060: 797f bbbc 6cec c03d 9be9 493e 5d48 6e3e
00000070: 4321 2e3d 4226 0d3d f96c b93d f625 b23e
00000080: 9e75 09bd 5cf7 033e 4d5c cd3d 6ab2 843d
00000090: 7f18 0e3c 9555 4e3c 818c b23d 3911 023e
000000a0: 23f1 0a3e 3e93 c73d d168 1a3e 6bdc 503d
000000b0: 178c 343e 37e4 a33d 90b8 793e 42c4 6e3e
000000c0: 020c e03c 22da a73d 78a9 e53d 4780 ef3d
000000d0: 1332 623e 7a66 2e3e f16b 953c cbaf f23d
000000e0: ef26 213d e602 59be b9f6 6c3e b6ea 613e
000000f0: 8119 6b3e e963 9f3d 38ef 6a3d aa7d ed3d
00000100: f620 a73c 82e2 203a 0d07 b33d c8ee a03d
00000110: 2070 163e 5892 6f3e 47d3 4e3d d07d 2d3e
00000120: ec04 123d 61e1 93bd 70cd a43d d304 a03d
00000130: 8ae4 9f3d 634b 183e 59e0 313e 202f d9bb
00000140: a0ed 063e 8c3e 083d d762 933d f67c 043e
00000150: 4f87 8c3d 7b91 853c f27f 123e b65d e9bb
00000160: dd83 063d ffea ccbc 9c88 fb3d 0859 493e
00000170: 288c b7bc ad61 09bd d3f9 21bd 3552 553d
00000180: 215c 6c3d 3a3f a83d 3bcd 0b3d 3cba 0b3e
00000190: d4b0 4b3e ae60 15bd 8487 ab3d 9cc9 533d
000001a0: 7dd8 2e3e 2a72 08bc a3e9 f13d e5a1 093d
000001b0: 4d81 603d a8a3 68bd c440 823e dcd1 cf3b
000001c0: 1b05 653d 0a3c 483e 4f2f a53d e3ab 213d
000001d0: 3dcd bb3d ac8f 593d 7f5f 3d3d f85e 7a3e
000001e0: 1f85 fb3d 4f33 e73d ba96 403c 0055 413e
000001f0: f361 823c 3bcb af3d 792a b83d b9d7 5f3e
00000200: be24 963d a5bd 3e3d f277 e43d c5af 773d
00000210: 758d 183d 564b 983d 9776 3bbd 54da 273d
00000220: 795d 4b3c ff9f 3a3e 050b ffbc 78b0 a13e
00000230: 61e9 663d d3c0 933e 436d a1bc adba 233e
00000240: 6ee7 3a3d 52a8 383c d49b 053e 0590 a83d
00000250: c53c d53d 18c8 593d d6e6 193d b57a 073e
00000260: b5af 003e 641c fc3c fe24 613c a52c bdbd
00000270: 4d4e 2ebd bce2 253d d73f d83c 2af3 8b3d
00000280: 7b79 2c3e f1d6 03be a230 9c3d 8fd0 823d
00000290: d474 883d 747d e73b 9a4e 383d 1e92 6c3e
000002a0: 2a4e 453e e31a 033d 5650 5a3d 4271 653e
000002b0: 52b3 fb3d f6b8 5abc a3f1 0d3e 3791 0a3d
000002c0: a23a 4e3d 2380 80bd 07c6 4d3c f281 ea3d
000002d0: 522c a13d 6336 5a3e bafb 533e cf82 883d
000002e0: d4b4 a43d 7d20 053e c6bd 5d3c 3b8d 493d
000002f0: 420b c23d 0a75 463d 719e 8c3d 6db1 6f3d
00000300: f8b6 9c3c d13c 383d b1d6 973d c8a0 e2bd
00000310: ce7f 8b3d e1bd 4c3e 5f7d 763d 5507 433c
00000320: 228b 853d b68e f03d 8e31 6d3e 434d 043e
00000330: 560f 1d3d 579c bebb 8bc7 313e e8f0 94bd
00000340: 2dbf 303e 8438 043d 3668 62bd 5186 3d3d
00000350: c687 263e fc8f 4b3d 06e1 2a3e ed74 a73d
00000360: b9a6 04bd 2ae9 e53d 51f1 1cbd 44bb 273e
00000370: 34dc b63d 80e3 fa3d e515 483e 05fd 563d
00000380: 6f64 0e3d 527c 383d db31 383e f4b3 bf3d
00000390: faf9 753d b0d8 623e e862 a63d 0c7e e33d
000003a0: cbf9 ac3d 1cae 103e 7d92 843e c384 c63d
000003b0: 377e db3d 84f8 b13d 179a 723d e58c 633d
000003c0: 4610 1c3e 70c0 9e3c 9f64 033e 9d42 633e
000003d0: d37e ec3d 09b2 b13d f2bb 633e eb25 603d
000003e0: 9d9f 043d 04e9 ce3d b259 aa3d 0275 cabc
000003f0: e416 ba3c 3ec7 2f3e 9e74 c73c d5e5 0a3e
0.15396532 0.022928275 -0.2785672 -0.011220981 0.098487146 0.08339509 0.0665826 0.08243244
0.11036215 0.02641451 -0.115156636 -0.10257648 -0.06311542 -0.12994403 0.07291849 0.017398823
0.08400898 0.18748733 0.10838117 0.13258855 0.23063554 0.17679188 0.09428699 0.121683374
-0.022887932 0.09420094 0.1971802 0.23269792 0.04251219 0.034460314 0.09053988 0.34794587
-0.033559434 0.12887329 0.100273706 0.06479342 0.0086728325 0.0125936465 0.08718205 0.12701882
0.13568549 0.09744881 0.15079047 0.050991457 0.17631565 0.08002513 0.24386811 0.23317054
0.027349476 0.081959024 0.11213964 0.11694389 0.22089414 0.17031279 0.018239947 0.11849936
0.03934377 -0.21192512 0.23140992 0.22062191 0.22958948 0.07782728 0.057357043 0.11596234
0.02040146 0.0006137268 0.08741579 0.07858044 0.1469121 0.2339567 0.05049446 0.16942525
0.035649225 -0.07220722 0.080469966 0.0781342 0.07807262 0.14872508 0.17370738 -0.006627932
0.13176584 0.033262774 0.071965866 0.12938294 0.068617456 0.016304722 0.1430662 -0.007121767
0.0328406 -0.025014399 0.122819155 0.19662869 -0.022405699 -0.033540417 -0.03954489 0.05208035
0.05770505 0.082151845 0.03413127 0.13645262 0.19891673 -0.036469154 0.08375457 0.05170594
0.17074771 -0.008328 0.11812141 0.03360166 0.05481081 -0.0567967 0.25440037 0.006342156
0.055913072 0.19554153 0.08065664 0.039470565 0.091700055 0.05311553 0.04623365 0.2445029
0.1228125 0.11289083 0.011754686 0.18880081 0.015915846 0.08583685 0.08992476 0.21859635
0.07331227 0.046567578 0.1115569 0.06047036 0.03724428 0.07436244 -0.045767393 0.0409797
0.012412422 0.18225096 -0.031133184 0.31579947 0.05637491 0.2885805 -0.01970542 0.1598918
0.045630865 0.011270599 0.13047725 0.082305945 0.104119815 0.05316934 0.037573658 0.13230403
0.12567027 0.030775256 0.01374173 -0.09237031 -0.042555142 0.040499434 0.026397629 0.06833489
0.16843216 -0.12874962 0.076264635 0.06387436 0.06662908 0.0070645157 0.044996835 0.23102614
0.19268098 0.032008063 0.05329927 0.22406486 0.12290062 -0.013349762 0.13861708 0.033829894
0.050348885 -0.0627444 0.01255942 0.11450566 0.078697816 0.2130981 0.20701495 0.06665575
0.08042303 0.13000675 0.013534015 0.049206953 0.094748035 0.04845146 0.06866158 0.058518816
0.019130215 0.044979874 0.07413996 -0.11065823 0.06811486 0.19994308 0.060178157 0.011903604
0.06520678 0.1174597 0.23163435 0.12920098 0.038344704 -0.005816977 0.17361276 -0.07272512
0.17260428 0.03228046 -0.055275165 0.046270672 0.16262731 0.04969786 0.16687402 0.08176599
-0.03238556 0.11226113 -0.038316075 0.1638003 0.08928719 0.122504234 0.19539602 0.052487392
0.03476375 0.045040436 0.17987768 0.09360495 0.06005285 0.22152972 0.081243336 0.11108026
0.08446082 0.14128917 0.25893012 0.09693291 0.10717433 0.08689979 0.059228983 0.05555429
0.15240583 0.01937887 0.12831353 0.2219338 0.11547627 0.08676536 0.22239664 0.05472366
0.03237878 0.10103038 0.08317889 -0.024713997 0.022715993 0.17165849 0.0243476 0.13564236

bn1.running_mean f4 [256]
00000000: f078 db3f aa73 053f 0252 e93e 543d 8e3e
00000010: a168 ba3d ccef 0c40 8f4c 9e3f 962c 083f
00000020: e3d8 d73f e1e8 963f b928 4f3f 5333 8340
00000030: a3f8 b63f 68cd ad3f c2db 443f 188b 3c3f
00000040: 7d1c 043f 0750 4e40 bfcf 5040 f132 cc3e
00000050: 2210 1740 8689 523f 0a4c a03f 6e64 843f
00000060: 7429 b23f f92c 1e3f 4876 7340 ae9a 593f
00000070: bcc5 d540 178a d93e 802b 0540 ee0b 993e
00000080: 6fda 9340 f225 2b3f ddaa 883e a8fe db3f
00000090: 9027 1c3f f778 8b40 dea8 b73f 3c39 be3f
000000a0: 004a 2d40 237c e03f a522 463f 2084 a33f
000000b0: aea6 023e 8ad8 093f 43e7 7140 364b b93f
000000c0: 7bbc 863f dfa7 3f3f 3a9e 033f 7d02 2940
000000d0: 0649 623f 86f7 283f 2cae 443f 7ec4 3a3f
000000e0: 721f 0d3e c1d3 af40 d830 1c3e 2f13 0d3f
000000f0: f6cc 5940 7a4c 2a3f 2211 0440 d246 8a3f
00000100: b55b 463f 5a69 9640 d710 2740 bfc8 2740
00000110: 71d2 1940 bfba d33f 4653 ac3f 9df3 733f
00000120: 9036 a93f 18f6 9e40 258d 043f 8e08 873e
00000130: 560c a03f 28ca 113f dbba 0f40 11a2 ba3f
00000140: 8a1b 6340 fa38 ff3f b36d ad3e b985 923e
00000150: 0639 483f fc59 0d40 08ed 3c3f 02ea eb3f
00000160: 1ab1 d13e 296d bf3f 81b9 093f 92c2 933e
00000170: 92a5 983f ad74 bb3f 3d57 6e41 7068 4f40
00000180: b8dc 8f40 615b 673f 3f37 9c3f 5067 c73f
00000190: e627 3940 91ac a03f 8c30 0e3f ab47 933f
000001a0: a8e8 5b3e 67e6 3040 4249 453f 7375 d63e
000001b0: 0f0c 2f3f 974d 9f3f 839c a63f 26ae 2d3f
000001c0: 1ac9 d33f e925 b440 2b4b 933f 53f2 cf3f
000001d0: ae28 0340 aaca d73f abdd 0140 4ea6 853f
000001e0: 1011 643f 392b b33e 4054 f23f 5af3 0140
000001f0: dcc6 c73e f0ef 743e d170 fe3f d985 1a40
00000200: 89e5 023f 1062 cb3f 9946 4240 21e6 293f
00000210: f591 513e c53c 0e3f be1a 0f41 da98 a53e
00000220: 5138 463f 71a8 fc3f 042c 9d3f 35f8 e540
00000230: 7006 2c3f 7fda 1f3f f167 f83f a3de b43f
00000240: 0a18 833f 8e05 853f bacb 9f3e 4841 fe40
00000250: e6eb ce3f 88f0 ec3e 7322 713f d664 3f3f
00000260: ea23 633f c09a 0e40 62d8 2f3e ac1d 8441
00000270: d07c 8b3f d1ca 833f cb16 6c3f 7227 893f
00000280: 63d4 8b3f eb3e 573f 7293 823f fb3b d13e
00000290: 2f3b c53e 54e7 af3e 76af 033f 0f75 c340
000002a0: 4958 6440 0fdd 083f 7676 eb40 67cf c33f
000002b0: 94cf 943f 52be 983e 6fcd 703f 9c97 9f3e
000002c0: 840a 4f3e 6ff2 7041 6ff5 873f 0c12 1f3f
000002d0: d75c d43f 58d2 3941 55c7 f33f 7819 a53e
000002e0: 8e06 c43e 173b 6b40 eb56 6a3f c54b b33e
000002f0: 1d13 f83f 1041 0b3f fa1e 0b40 36f2 4040
00000300: 5846 353f 6094 953e d75d 803e c0d3 313f
00000310: 8aa3 3440 bb74 853f 1280 e03e c8df 6e40
00000320: 4499 e23f e1d0 123f d954 1040 2261 0c40
00000330: b775 833e 56c4 ef3f f232 4140 f3fa 2a3f
00000340: 6a93 0040 8a10 eb3e fc27 9c3f eb2c 4b40
00000350: f792 ca3f a47f 9f3e cb8d 853f 12e9 0940
00000360: b72c 503f ee88 b23f 8342 863f e0a6 9f3f
00000370: e408 323f 2840 413f 74f7 483f 41e8 ea3f
00000380: ce64 0741 b1cb 333e 752a 7e40 a29d 5d40
00000390: 81b8 e03e c1cf d040 395c 033f 7e50 3940
000003a0: 61aa 813e d848 f23e a264 3340 baae 463f
000003b0: 615e 1540 0c75 2b3f 62b8 e03e d148 a23f
000003c0: 7ca2 a23f 0dd8 7e40 a0e7 6540 9958 0540
000003d0: aef5 3340 fb92 153f 30d0 4e40 33ad 8c3e
000003e0: c33a 0e3f bcd4 b93e d8c5 123f 8889 dd3e
000003f0: e210 393f 5507 523f 32f5 a83f 404e 8640
1.7146282 0.52129614 0.4557038 0.27781165 0.09101988 2.202136 1.2367114 0.5319303
1.6863064 1.1789819 0.8092151 4.100015 1.4294628 1.357831 0.76897824 0.7364974
0.5160597 3.2236345 3.2626798 0.39882615 2.3603597 0.82241094 1.2523205 1.0343149
1.39189 0.6178737 3.8040943 0.8500165 6.6803875 0.42488167 2.08078 0.29891914
4.6204143 0.66854775 0.26692858 1.718709 0.6099787 4.358516 1.4348409 1.4861217
2.7076416 1.7537884 0.77396613 1.2774696 0.12758896 0.5384604 3.77974 1.4476078
1.052627 0.74865526 0.5141331 2.6407769 0.88392675 0.6600269 0.76828265 0.72956073
0.13781527 5.494599 0.15253007 0.55107397 3.4031348 0.66522944 2.0635457 1.0802863
0.77483684 4.7003603 2.6104028 2.6216276 2.4034693 1.6541365 1.3462913 0.952936
1.3219776 4.9675407 0.5177787 0.26373714 1.2503765 0.5694909 2.2457798 1.4580709
3.5485559 1.9939263 0.33872756 0.28617647 0.7821201 2.2086172 0.7379918 1.8430789
0.4095543 1.4955188 0.5379868 0.28859383 1.1925528 1.4644982 14.896298 3.2407494
4.495693 0.9037381 1.220436 1.5578403 2.8930602 1.2552663 0.55542827 1.1506246
0.2147547 2.7640626 0.7706491 0.41886482 0.68377775 1.2445554 1.3016514 0.67843854
1.6545746 5.6296277 1.1507314 1.6245826 2.049358 1.6858723 2.0291545 1.0441377
0.89088535 0.34993914 1.8931961 2.030478 0.39018905 0.23919654 1.9878179 2.4144194
0.5113149 1.5889301 3.035559 0.66366774 0.20465834 0.55561477 8.944029 0.3234318
0.7742968 1.9738904 1.2279058 7.1865487 0.6719732 0.62442774 1.940672 1.4130443
1.0241711 1.039232 0.3121012 7.945469 1.616574 0.4627726 0.9419319 0.7476324
0.88726676 2.2281952 0.17172387 16.514488 1.0897465 1.029627 0.9222228 1.0715163
1.092419 0.8408038 1.0201247 0.40866074 0.38521716 0.34356177 0.5143961 6.1080394
3.5678885 0.5346231 7.3582106 1.5297669 1.1625848 0.29832703 0.94063467 0.31170356
0.20218855 15.059188 1.0621775 0.6213691 1.6590832 11.613853 1.9045206 0.32245994
0.3828625 3.6754816 0.91538876 0.35018745 1.9380833 0.5439615 2.1737657 3.0147834
0.7081046 0.29214764 0.25071594 0.6946373 2.8224816 1.0426248 0.4384771 3.7324085
1.7703023 0.57349974 2.2551787 2.1934285 0.25675747 1.8731792 3.0187345 0.6678917
2.0089974 0.45911056 1.2199702 3.1746166 1.58261 0.3115207 1.0433897 2.1548505
0.8131823 1.3948038 1.0489048 1.2472801 0.69544816 0.7548852 0.78502584 1.8352128
8.4621105 0.17558171 3.9713414 3.4627461 0.43890765 6.5253606 0.51312596 2.8955379
0.253253 0.473212 2.8030171 0.7761036 2.3338854 0.66975474 0.43890673 1.2678472
1.2705836 3.9819367 3.5922623 2.0835326 2.81187 0.584274 3.2314568 0.2747589
0.55558413 0.36295116 0.57333136 0.4326899 0.72291386 0.8204244 1.3199828 4.197052

bn1.running_var f4 [256]
00000000: 2acb ef40 4753 6540 ccb5 3440 6777 683f
00000010: 0248 c93e a48a 7641 b7c8 1241 3f66 3140
00000020: 1097 0141 2538 b540 71c3 8440 906e ae41
00000030: 94d7 de40 3176 3a41 ad92 a240 47da 8740
00000040: 5440 5e40 d42b 8541 bb2f a441 b412 bf3f
00000050: e4a7 4241 d5a2 4d40 78c6 0241 28a0 9940
00000060: a842 1141 d81f 7640 0743 d541 30ac 7140
00000070: fd04 e941 724a e93f 65ab 7a41 de53 ce3e
00000080: 782e b041 9068 3540 1b43 903f 490b 5f41
00000090: 0863 2040 b704 c941 dde1 ee40 be3c 3a41
000000a0: d8b3 9541 cd43 4b41 d6d2 8240 c844 cc40
000000b0: 16ba df3e 2f0b 3940 7476 a541 a758 9c40
000000c0: 4531 a640 32fb b540 41b8 2d40 48a5 a141
000000d0: 4283 5140 72cd 1a40 fe22 8f40 fcd4 3a40
000000e0: 6a6b 0d3f 9e74 af41 37b0 063f 998f f33f
000000f0: 31ff b041 3001 a440 30cd 5441 1b10 e640
00000100: 617a 1c40 fd49 c441 d312 5d41 349d 6541
00000110: 6dcc 6a41 aeb8 7641 1130 a340 899a 9e40
00000120: be4c 0c41 7b55 1642 e00e 7140 040a b73f
00000130: 66c9 0a41 6fc0 0040 fab7 3641 01b3 3f41
00000140: c661 8c41 0ed5 8941 3b2b 2b3f 4928 e63f
00000150: 5bd2 8940 0b0e c540 efb7 6940 f560 6941
00000160: ec37 3b40 fd00 d640 329a 4840 bf3c 423f
00000170: 3006 e840 35ae 2f41 ba46 8d43 1259 9541
00000180: c1cd f641 afe7 a040 b47e fe40 1a17 0e41
00000190: b79b 0442 def3 c240 23db 0340 a1e9 763f
000001a0: 8da6 013e 3fd4 8341 cb71 5e40 d662 0740
000001b0: 8316 5c40 9410 ee40 bd60 fa40 f13e 2840
000001c0: 20f7 c740 e637 ab41 c28a df40 7be0 2a41
000001d0: 4424 2e41 e120 ae40 a858 ec40 2715 5e40
000001e0: f9fa ba40 324f a13f aa1d 6541 0b21 2f41
000001f0: 0b45 a73f 1cac 943f 3871 4141 2c60 3e41
00000200: 054c e03f 43d6 1941 3a18 0242 e16a 8740
00000210: bf78 3b3f 9842 1a40 5688 e341 e7c2 e13f
00000220: 0de4 d840 0a20 3941 bcd5 d040 86f0 b942
00000230: 925e cf3f eb2e 0840 3ea0 eb40 ebdf 2141
00000240: 9edd c740 60bf 1141 3966 a33f 60df d241
00000250: e4af 0a41 a550 2040 04ef a140 8a3a 7940
00000260: e07e 8c40 34d3 8341 8483 5d3f 1f4b b343
00000270: a337 ba40 66ac 1041 ea3e 8e40 bb84 b240
00000280: 25cc b440 d0b5 7e40 a022 9540 e971 c13f
00000290: 5b90 e53f 3e80 683f 973d 2e40 8518 1242
000002a0: 69af 8d41 a39b c23f b488 0d42 e279 f540
000002b0: 2858 d640 359d a43f 7587 8d40 352f 0440
000002c0: 271c 693f 71eb 9443 b8f1 8f40 7881 4640
000002d0: 4858 1241 c6d8 5843 2d99 4f41 8a46 1440
000002e0: 8aa7 a13f 7bd5 ef41 91e9 f140 c9fb d83f
000002f0: 4b82 5441 595f 2c40 569f 9141 38ec 4b41
00000300: 261c 5840 8a97 b23f 7341 433f 4871 3040
00000310: 9682 8541 1619 d940 9edc 4b40 3c17 3f41
00000320: a958 0941 0beb 4840 f6fd 4341 d366 8141
00000330: 89e1 8d3f e5b7 1f41 b4d9 e641 30fc 1c40
00000340: 94d0 1a41 37a1 2d40 f21f 9340 c092 c441
00000350: a913 1141 c4f4 963f 55f9 b840 2bc8 3941
00000360: f22d bb40 1530 b240 2fd0 453f 8096 7740
00000370: e242 8040 cfae 3740 27a0 a040 3676 2141
00000380: 6095 4542 118d 6b3f 1e5a 3242 21d1 c941
00000390: f140 d43f afa3 2342 bf00 7640 4791 6b41
000003a0: bee6 d73f 8466 4b3f 8564 b141 63a6 5240
000003b0: e074 1c41 1381 1740 6ad2 ed3f 6405 3141
000003c0: df5c b640 2707 dc41 6919 c241 cb9d 9741
000003d0: 2d7f 7d41 ea98 5840 a2d0 9a41 f952 883f
000003e0: 296b 1240 ca2a fb3f f6bd 5540 16a8 ef3f
000003f0: 4213 ab40 24d0 9f40 d491 0941 ee4e bc40
7.4935503 3.5832078 2.823596 0.90807194 0.3931275 15.408848 9.174003 2.7718656
8.0993805 5.6631036 4.1488576 21.803986 6.9638157 11.653855 5.0804048 4.245395
3.4726763 16.6464 20.523306 1.4927583 12.165989 3.2130635 8.173454 4.8008003
9.0787735 3.8456936 26.657728 3.7761345 29.127436 1.8225844 15.666844 0.4029836
22.02269 2.834507 1.1270479 13.940255 2.5060444 25.127302 7.465071 11.63983
18.712814 12.704053 4.088237 6.383396 0.4369666 2.8913076 20.682838 4.885822
5.1935143 5.6869135 2.714371 20.205704 3.2736363 2.4187894 4.4730215 2.9192495
0.55242026 21.931942 0.5261263 1.9028198 22.124605 5.125145 13.300095 7.189466
2.4449694 24.536127 13.817096 14.35088 14.674909 15.420088 5.0996175 4.956364
8.768736 37.583477 3.766533 1.4299932 8.67417 2.0117452 11.419916 11.981202
17.54774 17.22903 0.6686284 1.7981044 4.306928 6.157964 3.6518514 14.586171
2.9252882 6.6876206 3.1344113 0.7587394 7.2507553 10.980031 282.55255 18.668491
30.850466 5.0282817 7.9529667 8.88064 33.152065 6.092269 2.06025 0.9645024
0.1266119 16.478636 3.4756954 2.1154075 3.438874 7.4395237 7.824309 2.6288416
6.2489166 21.402294 6.985688 10.679805 10.883854 5.4415135 7.3858223 3.470041
5.8431363 1.2602293 14.319742 10.945567 1.3067945 1.1615024 12.090141 11.898479
1.7523199 9.61481 32.52366 4.2317967 0.7323112 2.4103146 28.44157 1.7637604
6.777838 11.570322 6.5260906 92.96977 1.6200736 2.1278636 7.363311 10.117167
6.245803 9.109222 1.2765571 26.35907 8.667942 2.5049222 5.0604267 3.894198
4.3904877 16.478127 0.865288 358.58688 5.8192916 9.042089 4.44518 5.5787024
5.64992 3.979847 4.6604767 1.5112888 1.7934679 0.9082068 2.7225091 36.523945
17.71065 1.5203747 35.3835 7.6711283 6.6982613 1.2860476 4.4227853 2.0653813
0.9105858 297.8394 4.4982567 3.1016521 9.146553 216.84677 12.974896 2.3168054
1.2629254 29.979239 7.5597615 1.6951839 13.28181 2.6933196 18.2028 12.745171
3.376718 1.3952496 0.7627174 2.7569141 16.688763 6.7843122 3.1853404 11.943172
8.584146 3.139346 12.249502 16.175207 1.1084453 9.982396 28.8563 2.4528923
9.675922 2.7129648 4.5976496 24.571655 9.0673 1.1793447 5.780436 11.611369
5.8493586 5.5683694 0.7727079 3.8685608 4.0081644 2.8700445 5.01955 10.09136
49.395874 0.92012125 44.588005 25.227114 1.6582319 40.909847 3.8437955 14.722968
1.6867292 0.794533 22.174082 3.2914054 9.778534 2.367253 1.8579838 11.063816
5.698837 27.503492 24.262407 18.952047 15.843549 3.3843331 19.351871 1.0650321
2.2877905 1.9622433 3.3397193 1.8723171 5.346101 4.994158 8.598103 5.884635
